code/models/race_net_official.pt (torch, 90271 bytes, 6 tensors)

layer1.weight f4 [128, 27]
-0.069876075 -0.17174236 0.10499882 0.11615946 -0.13782895 0.11098998 -0.038168058 -0.14411804
-0.0042885365 -0.016000502 0.14855516 0.06840897 0.0769964 -0.039930385 -0.15956348 0.03199343
0.13350882 -0.13489172 0.15791196 -0.18015629 0.0011451069 0.038712323 -0.051717155 -0.07588174
0.08257103 0.05705975 -0.058811307 0.11335454 -0.04570844 0.114204675 0.05818943 -0.0055516683
0.15100938 0.08203767 -0.11615209 -0.16971314 0.050464436 0.13733594 -0.051298797 0.0059195855
0.017386466 0.2227289 0.19429699 0.087128796 -0.17982867 -0.16834137 0.13365088 -0.13392405
-0.077738605 0.12398835 0.097482644 0.057968378 -0.13753392 0.32082355 0.118857846 0.024149869
0.21626018 -0.069544815 0.16141845 -0.16280077 0.008321951 -0.011147223 -0.047564372 -0.19618392
0.13650692 -0.11948949 0.2539522 0.04141074 0.27305526 0.018834908 0.15687566 0.078285255
0.04498292 -0.13013805 0.039804384 -0.13784406 -0.041576892 0.034734797 0.074984185 -0.017924689
0.3183692 -0.20725821 0.1189925 -0.09704032 0.103439115 0.24970752 -0.02438596 -0.011662545
-0.1794335 0.17141569 0.0834385 -0.060849443 0.16437684 -0.021142233 -0.05728119 0.15063903
0.13975376 0.11084639 0.18306664 0.066152796 0.20752797 -0.00748723 -0.02012866 -0.03166874
-0.09517937 0.044132765 0.15620132 -0.25541776 0.018233582 -0.09619615 0.12928405 -0.079751
-0.069415465 0.07642481 0.002060369 0.11102063 0.1124487 -0.044427246 -0.031109627 0.05136054
-0.10692653 0.13371855 -0.14516813 0.15072756 0.2855865 -0.09925375 0.118312836 -0.09944026
0.2165276 0.19852513 0.06339434 0.16768661 -0.061582003 0.1690359 0.09550577 -0.20271917
0.19130419 2.2085153e-06 0.17899562 -0.036957946 0.11239958 0.0044001937 0.23700766 -0.19626802
0.16739963 -0.18352906 -0.07656817 -0.13867876 -0.0606861 0.015805067 0.0028626728 -0.056330267
-0.12572315 0.06810136 0.10976636 0.1489121 0.14067137 -0.076190054 0.13679388 0.08828637
0.22870241 0.37480813 -0.1984141 0.22273217 0.2106636 -0.12762524 0.0058266097 -0.024280533
-0.110087395 0.1884143 -0.11985259 0.1729752 0.21529081 0.06610271 0.10451323 0.21866268
0.023259075 0.147151 0.07140321 0.13165432 0.24377634 -0.12221679 -0.0080957385 -0.039985828
0.18562955 0.18259637 -0.04883293 0.06291176 -0.09389139 0.16279599 -0.09883122 -0.0832892
0.11866714 -0.078880176 -0.1888711 -0.03457989 0.0385462 0.247667 0.058716152 0.026137875
0.10656096 0.05145253 0.046297062 0.10784828 0.21315075 -0.1971117 -0.030098792 -0.21493146
0.079287626 -0.18275464 -0.11263167 0.056371067 0.006708931 -0.03715823 0.05422055 0.11421082
0.12299935 -0.06425087 -0.16647561 0.0412563 -0.037096493 -0.17929533 0.05346673 -0.16479902
0.018809132 -0.037981387 -0.06799174 0.05004051 0.10440944 -0.046855945 0.12250866 -0.028633043
0.0011259968 0.017607298 -0.14963561 0.13009493 -0.008576794 -0.17907864 -0.13019179 -0.1389213
0.069076315 -0.052873038 -0.12861629 0.078918815 -0.031457342 0.16821204 0.12039648 0.07518345
-0.112841666 0.09729226 -0.037614726 0.08141729 -0.014311861 0.10668509 0.112121955 -0.033930935
00000000: 301b 8fbd 3bdd 2fbe 9f09 d73d 03e5 ed3d
00000010: 0823 0dbe b74e e33d 1c56 1cbd ae93 13be
00000020: da86 8cbb 7c13 83bc d81e 183e 011a 8c3d
00000030: 4ab0 9d3d 0b8e 23bd 9c64 23be 8b0b 033d
00000040: 89b6 083e 0e21 0abe acb3 213e e47a 38be
00000050: 6917 963a d090 1e3d 5ed5 53bd e367 9bbd
00000060: 001b a93d 7cb7 693d 20e4 70bd 6d26 e83d
00000070: c638 3bbd 24e4 e93d 0a58 6e3d c5ea b5bb
00000080: 34a2 1a3e 5e03 a83d 26e1 edbd 48c9 2dbe
00000090: ccb3 4e3d cba1 0c3e b01e 52bd 15f9 c13b
000000a0: 106e 8e3c 0b13 643e caf5 463e 9570 b23d
000000b0: 0225 38be ae61 2cbe c7db 083e 6323 09be
000000c0: 6b35 9fbd 9bed fd3d fba4 c73d 4070 6d3d
000000d0: b1d5 0cbe fc42 a43e be6b f33d f2d5 c53c
000000e0: 4f73 5d3e 836d 8ebd e14a 253e 3fb5 26be
000000f0: cb58 083c d8a2 36bc dcd2 42bd 70e4 48be
00000100: 78c8 0b3e e8b6 f4bd 0606 823e 4f9e 293d
00000110: e6cd 8b3e aa4b 9a3c 03a4 203e 0554 a03d
00000120: 0340 383d e942 05be ec09 233d fe26 0dbe
00000130: 884c 2abd 1346 0e3d 4f91 993d ccd6 92bc
00000140: 4a01 a33e 7f3b 54be 57b2 f33d 13bd c6bd
00000150: e3d7 d33d 54b3 7f3e 11c5 c7bc 4214 3fbc
00000160: 6abd 37be 9887 2f3e cee1 aa3d 443d 79bd
00000170: 6752 283e 7a32 adbc ae9f 6abd 1e41 1a3e
00000180: 9c1b 0f3e 6f03 e33d d275 3b3e 1e7b 873d
00000190: 3682 543e 7057 f5bb dce4 a4bc 15b7 01bd
000001a0: 67ed c2bd 8fc4 343d 3df3 1f3e 1ec6 82be
000001b0: 985e 953c 7d02 c5bd 0a63 043e 7e54 a3bd
000001c0: b229 8ebd 9c84 9c3d 4107 073b c95e e33d
000001d0: 814b e63d 58f9 35bd 9ed9 febc 6e5f 523d
000001e0: 4cfc dabd 84ed 083e f4a6 14be 5358 1a3e
000001f0: 6538 923e 8d45 cbbd 004e f23d 56a7 cbbd
00000200: 69b9 5d3e 2c4a 4b3e e4d4 813d 0ab6 2b3e
00000210: 693d 7cbd bf17 2d3e 8798 c33d 9d95 4fbe
00000220: 3fe5 433e 0136 1436 a14a 373e 3761 17bd
00000230: c031 e63d 802f 903b 23b2 723e 7cfa 48be
00000240: cf6a 2b3e 0bef 3bbe c6cf 9cbd ce01 0ebe
00000250: fd91 78bd a179 813c ae9b 3b3b 91ba 66bd
00000260: 92bd 00be ba78 8b3d 2fcd e03d 6a7c 183e
00000270: 280c 103e 8809 9cbd b213 0c3e 7ccf b43d
00000280: f730 6a3e dae6 bf3e 112d 4bbe e713 643e
00000290: 33b8 573e 31b0 02be 25ed be3b f8e7 c6bc
000002a0: 8075 e1bd aeef 403e 4675 f5bd 6920 313e
000002b0: 3275 5c3e dc60 873d 080b d63d 1ce9 5f3e
000002c0: d189 be3c c0ae 163e d93b 923d 64d0 063e
000002d0: 81a0 793e cc4c fabd fda3 04bc 2ec8 23bd
000002e0: ac15 3e3e 8bfa 3a3e 0a05 48bd e1d7 803d
000002f0: 214a c0bd feb3 263e 0668 cabd 8793 aabd
00000300: c207 f33d ee8b a1bd 6d67 41be a5a3 0dbd
00000310: 9fe2 1d3d 6b9c 7d3e 5980 703d 191f d63c
00000320: a23c da3d e3bf 523d fda1 3d3d 8fdf dc3d
00000330: 3144 5a3e a6d7 49be be91 f6bc fe16 5cbe
00000340: 8d61 a23d 0824 3bbe 6fab e6bd 59e5 663d
00000350: 98d6 db3b 3a33 18bd 5e16 5e3d 5de7 e93d
00000360: 15e7 fb3d f695 83bd 9578 2abe 5efc 283d
00000370: 7ef2 17bd 3299 37be eeff 5a3d 13c1 28be
00000380: 9c15 9a3c 5f92 1bbd 413f 8bbd 47f7 4c3d
00000390: 9ed4 d53d 05ec 3fbd d2e5 fa3d d88f eabc
000003a0: 2f96 933a 2e3d 903c 143a 19be 9b37 053e
000003b0: ae85 0cbc 6460 37be ff50 05be 6341 0ebe
000003c0: e277 8d3d 6691 58bd fdb3 03be 30a0 a13d
000003d0: 6ad9 00bd c73f 2c3e 6e92 f63d c8f9 993d
000003e0: 8819 e7bd 2a41 c73d e611 1abd 1cbe a63d
000003f0: 4c7c 6abc b67d da3d 32a0 e53d 2afb 0abd

layer1.bias f4 [128]
0.04528118 -0.0053375075 -0.075018354 -0.16074613 0.18089083 -0.038058147 0.20543592 -0.04327113
0.18436928 -0.1873414 0.07890902 0.13641271 0.034542605 0.23436205 -0.10478989 -0.08227798
0.1381479 -0.010026725 0.15690304 0.0393939 0.041250307 0.20626837 0.14873138 0.025701074
-0.037121955 0.028427947 0.05280016 0.028486283 0.1777735 0.08899779 -0.17276238 0.23280714
0.034442786 0.09053212 -0.046236128 0.17406544 0.032407604 -0.0389921 -0.15175505 -0.031051451
-0.009582959 -0.070939966 -0.057769056 0.20601131 0.2015394 0.016168503 0.12593216 0.005756835
-0.03548569 0.040914036 -0.051364113 0.110370666 0.15889691 0.17235744 -0.04634974 0.11809831
0.033772748 0.1978071 -0.11172873 0.0475096 0.1741025 -0.10163616 -0.03614189 -0.1531484
0.20381567 -0.13161956 -0.1316794 -0.054851867 -0.088810965 0.09004428 0.08360441 0.07708628
0.23249903 0.10522235 0.038264077 -0.15595698 0.11428139 0.1293098 -0.16451456 0.12956084
0.17959024 0.08744935 -0.1799141 -0.03930546 0.14593406 0.02409006 -0.10851951 0.21629478
0.035053927 -0.037676714 -0.094076574 -0.038211774 -0.045796238 -0.021984505 -0.13807914 0.044375714
0.06359671 0.18920125 0.04726578 0.18411247 0.17735918 0.19887902 0.034638505 0.16357052
-0.03800699 -0.15461166 0.017341865 0.097215794 0.034825392 -0.13419667 0.069715194 0.19411291
-0.102375165 0.03857927 0.047721446 -0.17417869 0.085153416 0.017650532 0.16298491 -0.015384406
0.04744653 0.21090916 0.19223881 0.010238583 -0.09754773 0.12727521 0.048795365 0.14717898
00000000: c278 393d 42e6 aebb 39a3 99bd a29a 24be
00000010: 723b 393e dce2 1bbd cb5d 523e 123d 31bd
00000020: 4dcb 3c3e 6dd6 3fbe 0d9b a13d c6af 0b3e
00000030: 8c7c 0d3d 9bfc 6f3e 159c d6bd 5c81 a8bd
00000040: a576 0d3e 2247 24bc 31ab 203e 805b 213d
00000050: 15f6 283d 0438 533e 0a4d 183e 0f8b d23c
00000060: 310d 18bd bae1 e83c fb44 583d 115c e93c
00000070: 420a 363e 7944 b63d 9fe8 30be ff64 6e3e
00000080: e113 0d3d e768 b93d 1862 3dbd 363e 323e
00000090: d6bd 043d 2eb6 1fbd ad65 1bbe 9d5f febc
000000a0: d801 1dbc f948 91bd 3f9f 6cbd a1f4 523e
000000b0: 5860 4e3e cf73 843c 5cf4 003e d5a3 bc3b
000000c0: 7159 11bd 7a95 273d 2d63 52bd 040a e23d
000000d0: dfb5 223e 787e 303e 3ad9 3dbd 87dd f13d
000000e0: 4b55 0a3d f28d 4a3e 08d2 e4bd 6d99 423d
000000f0: ed47 323e 9e26 d0bd 8509 14bd efd2 1cbe
00000100: 0eb5 503e 47c7 06be f7d6 06be 5aac 60bd
00000110: 86e2 b5bd 2369 b83d ca38 ab3d 69df 9d3d
00000120: 3a14 6e3e d17e d73d cbba 1c3d 30b3 1fbe
00000130: 5d0c ea3d ca69 043e 8176 28be 99ab 043e
00000140: 81e6 373e a518 b33d 673b 38be c3fe 20bd
00000150: bd6f 153e 8458 c53c 7a3f debd 617c 5d3e
00000160: b594 0f3d e652 1abd 38ab c0bd f383 1cbd
00000170: d694 3bbd d918 b4bc 9e64 0dbe 4fc3 353d
00000180: fe3e 823d f9bd 413e c399 413d fb87 3c3e
00000190: a59d 353e f1a6 4b3e 1be1 0d3d 087f 273e
000001a0: 38ad 1bbd 8552 1ebe 8710 8e3c 1319 c73d
000001b0: 12a5 0e3d da6a 09be d7c6 8e3d 89c5 463e
000001c0: 12aa d1bd 4c05 1e3d 9077 433d e65b 32be
000001d0: ea64 ae3d d997 903c 84e5 263e e00e 7cbc
000001e0: 4b57 423d 92f8 573e 40da 443e bbbf 273c
000001f0: 1bc7 c7bd 6f54 023e a6dd 473d 16b6 163e

layer2.weight f4 [128, 128]
-0.001238586 0.03105622 0.06987561 -0.038370624 0.06623698 0.07841778 0.070606045 -0.002370494
-0.007862556 -0.08363877 0.0665546 0.05790636 0.015132866 0.081800476 -0.060095582 -0.0016538318
-0.025825052 0.05350462 -0.060649652 -0.05310145 -0.030669412 -0.09402827 -0.029370077 -0.043562025
-0.080851465 -0.035144858 -0.0063348603 0.041029338 0.006311276 -0.057329997 -0.06114848 0.014500843
0.023976605 -0.08451842 -0.011232524 -0.061539892 0.009683801 -0.084272124 -0.014509063 -0.0796966
0.07027444 0.027962347 -0.037499525 -0.034219783 -0.06595872 0.005643961 -0.0828311 -0.040332794
-0.0112506645 0.068267636 -0.04233949 -0.019874597 0.012404549 0.072128616 -0.009974114 0.024603872
0.053799894 -0.09212223 -0.020871133 -0.041109994 0.05429005 0.023464572 0.024057584 -0.0049912333
0.05818635 0.027432024 -0.057042874 -0.062039547 0.06606174 0.040995892 0.03272512 0.031027323
0.05756259 -0.038471203 0.024217637 -0.0068312166 -0.071578026 -0.008132032 0.06047928 -0.07948416
0.004767503 0.004633241 -0.01268474 0.011031185 0.07156025 -0.003940561 0.025070198 0.026557807
0.01669936 0.004080058 0.035483323 0.07834567 -0.023832094 -0.08701504 0.035494294 -0.08187262
-0.034342855 0.009570665 0.06272912 -0.08283184 0.018185817 0.03047589 0.03799287 0.040527828
-0.034562096 0.035651773 -0.010800988 -0.0065729218 -0.07612375 -0.015742831 -0.005131968 0.0048523685
-0.06834166 0.050405487 0.014471911 -0.04924853 -0.01817246 -0.059610263 0.012373276 -0.06444515
-0.09174739 -0.008212011 -0.0065499954 -0.09037186 -0.073803805 -0.085002705 0.037822053 0.019080317
-0.008929879 -0.012994117 0.008877732 -0.012986336 -0.078466 -0.09522882 -0.034167863 0.029852146
0.079543255 -0.034076747 0.13308063 -0.013243758 -0.097890206 0.16812402 0.0027233292 -0.024376316
0.13987456 0.0007107479 0.055734847 -0.064047344 -0.012219405 0.06682438 0.064175956 0.04951208
-0.0063793072 -0.06083069 0.06320926 -0.031241234 0.12743217 -0.05021205 0.023869578 0.06619219
0.08122569 0.040997963 -0.083414294 0.119568706 0.12998898 0.13253571 0.08627504 0.018696869
-0.031293493 -0.067224704 -0.020823877 0.016648479 -0.010930636 0.038706023 0.015701484 -0.02171112
0.0946524 0.048359323 0.01235105 -0.045163438 0.10047886 0.09732353 0.021242486 0.07035509
-0.015691496 0.0982868 -0.070905715 -0.005275305 -0.07942795 -0.18223494 -0.037283868 0.0701331
0.099838786 -0.07385951 -0.030304909 -0.025173074 0.087676756 0.09963272 0.023520922 0.1891281
0.015969865 -0.0034018757 0.071106285 0.05895689 0.12255055 0.14762957 -0.015667392 0.0795817
0.07397356 -0.0062188935 0.041230686 -0.08287795 0.084274955 0.010803082 -0.05268807 -0.10016838
-0.115384504 -0.008780671 0.04392178 0.05303511 -0.03047647 0.06958537 -0.028651653 -0.035440516
-0.034020625 0.05937679 -0.03639158 0.072345644 0.024899324 0.07805664 -0.078285135 -0.07181194
0.06287774 -0.06383406 0.025502652 0.07177764 -0.06714183 -0.02254911 -0.052225187 -0.01265286
-0.09362606 -0.006366998 -0.03519168 0.036112864 0.06695305 0.003910299 -0.080100074 0.0616956
0.031236628 0.02561854 0.003640851 0.20003673 0.039604504 0.0671557 0.12559354 -0.058351
00000000: 0d58 a2ba 9d69 fe3c f21a 8f3d 842a 1dbd
00000010: 41a7 873d 8099 a03d e799 903d 4a5a 1bbb
00000020: f3d1 00bc ce4a abbd c74d 883d 382f 6d3d
00000030: d7ef 773c 0287 a73d c926 76bd 63c5 d8ba
00000040: 0f8f d3bc a927 5b3d c56b 78bd e880 59bd
00000050: 6b3e fbbc e591 c0bd 8499 f0bc 186e 32bd
00000060: 7495 a5bd 0ef4 0fbd a994 cfbb 610e 283d
00000070: d2ce ce3b dcd2 6abd d476 7abd f294 6d3c
00000080: 966a c43c fe17 adbd 9f08 38bc 4111 7cbd
00000090: cea8 1e3c dd96 acbd 6cb7 6dbc f937 a3bd
000000a0: 0cec 8f3d 4b11 e53c 1a99 19bd 0b2a 0cbd
000000b0: 5e15 87bd faf0 b83b 5aa3 a9bd 0034 25bd
000000c0: b554 38bc e7cf 8b3d 2c6c 2dbd 0dd0 a2bc
000000d0: 733c 4b3c 2bb8 933d 776a 23bc 0f8e c93c
000000e0: 475d 5c3d 94aa bcbd f0f9 aabc f462 28bd
000000f0: 3e5f 5e3d c638 c03c 6914 c53c 808d a3bb
00000100: cf54 6e3d 20b9 e03c caa5 69bd 2e1d 7ebd
00000110: 614b 873d 4feb 273d c70a 063d 032d fe3c
00000120: c0c6 6b3d fb93 1dbd 1164 c63c 66d8 dfbb
00000130: 8097 92bd 373c 05bc 1fb9 773d 97c8 a2bd
00000140: b738 9c3b 71d2 973b a8d3 4fbc 25bc 343c
00000150: 2e8e 923d d21f 81bb 0460 cd3c c28f d93c
00000160: 19cd 883c 02b2 853b f656 113d b273 a03d
00000170: 863b c3bc f134 b2bd 7762 113d d5ac a7bd
00000180: 18ab 0cbd 47ce 1c3c 2078 803d bda3 a9bd
00000190: 6cfa 943c 93a8 f93c 699e 1b3d 8200 263d
000001a0: fc90 0dbd 9807 123d a1f6 30bc aa61 d7bb
000001b0: c5e6 9bbd 1cf7 80bc 112a a8bb 9e00 9f3b
000001c0: b6f6 8bbd fc75 4e3d 981b 6d3c d4b8 49bd
000001d0: 69de 94bc e429 74bd 48b9 4a3c d2fb 83bd
000001e0: 0ee6 bbbd ac8b 06bc 58a1 d6bb e214 b9bd
000001f0: 7326 97bd e615 aebd 4ceb 1a3d 534e 9c3c
00000200: a14e 12bc 47e5 54bc e873 113c a4c4 54bc
00000210: c8b2 a0bd 5407 c3bd 9af3 0bbd 7d8c f43c
00000220: 93e7 a23d 0f94 0bbd 4a46 083e 59fc 58bc
00000230: a97a c8bd b428 2c3e e279 323b d7b0 c7bc
00000240: 473b 0f3e 7c51 3a3a 394a 643d 412b 83bd
00000250: e633 48bc 38db 883d af6e 833d 2ecd 4a3d
00000260: 8209 d1bb 9a29 79bd db73 813d 9eed ffbc
00000270: 947d 023e 27ab 4dbd 228a c33c c58f 873d
00000280: a859 a63d 7bed 273d 1dd5 aabd 70e0 f43d
00000290: d51b 053e 71b7 073e f8b0 b03d 2d2a 993c
000002a0: 9b2d 00bd 1bad 89bd d696 aabc 6462 883c
000002b0: 6916 33bc 358a 1e3d 66a0 803c 85db b1bc
000002c0: 1ed9 c13d 6d14 463d 0f5c 4a3c 4cfd 38bd
000002d0: dcc7 cd3d 8f51 c73d b904 ae3c 5416 903d
000002e0: 748b 80bc 974a c93d 0437 91bd 77dc acbb
000002f0: 1fab a2bd cc9b 3abe f8b6 18bd f1a1 8f3d
00000300: 4778 cc3d a843 97bd 0042 f8bc c337 cebc
00000310: df8f b33d 3d0c cc3d f3ae c03c ccaa 413e
00000320: 3cd3 823c 01f2 5ebb 2ca0 913d c87c 713d
00000330: c8fb fa3d 352c 173e e758 80bc bbfb a23d
00000340: 737f 973d dcc7 cbbb 82e1 283d eabb a9bd
00000350: 5998 ac3d 69ff 303c 72cf 57bd 1425 cdbd
00000360: b64e ecbd cedc 0fbc 53e7 333d 583b 593d
00000370: caa9 f9bc c682 8e3d dfb6 eabc 132a 11bd
00000380: 3659 0bbd 1435 733d 560f 15bd f429 943d
00000390: abf9 cb3c 29dc 9f3d f553 a0bd 2312 93bd
000003a0: 0bc6 803d 6fbb 82bd f0ea d03c 2800 933d
000003b0: a881 89bd e9b8 b8bc 14ea 55bd f14d 4fbc
000003c0: 05bf bfbd 40a2 d0bb 2725 10bd 15eb 133d
000003d0: ae1e 893d f721 803b 820b a4bd 87b4 7c3d
000003e0: f5e3 ff3c f9dd d13c 589b 6e3b 6ed6 4c3e
000003f0: 5538 223d ed88 893d 989b 003e 7501 6fbd

layer2.bias f4 [128]
-0.037173502 0.0891258 -0.060350314 0.10894805 -0.04418596 0.041757207 0.100687526 -0.014371214
0.17663519 0.057443324 -0.06350873 0.085185766 0.003103218 -0.058663614 0.011786249 -0.003937638
0.017618395 -0.03642536 0.068519406 0.04066833 -0.06503536 0.11614863 -0.06666128 -0.055865224
0.013919889 0.11365294 -0.010092006 -0.054750804 0.01672844 0.05543725 -0.018279538 -0.0018892979
0.009022552 0.10267949 -0.0779846 -0.012106183 -0.0155162215 0.11422094 0.02452746 0.051185258
-0.06806348 -0.00092790625 -0.017253768 0.06551965 0.03151096 0.062564805 -0.012678875 0.06881714
0.037475493 -0.04502356 0.048312295 0.10931767 0.08954066 0.0037652855 -0.010057328 0.026163835
0.020966806 -0.038997278 -0.039523862 -0.0689323 0.001560166 -0.017693728 0.04862031 0.02870693
0.031331934 0.03912102 0.046710607 0.06606316 -0.018082555 0.12198159 0.0727547 -0.035013303
-0.019046808 0.019206116 0.014833077 0.031371888 0.031000664 0.03472839 -0.070366345 0.023978475
0.13285577 0.05920498 -0.030392418 0.0047368854 -0.04241321 0.016256686 0.019883808 -0.0528768
0.04846757 -0.05380366 -0.08269277 0.10497856 0.078218244 -0.035449136 0.0034629358 -0.04795731
0.010458772 -0.019095901 0.06851994 -0.059133172 -0.067159034 -0.06361311 -0.027239155 -0.049310267
0.03127481 -0.021597326 0.045314215 0.039952964 -0.02067591 -0.053420745 0.009227299 -0.0072133546
0.0067537646 0.12307635 -0.05574896 -0.048827052 -0.04643344 -0.06649095 -0.024875332 -0.035662558
0.04111522 0.1839216 -0.0038436018 0.011320125 -0.0077968757 0.10964933 -0.005105193 -0.01964804
00000000: 3e43 18bd 9687 b63d e431 77bd 2820 df3d
00000010: 56fc 34bd 9b09 2b3d 4335 ce3d 3e75 6bbc
00000020: dbdf 343e b149 6b3d dd10 82bd e075 ae3d
00000030: 5c5f 4b3b 4249 70bd 1c1b 413c 4d07 81bb
00000040: 7454 903c c232 15bd e753 8c3d d693 263d
00000050: 4231 85bd 55df ed3d b685 88bd efd2 64bd
00000060: 3f10 643c dfc2 e83d f158 25bc 6142 60bd
00000070: 150a 893c 2b12 633d f8be 95bc 51a2 f7ba
00000080: 53d3 133c a049 d23d 64b6 9fbd 0359 46bc
00000090: c037 7ebc abec e93d d0ed c83c a2a7 513d
000000a0: de64 8bbd bc3e 73ba c657 8dbc 2b2f 863d
000000b0: a311 013d fa21 803d 0ebb 4fbc 00f0 8c3d
000000c0: e77f 193d a06a 38bd 1de3 453d f1e1 df3d
000000d0: 1861 b73d 02c3 763b 7ec7 24bc 8a55 d63c
000000e0: 94c2 ab3c 9cbb 1fbd c6e3 21bd 612c 8dbd
000000f0: 7c7e cc3a 70f2 90bc 1726 473d cc2a eb3c
00000100: ea55 003d 5d3d 203d 9f53 3f3d 1f4c 873d
00000110: de21 94bc 7cd1 f93d 6b00 953d 1c6a 0fbd
00000120: 0d08 9cbc 2556 9d3c 6f06 733c cf7f 003d
00000130: 1bf5 fd3c 5b3f 0e3d 3b1c 90bd 826e c43c
00000140: 580b 083e ec80 723d 85f9 f8bc e037 9b3b
00000150: 79b9 2dbd be2c 853c 5ee3 a23c 5895 58bd
00000160: ee85 463d 3a61 5cbd d45a a9bd 00ff d63d
00000170: e330 a03d 1d33 11bd 6cf2 623b e26e 44bd
00000180: 455b 2b3c 026f 9cbc 2f54 8c3d a035 72bd
00000190: ad8a 89bd 9747 82bd a624 dfbc 90f9 49bd
000001a0: 041a 003d e0ec b0bc 669b 393d b8a5 233d
000001b0: 8760 a9bc b6cf 5abd 192e 173c 015e ecbb
000001c0: af4e dd3b 740f fc3d 0559 64bd e0fe 47bd
000001d0: fe30 3ebd 682c 88bd 5ac7 cbbc e712 12bd
000001e0: 6f68 283d f255 3c3e f0e4 7bbb 0c78 393c
000001f0: ef7c ffbb d48f e03d 7649 a7bb edf4 a0bc

layer3.weight f4 [15, 128]
-0.023755396 0.015753306 0.012705655 0.0530734 0.13111983 0.104595505 0.0043395543 0.16764049
-0.012843322 0.08532091 -0.022149697 0.14136948 0.016207326 0.15135734 0.10013689 0.12673704
0.08279313 0.020451907 0.09667036 0.03525767 0.1259279 0.124038875 -0.07651927 -0.016801178
0.14382704 0.13041888 -0.0048371074 0.13234577 0.082175344 0.02608044 -0.03483118 0.10063136
0.081874244 0.16452873 0.19885723 0.047782168 0.00857657 0.1168448 -0.06350281 0.004617624
0.01567476 -0.039303023 0.0072151097 0.13531314 0.053173635 0.1674681 -0.06674719 -0.016975887
-0.00050568755 0.15521882 -0.08026653 -0.023907388 0.0035824773 -0.05068199 0.023865052 0.13583943
-0.026089799 0.15797761 -0.021957707 -0.054411538 0.052096806 0.028080987 0.17500715 -0.070196755
0.011971526 0.12503736 0.12471633 0.15648246 -0.013097549 -0.036635265 -0.038109314 0.05558779
0.14187375 0.12605323 -0.04806589 0.1417617 -0.026122421 -0.08052357 0.15662079 0.026460629
-0.034081604 0.088482745 0.16833664 0.13761202 -0.05433024 0.18383607 0.062271368 0.085046306
0.041234054 -0.010528246 0.12915884 0.021458872 -0.010203259 -0.08101756 0.055950347 0.13329732
0.15006693 -0.08521554 -0.04278595 -0.008265882 0.1441423 -0.035792883 0.14739722 0.11054774
-0.05838269 -0.074092895 -0.05902085 0.082485996 -0.097514056 -0.07936046 0.13675009 -0.019646237
0.05183229 0.073088504 0.12227157 -0.113050275 0.029062094 0.085062794 0.11806556 0.14769207
0.15341607 0.07156012 0.04919679 -0.11714133 0.17208843 0.014582223 0.15937111 -0.08030437
0.0071541723 0.059112627 0.05007627 0.058436945 -0.06320575 -0.07437311 0.12544395 -0.10552107
0.07441295 0.05576133 0.054202307 0.07147431 0.06553712 0.08607536 -0.15155074 0.021453304
-0.12785028 0.02524916 -0.03702002 0.015727412 0.05743936 0.085345544 -0.027200766 -0.028688988
-0.14976142 0.025191415 -0.0018981474 -0.024254741 0.031589966 -0.08178352 -0.0504628 -0.06547227
0.068924874 -0.021704761 -0.07238669 0.0040007755 0.05173197 0.09576713 0.028675348 0.05013056
0.047911678 0.07685532 -0.030666532 0.05903346 -0.088949256 -0.09635801 -0.069775224 0.03459637
0.0073053455 -0.09799507 0.055378564 0.035965897 -0.04076657 -0.08603285 -0.007850764 -0.04962109
0.15781407 -0.055363987 -0.088285156 0.008061885 -0.08404863 -0.06129658 -0.057351284 -0.038242657
-0.053986 -0.073682606 -0.012847475 -0.008278126 0.12912157 0.014155533 0.029251974 0.017584596
0.11362902 -0.08255016 0.045565788 -0.031423524 -0.030410575 0.0023800237 -0.067717284 -0.1334486
0.07344066 -0.01718469 -0.078509234 0.035148397 -0.07587169 -0.018108442 0.037042726 -0.07661923
0.033817858 0.04400236 -0.108482875 0.031947926 0.032062568 -0.0014265282 0.06373868 -0.05293967
-0.072557025 0.10329964 -0.0428194 -0.08806968 -0.14677353 -0.06848361 -0.1389531 -0.088192865
0.087062486 -0.05103159 0.06188084 0.042821825 0.08831176 0.080679156 -0.06467637 -0.056431025
0.04688842 0.09410966 0.0872382 -0.000203268 -0.0319729 -0.0064579933 -0.11058231 -0.08339711
-0.0073423614 0.11594643 -0.0042232573 0.06515593 -0.020960221 -0.04695566 -0.02737827 0.05641174
00000000: ad9a c2bc 140d 813c 612b 503c 7e63 593d
00000010: 4744 063e 2b36 d63d d232 8e3b f3a9 2b3e
00000020: cc6c 52bc bbbc ae3d 4873 b5bc 29c3 103e
00000030: 3ac5 843c 6bfd 1a3e 9214 cd3d 5bc7 013e
00000040: 728f a93d c28a a73c 1cfb c53d 596a 103d
00000050: 3ef3 003e 1808 fe3d 23b6 9cbd a0a2 89bc
00000060: 6547 133e 878c 053e 9980 9ebb a685 073e
00000070: 8c4b a83d a6a6 d53c 24ab 0ebd d117 ce3d
00000080: afad a73d 387a 283e 3ba1 4b3e 3cb7 433d
00000090: be84 0c3c 544c ef3d c30d 82bd 704f 973b
000000a0: 5b68 803c 35fc 20bd ba6c ec3b 878f 0a3e
000000b0: 99cc 593d c27c 2b3e c0b2 88bd 0411 8bbc
000000c0: 1e90 04ba aff1 1e3e c762 a4bd 6dd9 c3bc
000000d0: ffc7 6a3b eb97 4fbd a480 c33c 7e19 0b3e
000000e0: 46ba d5bc e2c4 213e a6e0 b3bc a2de 5ebd
000000f0: 7663 553d 190a e63c 1335 333e 51c3 8fbd
00000100: 3824 443c cb09 003e 466b ff3d f03c 203e
00000110: 1a97 56bc dc0e 16bd 8318 1cbd 06b0 633d
00000120: 5a47 113e 1914 013e bde0 44bd fb29 113e
00000130: b0fe d5bc 8be9 a4bd 3361 203e f6c3 d83c
00000140: 2799 0bbd 7136 b53d 7160 2c3e 2aea 0c3e
00000150: 6389 5ebd 863f 3c3e 4310 7f3d c22c ae3d
00000160: 0ae5 283d aa7e 2cbc 3742 043e 84ca af3c
00000170: 922b 27bc 89ec a5bd 312c 653d 187f 083e
00000180: 25ab 193e 7c85 aebd 5240 2fbd 9f6d 07bc
00000190: 0a9a 133e 8f9b 12bd 4cef 163e da66 e23d
000001a0: b022 6fbd 04be 97bd d9bf 71bd 6bee a83d
000001b0: 73b5 c7bd bd87 a2bd 3708 0c3e 25f1 a0bc
000001c0: 184e 543d 6daf 953d 8469 fa3d e786 e7bd
000001d0: a113 ee3c 6735 ae3d 5bcc f13d 973c 173e
000001e0: 1a19 1d3e 1d8e 923d 9382 493d cbe7 efbd
000001f0: f337 303e 47ea 6e3c 2e32 233e 9e76 a4bd
00000200: 8c6d ea3b 1520 723d c61c 4d3d 945b 6f3d
00000210: 0472 81bd ee50 98bd 6174 003e 6e1b d8bd
00000220: d165 983d fe65 643d 3d03 5e3d 1f61 923d
00000230: 5338 863d 4748 b03d 1e30 1bbe d7be af3c
00000240: 2feb 02be 54d7 ce3c 4ea2 17bd c6d6 803c
00000250: 8945 6b3d a5c9 ae3d 24d4 debc 2b05 ebbc
00000260: 0f5b 19be 3a5e ce3c 42cb f8ba e1b1 c6bc
00000270: 7b64 013d 1e7e a7bd 15b2 4ebd 5316 86bd
00000280: 7c28 8d3d 2fce b1bc 793f 94bd f018 833b
00000290: e7e4 533d 8f21 c43d 90e8 ea3c b455 4d3d
000002a0: 093f 443d 5266 9d3d 6138 fbbc 12cd 713d
000002b0: 072b b6bd 5957 c5bd 50e6 8ebd ecb4 0d3d
000002c0: ae61 ef3b a4b1 c8bd a2d4 623d fa50 133d
000002d0: d9fa 26bd fe31 b0bd 7ea0 00bc 7c3f 4bbd
000002e0: 039a 213e 59c5 62bd d9ce b4bd ff15 043c
000002f0: b021 acbd 1f12 7bbd 2ee9 6abd 55a4 1cbd
00000300: 6d20 5dbd e8e6 96bd 377e 52bc faa0 07bc
00000310: 7238 043e 9cec 673c d6a1 ef3c 920d 903c
00000320: 55b6 e83d 0f10 a9bd 31a3 3a3d f4b5 00bd
00000330: 991f f9bc 2cfa 1b3b 5caf 8abd c0a6 08be
00000340: 0f68 963d e8c6 8cbc 73c9 a0bd c4f7 0f3d
00000350: 9e62 9bbd 2858 94bc 1dba 173d 8bea 9cbd
00000360: 9884 0a3d d23b 343d 452c debd d4db 023d
00000370: 0a54 033d 58fa baba 6d89 823d 44d7 58bd
00000380: c798 94bd c38e d33d 6563 2fbd e05d b4bd
00000390: cd4b 16be 2341 8cbd b949 0ebe 769e b4bd
000003a0: d14d b23d 8006 51bd c476 7d3d f065 2f3d
000003b0: ccdc b43d 1d3b a53d 0b75 84bd 3824 67bd
000003c0: 120e 403d 91bc c03d f1a9 b23d 5724 55b9
000003d0: 04f6 02bd 939d d3bb fa78 e2bd 1bcc aabd
000003e0: 3198 f0bb 5275 ed3d 4063 8abb 7970 853d
000003f0: c5b4 abbc 9454 40bd 6548 e0bc ff0f 673d

layer3.bias f4 [15]
0.088763654 0.079971574 0.019618476 0.06958312 0.091171704 0.01908982 0.017859403 -0.040846698
0.011791415 -0.04738623 0.07040766 -0.13508874 0.034866653 -0.053080823 -0.075319916
00000000: b8c9 b53d 23c8 a33d edb6 a03c 9881 8e3d
00000010: 3bb8 ba3d 4162 9c3c e24d 923c de4e 27bd
00000020: c730 413c 1018 42bd e431 903d b454 0abe
00000030: 56d0 0e3d 476b 59bd 5441 9abd
