code/models/race_net_3.pt (torch, 90271 bytes, 6 tensors)

layer1.weight f4 [128, 27]
000000 8f 58 91 bd 2e c4 30 be de e9 d5 3d 20 ea ed 3d
       -0.07096969 -0.17262337 0.10444997 0.116169214
000010 cb db 0d be d4 53 e3 3d 5b 31 1f bd 3b a3 13 be
       -0.13853376 0.11099973 -0.03886543 -0.14417736
000020 20 56 a4 bb 79 50 83 bc f9 4f 17 3e 0c 67 8a 3d
       -0.0050151497 -0.016029583 0.14776601 0.06757936
000030 e2 9f 9b 3d 30 0f 27 bd 11 91 24 be ff 38 ff 3c
       0.075988546 -0.04078597 -0.16070963 0.031155108
000040 53 0e 08 3e 19 2a 0a be fe 0f 21 3e ef 83 38 be
       0.13286714 -0.13492621 0.15728757 -0.18019079
000050 3a 03 0a 3a db 99 1e 3d de 4d 56 bd ee 70 9b bd
       0.0005264763 0.038720947 -0.052320354 -0.07589899
000060 51 f8 a7 3d 92 c9 69 3d 64 56 73 bd a6 43 e7 3d
       0.082016595 0.057076998 -0.05940856 0.112922
000070 41 e5 3c bd f5 1b e9 3d 60 53 6f 3d ed c3 b5 bb
       -0.04611707 0.113822855 0.058429122 -0.005547038
000080 3e 7f 1a 3e 5c f6 a7 3d ad a4 ee bd b4 fb 2d be
       0.15087602 0.08201286 -0.11652503 -0.16990548
000090 9f 5a 4d 3d db 94 0c 3e 3e 52 53 bd f1 03 be 3b
       0.05013525 0.13728659 -0.051592104 0.0057988097
0000a0 5c 9c 8e 3c 6b 6b 63 3e 9b b0 46 3e cd 09 b2 3d
       0.017408542 0.22208945 0.19403307 0.086932756
0000b0 8e 94 38 be 03 c7 2c be 75 ca 08 3e 27 41 09 be
       -0.18025419 -0.16872792 0.13358481 -0.1340376
0000c0 0e 20 9e bd 84 89 fd 3d 3e c0 c7 3d 64 c5 69 3d
       -0.07720958 0.12379745 0.09753464 0.057073012
0000d0 b4 78 0e be 92 0a a4 3e 8e aa f3 3d 39 e0 c3 3c
       -0.13913232 0.32039315 0.11897765 0.023910629
0000e0 dc 0f 5d 3e 8e 76 8e bd d2 27 25 3e 4a be 26 be
       0.21588081 -0.06956206 0.16128471 -0.16283527
0000f0 5f d4 06 3c ec 33 33 bc 7e ab 42 bd 06 bf 48 be
       0.008229344 -0.010937672 -0.04752683 -0.1960412
000100 2b f4 0b 3e 20 48 f4 bd de 18 82 3e d4 1f 2d 3d
       0.13667361 -0.11927819 0.25409597 0.04226668
000110 92 95 8b 3e ef 89 99 3c d7 69 20 3e 10 5d a0 3d
       0.2726255 0.01874253 0.15665375 0.0783025
000120 df ef 36 3d f4 4b 05 be 0d 6a 21 3d 09 30 0d be
       0.044662353 -0.13017255 0.03940778 -0.13787855
000130 d7 2f 2c bd 1e 4f 0e 3d a1 a5 98 3d d7 df 92 bc
       -0.04203781 0.03474342 0.07453466 -0.017929
000140 c5 c7 a2 3e ad e4 53 be 43 96 f4 3d 4d cf c5 bd
       0.31793037 -0.20692702 0.11942723 -0.0965868
000150 43 30 d3 3d 8a cc 7f 3e 48 75 c6 bc 6d 9e 3e bc
       0.103119396 0.24980369 -0.024225846 -0.011634451
000160 2b 73 37 be 7d ae 2f 3e c3 9b ab 3d bd 4c 79 bd
       -0.17915027 0.17156406 0.083793186 -0.0608642
000170 cc 9f 28 3e 80 47 ac bc 6f a9 6a bd 6e ec 1a 3e
       0.16467208 -0.021030188 -0.05729049 0.15129253
000180 26 8c 0f 3e 4b ad e3 3d fb e7 3b 3e bd 5f 88 3d
       0.14018306 0.111170374 0.18350212 0.06658886
000190 17 b1 54 3e d3 9f f0 bb 8d 99 a9 bc 31 ad 00 bd
       0.2077068 -0.0073432713 -0.020703102 -0.03141517
0001a0 6e 13 c3 bd 4c b4 38 3d 24 8a 21 3e 60 8e 82 be
       -0.0952519 0.04509382 0.15775353 -0.25499249
0001b0 b2 63 93 3c f9 6e c5 bd 65 d3 03 3e 60 d6 a3 bd
       0.017991874 -0.09640307 0.1287361 -0.07999873
0001c0 fc a0 8d bd ce 54 9c 3d eb 58 0e 3b 2e b4 e2 3d
       -0.06915471 0.07633363 0.002172048 0.11069523
0001d0 e2 12 e6 3d d2 f6 36 bd a1 1f ff bc 27 da 51 3d
       0.1123407 -0.04466898 -0.031143012 0.051233437
0001e0 ac 8e da bd fe fb 08 3e e1 b1 14 be 3c 5d 1a 3e
       -0.10671744 0.13377377 -0.1452098 0.15074629
0001f0 fc 54 92 3e 75 57 cb bd 30 f0 f1 3d 14 df cb bd
       0.28580463 -0.099287905 0.1181339 -0.09954658
000200 1d cd 5d 3e 57 d4 4b 3e de 51 81 3d 5a 92 2b 3e
       0.21660276 0.1990522 0.06314443 0.16755047
000210 34 11 80 bd 08 37 2b 3e c3 e4 c2 3d 97 0c 50 be
       -0.06253281 0.16720212 0.09516289 -0.20317303
000220 08 7f 43 3e 4e 2d 42 ba 23 19 37 3e fd f9 16 bd
       0.19091427 -0.00074072636 0.17880683 -0.0368595
000230 e4 1c e6 3d 13 9a 90 3b 80 83 72 3e c5 47 49 be
       0.11235979 0.0044128983 0.23682976 -0.19656284
000240 e3 3c 2b 3e 75 42 3c be 4f 54 9d bd 51 48 0e be
       0.16722445 -0.18384726 -0.07682096 -0.13894774
000250 0b e5 78 bd 6a ef 7a 3c 3b d7 23 3b 45 40 67 bd
       -0.060765307 0.01531587 0.0025000114 -0.056457777
000260 c9 e3 00 be 00 ba 8a 3d 83 c2 e0 3d d1 62 18 3e
       -0.12586893 0.06773758 0.109746 0.14881445
000270 99 8f 10 3e 31 d7 9c bd 84 f4 0b 3e 9e 96 b2 3d
       0.14117278 -0.07658232 0.13667494 0.08720134
000280 d7 63 68 3e de aa bf 3e c0 4c 4b be a5 3f 64 3e
       0.22694336 0.3743505 -0.19853497 0.22289903
000290 2a 88 57 3e 40 da 02 be 18 e3 cd 3b 22 62 c6 bc
       0.21048036 -0.12778568 0.006283175 -0.024216715
0002a0 ef cb e0 bd 1e e4 40 3e c0 72 f5 bd 08 54 31 3e
       -0.10976397 0.1883702 -0.119847775 0.17317212
0002b0 fb 7d 5c 3e 7d cc 87 3d fd d5 d6 3d 12 45 60 3e
       0.21532433 0.066308 0.10490034 0.21901348
0002c0 51 cd bf 3c 7c fc 16 3e 0d c7 92 3d d8 f4 06 3e
       0.023413332 0.14744753 0.07166872 0.13179338
0002d0 9f a7 79 3e d3 43 fa bd 28 bb 01 bc c6 65 21 bd
       0.24380349 -0.12219968 -0.007918157 -0.0394037
0002e0 fd 14 3e 3e d5 fb 3a 3e 04 b7 4a bd 34 ba 7a 3d
       0.18562694 0.18260129 -0.049490944 0.061212733
0002f0 03 9f c0 bd 35 50 26 3e b7 ef ca bd bd 1a ab bd
       -0.09405329 0.16241534 -0.09909003 -0.08354709
000300 44 d4 f3 3d 26 6a a1 bd 2f 88 41 be 22 bf 0d bd
       0.11905721 -0.07881574 -0.18899606 -0.034606107
000310 98 ed 1c 3d 20 8e 7d 3e 78 94 6f 3d 57 d8 d5 3c
       0.038312525 0.24761248 0.0584912 0.026104135
000320 5f fb d9 3d 76 c0 52 3d 1d 52 3e 3d b2 d4 db 3d
       0.10643648 0.051453076 0.046465028 0.10733928
000330 6c 1b 5a 3e 8b be 49 be 26 ea f8 bc 64 12 5c be
       0.21299523 -0.19701593 -0.030385088 -0.2149139
000340 6b 7b a2 3d 89 18 3b be 81 94 e5 bd df 9f 66 3d
       0.07933696 -0.18271078 -0.112099655 0.05630481
000350 5f c3 de 3b d7 1e 1b bd 5b 26 58 3d 63 70 e9 3d
       0.0067981924 -0.037871208 0.052770954 0.11398389
000360 9c 89 fb 3d bd ab 83 bd e5 22 2a be 69 05 29 3d
       0.12282106 -0.06429241 -0.16614874 0.041264925
000370 5b eb 14 bd 3d a2 37 be 63 fb 5d 3d 1e ca 28 be
       -0.036357265 -0.17932983 0.05419482 -0.16483352
000380 1e 2f 9b 3c c6 ac 1c bd 6d 19 8c bd b0 cc 4b 3d
       0.018943366 -0.038250707 -0.06840787 0.049755752
000390 33 ea d5 3d 72 21 40 bd f1 89 fa 3d 7c ee ea bc
       0.104450606 -0.046906896 0.122333415 -0.028678171
0003a0 d7 b3 f6 3a 39 46 90 3c d8 85 18 be a6 40 05 3e
       0.0018821907 0.01761161 -0.14894807 0.13012943
0003b0 24 a9 01 bc 6f 69 37 be be c3 04 be 6e 4a 0e be
       -0.007913861 -0.17911313 -0.12965295 -0.1389558
0003c0 7d 74 8e 3d 7c a3 58 bd 1f 6b 03 be 3b a9 a1 3d
       0.06955812 -0.052890286 -0.12833832 0.07893606
0003d0 75 e2 00 bd d2 48 2c 3e 84 a4 f6 3d d3 02 9a 3d
       -0.031465966 0.16824654 0.120430976 0.0752007
0003e0 9e 2b e7 bd 40 53 c7 3d f1 1a 1a bd 27 c7 a6 3d
       -0.11287616 0.097326756 -0.03762335 0.08143454
0003f0 62 8e 6a bc cc 8f da 3d 48 b2 e5 3d 35 04 0b bd
       -0.014316173 0.10671958 0.11215645 -0.03393956

layer1.bias f4 [128]
000000 88 f4 35 3d a1 0b bc bb 17 2e 9a bd d5 3a 24 be
       0.044422656 -0.005738691 -0.07528322 -0.16038068
000010 b8 18 39 3e 14 cd 1d bd 6e 8b 52 3e 15 31 32 bd
       0.18075836 -0.038525656 0.20561 -0.04350384
000020 67 cd 3c 3e 78 df 3f be a8 e9 a2 3d c1 13 0c 3e
       0.1843773 -0.1873759 0.07954723 0.1367941
000030 0c b0 11 3d 34 a8 6f 3e e5 ca d5 bd 11 7c a8 bd
       0.035568282 0.23404008 -0.1043909 -0.08226789
000040 ac 1e 0d 3e 8d 2e 20 bc 69 12 21 3e 9f e7 22 3d
       0.13781232 -0.009776724 0.15729679 0.039771672
000050 61 2b 2a 3d 1a ab 53 3e c8 ba 18 3e 29 46 d6 3c
       0.041545276 0.20670739 0.14915001 0.026156502
000060 93 7d 16 bd f9 ef e5 3c 1e f6 59 3d 38 88 ea 3c
       -0.03674085 0.02806853 0.05321323 0.028629407
000070 32 44 36 3e 68 aa b5 3d aa f1 30 be c7 1f 6e 3e
       0.17799452 0.08870393 -0.17279688 0.2325431
000080 e8 12 0f 3d c2 d0 b8 3d 18 21 3b bd d7 a7 32 3e
       0.03493014 0.090241924 -0.045685858 0.17446838
000090 ef 4c 06 3d 34 e3 1c bd b5 d3 1b be f0 f1 f9 bc
       0.032788213 -0.038302615 -0.15217479 -0.030510873
0000a0 20 79 21 bc 32 7e 91 bd 7b 2d 6b bd 2d bc 52 3e
       -0.009855539 -0.07104148 -0.05741642 0.20579596
0000b0 03 4b 4e 3e bf 7b 81 3c 4c e4 01 3e d6 27 c6 3b
       0.20145802 0.015806077 0.12684745 0.0060472293
0000c0 1a 01 11 bd 09 35 28 3d 66 80 51 bd 07 70 e1 3d
       -0.03540144 0.041066203 -0.05114784 0.11007696
0000d0 e7 1e 23 3e 2e f7 30 3e e2 98 3c bd 1e c5 f2 3d
       0.15929757 0.17281792 -0.046044238 0.11854003
0000e0 63 6e 09 3d 89 b8 4a 3e 38 50 e5 bd f0 12 45 3d
       0.03355254 0.19796957 -0.11196941 0.048113763
0000f0 5a 2f 32 3e 3e ac d0 bd 3c 2e 12 bd ba 14 1c be
       0.17400876 -0.101891026 -0.035688624 -0.15242282
000100 31 2e 51 3e e4 86 06 be d4 38 07 be 2b fe 61 bd
       0.20427777 -0.13137394 -0.13205272 -0.055174034
000110 e7 7f b7 bd 14 b2 b7 3d 31 0a ac 3d 3c 58 9d 3d
       -0.08959942 0.089695126 0.08400381 0.07682845
000120 4e 22 6e 3e 5e a8 d8 3d 84 f6 1d 3d 7e 53 1f be
       0.23255274 0.105789885 0.038565174 -0.15559193
000130 b4 df ea 3d 02 cd 04 3e 8c 7f 28 be 14 11 05 3e
       0.11468449 0.1296883 -0.16454905 0.12994796
000140 76 73 38 3e 2c f0 b3 3d 49 24 38 be f2 4d 1f bd
       0.18012795 0.087860435 -0.17982592 -0.038892694
000150 d2 28 15 3e 0b 8e c7 3c 40 b4 de bd 0a 4b 5d 3e
       0.14566353 0.024359724 -0.10874224 0.21610656
000160 0d df 11 3d 22 fd 17 bd 45 7d c1 bd 7c a3 1b bd
       0.03561311 -0.03710664 -0.094477214 -0.037997708
000170 03 07 3a bd dd 8e b6 bc 47 46 0d be b8 6f 37 3d
       -0.045416843 -0.02228492 -0.1379634 0.044784278
000180 e1 1e 83 3d d0 4f 42 3e ab 94 40 3d a1 39 3c 3e
       0.06402374 0.18975759 0.04701678 0.18381359
000190 fd 0d 36 3e 09 2e 4c 3e c4 02 0f 3d f7 8f 27 3e
       0.17778774 0.19939436 0.034914747 0.16363512
0001a0 da 80 20 bd 25 ed 1d be db a8 8e 3c 95 3f c8 3d
       -0.039185382 -0.15422495 0.017414501 0.09777752
0001b0 6f 3c 10 3d b5 31 0a be e7 c5 8f 3d 29 df 46 3e
       0.035213884 -0.13495524 0.07020169 0.19421066
0001c0 59 3f d4 bd 2b ef 1c 3d 26 3a 43 3d f1 64 32 be
       -0.10363645 0.038314026 0.047662877 -0.17421319
0001d0 dd 37 af 3d 19 fd 92 3c 7a 61 27 3e 7c 56 7e bc
       0.08555577 0.017942952 0.16345778 -0.015523549
0001e0 7f b0 41 3d dc b9 57 3e 74 09 45 3e d6 e2 21 3c
       0.04728746 0.21066993 0.19241887 0.009880742
0001f0 61 f2 c6 bd 82 a7 02 3e 48 e4 49 3d c0 35 17 3e
       -0.09714199 0.12759212 0.04928997 0.14766598

layer2.weight f4 [128, 128]
000000 18 61 a2 ba b3 7b fe 3c fd 23 8f 3d 8f 33 1d bd
       -0.0012388555 0.031064844 0.06989286 -0.03837925
000010 4c b0 87 3d 8b a2 a0 3d f2 a2 90 3d 55 63 1b bb
       0.06625423 0.078435026 0.07062329 -0.002371033
000020 fe da 00 bc d9 53 ab bd d2 56 88 3d 4e 41 6d 3d
       -0.007864712 -0.08365602 0.06657185 0.057923608
000030 ed 01 78 3c 0d 90 a7 3d df 38 76 bd 79 d7 d8 ba
       0.015137178 0.081817724 -0.06011283 -0.0016543708
000040 25 a1 d3 bc bf 39 5b 3d db 7d 78 bd fe 92 59 bd
       -0.025833676 0.053521868 -0.0606669 -0.0531187
000050 81 50 fb bc fb a3 c0 bd 9a ab f0 bc 23 77 32 bd
       -0.030678036 -0.09406277 -0.029378701 -0.04357065
000060 7f 9e a5 bd 19 fd 0f bd bf a6 cf bb 6c 17 28 3d
       -0.08086871 -0.035153482 -0.0063370164 0.04103796
000070 e8 e0 ce 3b f2 e4 6a bd ea 88 7a bd 08 a7 6d 3c
       0.006313432 -0.057347246 -0.061165728 0.014505155
000080 ac 7c c4 3c 09 21 ad bd aa 11 38 bc 57 23 7c bd
       0.02398523 -0.084535666 -0.01123468 -0.06155714
000090 d9 b1 1e 3c e8 9f ac bd 82 c9 6d bc 04 41 a3 bd
       0.009685957 -0.08428937 -0.014513375 -0.07971385
0000a0 17 f5 8f 3d 61 23 e5 3c 25 a2 19 bd 16 33 0c bd
       0.07029169 0.027970972 -0.03750815 -0.034228407
0000b0 69 1e 87 bd 05 fa b8 3b 65 ac a9 bd 0b 3d 25 bd
       -0.06597597 0.005645039 -0.08284835 -0.04034142
0000c0 c0 5d 38 bc f2 d8 8b 3d 37 75 2d bd 18 d9 a2 bc
       -0.0112528205 0.068284884 -0.042348113 -0.019878909
0000d0 89 4e 4b 3c 36 c1 93 3d 82 73 23 bc 25 a0 c9 3c
       0.012408861 0.072145864 -0.00997627 0.024612496
0000e0 5d 6f 5c 3d 9f b3 bc bd fb 02 ab bc ff 6b 28 bd
       0.05381714 -0.092139475 -0.020875445 -0.041118618
0000f0 54 71 5e 3d dc 4a c0 3c 7f 26 c5 3c 8b 96 a3 bb
       0.054307297 0.023473196 0.024066208 -0.0049923114
000100 e5 66 6e 3d 36 cb e0 3c e0 b7 69 bd 44 2f 7e bd
       0.058203597 0.027440649 -0.057060122 -0.062056795
000110 6c 54 87 3d 5a f4 27 3d d2 13 06 3d 19 3f fe 3c
       0.06607899 0.041004516 0.032733746 0.031035947
000120 d6 d8 6b 3d 06 9d 1d bd 27 76 c6 3c 7c ea df bb
       0.057579838 -0.038479827 0.024226261 -0.0068333726
000130 8b a0 92 bd 42 45 05 bc 35 cb 77 3d a2 d1 a2 bd
       -0.071595274 -0.008134188 0.060496528 -0.079501405
000140 c2 41 9c 3b 7c db 97 3b be e5 4f bc 30 c5 34 3c
       0.004768581 0.004634319 -0.012689052 0.011033341
000150 39 97 92 3d dd 28 81 bb 1a 72 cd 3c d8 a1 d9 3c
       0.0715775 -0.003941639 0.025078822 0.02656643
000160 24 d6 88 3c 0d bb 85 3b 01 60 11 3d bd 7c a0 3d
       0.016703673 0.004081136 0.035491947 0.07836292
000170 9c 4d c3 bc fc 3d b2 bd 82 6b 11 3d e0 b5 a7 bd
       -0.023840718 -0.08703229 0.035502918 -0.08188987
000180 23 b4 0c bd 52 d7 1c 3c 2b 81 80 3d c8 ac a9 bd
       -0.03435148 0.009572821 0.06274637 -0.082849085
000190 77 03 95 3c a9 ba f9 3c 74 a7 1b 3d 8d 09 26 3d
       0.018190129 0.030484514 0.038001493 0.040536452
0001a0 07 9a 0d bd a3 10 12 3d ac ff 30 bc c0 73 d7 bb
       -0.03457072 0.035660397 -0.010803144 -0.006575078
0001b0 d0 ef 9b bd 27 00 81 bc 1c 33 a8 bb a9 09 9f 3b
       -0.076141 -0.015747143 -0.005133046 0.0048534465
0001c0 c1 ff 8b bd 12 88 4e 3d ae 2d 6d 3c ea ca 49 bd
       -0.068358906 0.050422736 0.014476223 -0.04926578
0001d0 74 e7 94 bc fa 3b 74 bd 5e cb 4a 3c dd 04 84 bd
       -0.018176772 -0.05962751 0.012377588 -0.0644624
0001e0 19 ef bb bd b7 94 06 bc 6e b3 d6 bb ed 1d b9 bd
       -0.09176464 -0.008214167 -0.0065521514 -0.09038911
0001f0 7e 2f 97 bd f1 1e ae bd 57 f4 1a 3d 5e 57 9c 3c
       -0.07382105 -0.08501995 0.037830677 0.019084629
000200 5d 68 18 bc c8 5f 5b bc e5 e5 10 3c b2 f9 62 bc
       -0.009302226 -0.013389535 0.008843874 -0.013853477
000210 39 90 a1 bd df 16 c4 bd d3 e4 0d bd bf e2 f0 3c
       -0.078888364 -0.09574675 -0.034642052 0.029404996
000220 f7 c1 a1 3d 1a 9d 0b bd 76 da 07 3e ac 37 60 bc
       0.07898324 -0.03408537 0.1326693 -0.013685148
000230 5b c1 c8 bd 96 ca 2b 3e dd 62 23 3b 28 2e cb bc
       -0.09802505 0.16776499 0.0024930753 -0.024802282
000240 76 b0 0e 3e 05 df a1 39 a6 44 64 3d fc ff 84 bd
       0.13934502 0.00030874475 0.05572953 -0.06494138
000250 b9 9c 4c bc 1e b4 87 3d ef 69 82 3d 5a 4c 49 3d
       -0.0124885375 0.066261515 0.063678615 0.04914508
000260 65 09 eb bb 86 40 7a bd 9e e9 80 3d d4 36 02 bd
       -0.007172751 -0.06109669 0.06294559 -0.03179057
000270 c4 1d 02 3e 47 53 4f bd 38 9c c3 3c d7 a6 87 3d
       0.12706667 -0.05061653 0.023878202 0.06623619
000280 44 b5 a5 3d 79 4b 25 3d c4 ab ab bd 7d 20 f4 3d
       0.08091214 0.04035518 -0.08382371 0.11920259
000290 8a e0 04 3e b0 57 07 3e 38 4a b0 3d d4 a5 95 3c
       0.1297628 0.13217044 0.08607906 0.01826755
0002a0 41 06 02 bd b6 a8 8a bd 74 13 ad bc 18 72 84 3c
       -0.031744245 -0.0677046 -0.02112744 0.016167685
0002b0 10 4a 3b bc 63 44 1c 3d b6 5d 7d 3c 35 a5 b5 bc
       -0.011431232 0.038151156 0.015464237 -0.022173503
0002c0 cc 44 c1 3d 6c f1 42 3d 0c 86 41 3c 55 46 3b bd
       0.0943695 0.04759352 0.011811744 -0.04572137
0002d0 fa 2a cd 3d 40 eb c5 3d 3b 1b ab 3c 2d 0b 8f 3d
       0.10017963 0.09664011 0.020887008 0.069845535
0002e0 97 13 85 bc 4c 0b c8 3d 36 6a 92 bd bb 94 c8 bb
       -0.016244693 0.0976778 -0.071491644 -0.0061212457
0002f0 a1 14 a3 bd 41 2a 3a be 88 c8 1a bd 8f b5 8f 3d
       -0.07962919 -0.18180181 -0.037788898 0.070170514
000300 c3 5f cb 3d 5a f2 97 bd 1d 12 fc bc 08 77 d2 bc
       0.099303745 -0.07419272 -0.030770356 -0.025691524
000310 3b 6f b2 3d 31 db ca 3d 38 9f be 3c f0 15 41 3e
       0.08712622 0.09905089 0.02326928 0.18856025
000320 66 85 7d 3c fc e9 6a bb 13 f3 90 3d 81 c1 6f 3d
       0.015473699 -0.0035845032 0.07077613 0.05853415
000330 f5 53 fa 3d 0b b6 16 3e f2 61 80 bc f0 b3 a1 3d
       0.12223045 0.14717881 -0.015671704 0.078956485
000340 00 e6 96 3d 5c 37 e6 bb 38 c4 28 3d 86 97 aa bd
       0.07368088 -0.0070256423 0.041202754 -0.08329682
000350 cd e0 ab 3d 53 8b 24 3c ee bd 58 bd 37 3c ce bd
       0.08392487 0.010042983 -0.052915506 -0.10070079
000360 81 1f ec bd 1b c3 1f bc 03 9a 32 3d 73 bc 57 3d
       -0.115294464 -0.009751107 0.04360391 0.052669954
000370 a6 0a 00 bd 93 05 8e 3d 37 d1 ed bc f8 a6 12 bd
       -0.031260155 0.06934657 -0.029030425 -0.035803765
000380 b7 10 0d bd 7b 3f 72 3d 0f 8a 17 bd aa 01 93 3d
       -0.03443977 0.05914257 -0.036996897 0.07178052
000390 8e a8 cb 3c 81 dc 9e 3d 0c 5c a1 bd 95 32 94 bd
       0.024860647 0.077569015 -0.07878885 -0.0723621
0003a0 f4 1a 80 3d f1 16 83 bd dc e0 ca 3c b8 83 91 3d
       0.06255141 -0.0640086 0.024765424 0.071052015
0003b0 e0 f0 8a bd e2 8f bc bc 2a 8b 57 bd ac 4f 58 bc
       -0.067842245 -0.023017827 -0.05262295 -0.013202589
0003c0 13 2b bf bd 48 98 e7 bb 85 99 12 bd 20 f4 13 3d
       -0.09334388 -0.007067714 -0.03579094 0.036121488
0003d0 3f 8c 87 3d a7 7d 61 3b 4f 03 a5 bd bf 2f 7c 3d
       0.06618547 0.003440717 -0.08057272 0.06156897
0003e0 65 47 fa 3c 1f 1f cc 3c 49 d2 55 3b 15 a6 4c 3e
       0.030551622 0.024917183 0.003262656 0.1998523
0003f0 2e 4c 22 3d ee 8c 88 3d ac ea 00 3e 20 e2 71 bd
       0.03962343 0.06667505 0.1258952 -0.05905354

layer2.bias f4 [128]
000000 49 4c 18 bd 64 88 b5 3d fa 43 77 bd 83 d8 de 3d
       -0.037182126 0.08863905 -0.060367562 0.1088114
000010 7e 43 33 bd e0 b3 2b 3d dc fd cd 3d fd 4b 68 bc
       -0.043765537 0.04191959 0.100581855 -0.014178273
000020 e8 52 34 3e c1 2c 6d 3d e8 19 82 bd 79 c7 ae 3d
       0.17609751 0.05790401 -0.063525975 0.0853414
000030 72 71 4b 3b 98 10 6e bd df ff 46 3c b1 77 62 bb
       0.003104296 -0.058121294 0.012145965 -0.0034556205
000040 77 2e 91 3c cd 3b 15 bd 2d 50 8d 3d cc 97 27 3d
       0.017722351 -0.036433984 0.06900058 0.04091625
000050 1f a4 83 bd 56 f3 ee 3d c1 8e 88 bd 05 e5 64 bd
       -0.06427788 0.116675064 -0.06667853 -0.055882473
000060 a7 cd 67 3c 55 ab e9 3d fc 61 25 bc 94 36 5e bd
       0.014148152 0.11409632 -0.010094162 -0.05425127
000070 42 07 8d 3c 41 24 63 3d 03 c8 95 bc 15 57 f0 ba
       0.017215375 0.055454496 -0.01828385 -0.0018336499
000080 5e dc 13 3c 7f 51 d3 3d 53 c8 9e bd 7d 0f 3b bc
       0.009024708 0.103182785 -0.077530526 -0.011417267
000090 d6 49 7e bc a1 fe ea 3d e6 ff c8 3c b8 b9 51 3d
       -0.015520534 0.11474348 0.024536084 0.051202506
0000a0 75 38 8b bd d2 50 73 ba d1 60 8d bc 47 bc 87 3d
       -0.06797878 -0.00092817575 -0.01725808 0.06627708
0000b0 1b 2f 02 3d 04 da 80 3d 24 cd 4f bc 0b f9 8c 3d
       0.031783205 0.06291583 -0.012683187 0.06883439
0000c0 f2 88 19 3d 49 c5 35 bd dc 79 44 3d 93 ee de 3d
       0.037484117 -0.0443776 0.047967777 0.10885348
0000d0 f8 ba b5 3d 18 d5 76 3b 89 d0 24 bc ca 97 d8 3c
       0.08873552 0.0037663635 -0.010059484 0.026439566
0000e0 12 ed a9 3c 9e de 1e bd d1 ec 21 bd 6c 35 8d bd
       0.020742927 -0.038786523 -0.039532486 -0.06894955
0000f0 92 90 cc 3a d2 f7 90 bc 15 0f 49 3d e2 3c eb 3c
       0.001560705 -0.017696295 0.04908665 0.028715555
000100 f5 5e 00 3d d7 a7 22 3d ad 8b 41 3d 8e eb 87 3d
       0.031340558 0.039710846 0.047252346 0.06636725
000110 ca 42 94 bc 02 a7 f9 3d 76 09 95 3d 27 73 0f bd
       -0.018098254 0.12190057 0.07277195 -0.035021927
000120 26 71 98 bc 5d b9 9f 3c e1 18 6e 3c 68 85 02 3d
       -0.01860864 0.019497568 0.014532299 0.031865507
000130 31 07 fe 3c 0b 53 0d 3d 74 a8 8f bd d7 8f c2 3c
       0.031009289 0.034503024 -0.07014552 0.023750229
000140 60 b3 07 3e 04 e3 74 3d 08 10 f7 bc 79 fb aa 3b
       0.1325202 0.05978681 -0.030159011 0.005217966
000150 58 a8 2d bd 8d 30 89 3c 8c 29 a3 3c 6e a7 58 bd
       -0.042396873 0.016746784 0.019917272 -0.05289405
000160 04 98 46 3d 50 73 5c bd 80 0f a9 bd 38 f2 d6 3d
       0.048484817 -0.053820908 -0.082549095 0.10495418
000170 d0 8b a0 3d 28 3c 11 bd 82 04 63 3b ad 62 43 bd
       0.07839167 -0.03545776 0.0034640138 -0.047701526
000180 bf e7 30 3c 61 7b 9f bc 3a 5d 8c 3d 95 a7 74 bd
       0.01079744 -0.019468011 0.06853719 -0.05973013
000190 e8 11 89 bd a2 50 82 bd 31 a5 dd bc 42 b5 47 bd
       -0.066928685 -0.06363036 -0.027056308 -0.048756845
0001a0 98 d8 fd 3c eb f5 b0 bc 71 a4 39 3d c3 ae 23 3d
       0.030987069 -0.021601638 0.04532284 0.039961588
0001b0 4c cb ac bc cc e1 5a bd bc 67 1b 3c 17 70 ec bb
       -0.021093033 -0.053437993 0.009485181 -0.0072155106
0001c0 70 4f e7 3b 3d 33 fb 3d 9a 51 62 bd ef 39 4a bd
       0.0070590302 0.12265632 -0.055253603 -0.049371656
0001d0 f7 dd 3e bd 52 0c 88 bd f5 a9 ca bc 0e ed 0f bd
       -0.0465984 -0.06642975 -0.024739245 -0.035138182
0001e0 66 b5 29 3d 7a 9d 3c 3e 0b dc 70 bb 41 b7 33 3c
       0.04143276 0.18419448 -0.003675225 0.010968984
0001f0 dc 94 f4 bb e4 6a e0 3d dd f6 93 bb f8 fd a0 bc
       -0.0074640345 0.10957888 -0.0045155124 -0.019652352

layer3.weight f4 [15, 128]
000000 c3 ac c2 bc 41 c5 82 3c 77 3d 50 3c 43 b5 5a 3d
       -0.02376402 0.015963199 0.012709967 0.05339552
000010 5f 76 06 3e 65 34 d6 3d 3a 09 9e 3b c4 7f 2b 3e
       0.13131092 0.10459212 0.0048228772 0.16747957
000020 0f 9c 4a bc ec 00 af 3d 53 7c b5 bc 99 f5 10 3e
       -0.012366309 0.08545098 -0.022154009 0.14156188
000030 45 ce 84 3c c8 73 1b 3e eb be cd 3d a8 2d 02 3e
       0.016211638 0.15180886 0.1004618 0.12712729
000040 1e 09 aa 3d cd 93 a7 3c ff 75 c5 3d 8a 5f 12 3d
       0.0830252 0.02045622 0.096416466 0.035735644
000050 52 59 01 3e 08 f1 fe 3d 2e bf 9c bd ab ab 89 bc
       0.12631729 0.12448317 -0.07653652 -0.01680549
000060 c6 91 13 3e 85 f7 05 3e a4 89 9e bb 3b b4 07 3e
       0.14411077 0.13082702 -0.0048381854 0.13252346
000070 18 07 a9 3d bc b8 d5 3c 2f b4 0e bd 83 d8 ce 3d
       0.08253306 0.026089065 -0.034839805 0.1009989
000080 ba b6 a7 3d 30 b1 28 3e a5 e5 4b 3e 27 b2 43 3d
       0.08189149 0.16473842 0.19911821 0.04777732
000090 c9 8d 0c 3c aa 15 f0 3d ce 16 82 bd 7b 58 97 3b
       0.008578726 0.11722882 -0.06352006 0.004618702
0000a0 05 e0 84 3c 40 05 21 bd d0 7e ec 3b 3d ee 0a 3e
       0.016220102 -0.039311647 0.0072172657 0.13567443
0000b0 71 1e 59 3d 43 83 2b 3e cb bb 88 bd 0f 1a 8b bc
       0.053007547 0.16749291 -0.06676444 -0.0169802
0000c0 29 99 04 ba a9 53 1f 3e ef 47 a3 bd d8 77 c2 bc
       -0.0005058223 0.15559258 -0.079727046 -0.023738787
0000d0 3e c5 78 3b 01 aa 4f bd ba 92 c3 3c b7 35 0b 3e
       0.0037959362 -0.050699238 0.023873676 0.1359471
0000e0 6b 1e d2 bc f1 a6 21 3e b1 e9 b3 bc b8 f0 5e bd
       -0.02564927 0.1578634 -0.021962019 -0.054428786
0000f0 8c 75 55 3d b2 ca e4 3c 87 2a 33 3e 5c cc 8f bd
       0.052114055 0.027928684 0.17496692 -0.070214
000100 4e 36 44 3c 9d dd ff 3d 81 f8 ff 3d df 50 20 3e
       0.011975838 0.12493441 0.1249857 0.1565585
000110 fb b0 4d bc e2 eb 13 bd 8e 21 1c bd 1c c2 63 3d
       -0.012554402 -0.036113627 -0.038117938 0.05560504
000120 63 84 11 3e ca 8b 01 3e 08 b5 42 bd 3a 49 11 3e
       0.14210658 0.12650982 -0.047535926 0.1418809
000130 c6 10 d6 bc 0e b7 a3 bd f4 8d 20 3e 0a 44 dc 3c
       -0.026131045 -0.07993899 0.15679151 0.026887912
000140 54 71 09 bd ac 2f b6 3d ea 8d 2c 3e dc 0a 0d 3e
       -0.033555344 0.088958114 0.16851011 0.13773674
000150 18 b6 5e bd 16 75 3c 3e c1 5d 80 3d cd 35 ae 3d
       -0.054372877 0.1840404 0.06267882 0.085063554
000160 15 ee 28 3d b5 87 2c bc b7 b8 04 3e 56 96 b4 3c
       0.041242678 -0.010530402 0.12961088 0.022044342
000170 fa 1c 1e bc 94 f5 a5 bd 47 3e 65 3d 06 a2 08 3e
       -0.009650463 -0.08103481 0.055967595 0.13343057
000180 71 16 1a 3e 0d d4 ad bd 5d 49 2f bd 80 75 fc bb
       0.15047623 -0.08487711 -0.042794574 -0.007704437
000190 ad ba 13 3e 9a a4 12 bd 4c 3f 17 3e aa 31 e3 3d
       0.1442668 -0.035801508 0.1477024 0.11093457
0001a0 0e 99 6c bd 0f c7 97 bd ef d1 71 bd 76 f7 a8 3d
       -0.05776315 -0.07411014 -0.0590381 0.082503244
0001b0 0e 60 c6 bd c8 90 a2 bd 96 22 0c 3e 30 fa a0 bc
       -0.0968629 -0.07937771 0.13685068 -0.019650549
0001c0 ec 4d 56 3d 9e ba 96 3d 65 9c fa 3d 40 52 e6 bd
       0.052320406 0.07359813 0.12236861 -0.11246157
0001d0 86 55 f2 3c e0 de ae 3d 20 23 f2 3d 70 87 17 3e
       0.029581796 0.08538604 0.11823106 0.14797759
0001e0 44 f9 1c 3e 9d 79 93 3d d0 6c 48 3d 63 b1 ee bd
       0.15329462 0.0720093 0.048931897 -0.116549276
0001f0 d1 f9 2f 3e db ff 6f 3c b7 49 23 3e a9 7f a4 bd
       0.17185141 0.014648403 0.15946089 -0.08032162
000200 a2 7f ea 3b 91 5a 74 3d dc 2e 4d 3d 5c 61 71 3d
       0.0071563283 0.059656683 0.050093517 0.05893074
000210 96 71 80 bd bb 00 97 bd 4e 07 01 3e ae 2e d7 bd
       -0.06271665 -0.07373186 0.12600443 -0.1050695
000220 02 84 99 3d b7 b6 66 3d 53 15 5e 3d f5 4c 93 3d
       0.074958816 0.056326594 0.054219555 0.07192413
000230 5e 41 86 3d 8f 8a b1 3d c3 96 1a be 28 cb b5 3c
       0.065554366 0.08669006 -0.15096574 0.022191599
000240 7b 2e 02 be 6a e9 ce 3c 5c f2 14 bd d0 54 86 3c
       -0.12713043 0.025257785 -0.036363944 0.016397864
000250 01 ee 6d 3d d5 01 b0 3d 3a e6 de bc 41 17 eb bc
       0.058088306 0.085940994 -0.02720939 -0.028697612
000260 83 b9 18 be 8e 50 d3 3c 58 dd f8 ba 64 52 c1 bc
       -0.14914517 0.025795247 -0.0018986864 -0.023598857
000270 f1 eb 03 3d 29 87 a7 bd 2b c4 4e bd e2 bc 84 bd
       0.032207433 -0.08180077 -0.05048005 -0.06481339
000280 87 31 8d 3d 5d f9 ad bc 91 27 93 bd 25 58 96 3b
       0.06894212 -0.02123707 -0.07185281 0.0045881444
000290 fd f6 53 3d ba 3f c5 3d a6 fa ea 3c ca 67 4d 3d
       0.05174922 0.096312955 0.028683972 0.05014781
0002a0 b6 9f 46 3d 5d 6f 9d 3d 77 4a fb bc c5 3a 74 3d
       0.048492156 0.076872565 -0.030675156 0.05962636
0002b0 c3 19 b5 bd 41 3a c4 bd 5b ef 8e bd f7 bd 0d 3d
       -0.08842804 -0.095814236 -0.06979247 0.034604993
0002c0 c4 73 ef 3b 21 6b c7 bd 08 85 65 3d 18 4c 15 3d
       0.0073075015 -0.0973723 0.05603507 0.03644952
0002d0 d2 24 25 bd 09 3b b0 bd 89 a9 00 bc fa 93 48 bd
       -0.040318318 -0.0860501 -0.00785292 -0.048969246
0002e0 e5 25 22 3e b4 e6 5f bd e4 d7 b4 bd 0a 1f 04 3c
       0.15834768 -0.054663375 -0.0883024 0.008064041
0002f0 bb 2a ac bd 31 40 79 bd 4e ba 68 bd 60 ad 1c bd
       -0.08406588 -0.060852233 -0.0568183 -0.03825128
000300 83 32 5d bd 02 b9 95 bd 08 d0 48 bc d5 0f ff bb
       -0.05400325 -0.07310678 -0.01225663 -0.0077838697
000310 11 e1 04 3e fc 70 71 3c ec b3 ef 3c 9d 16 90 3c
       0.12976481 0.01473641 0.029260598 0.017588908
000320 5b b6 e9 3d 25 d6 a7 bd 51 3b 3d 3d 94 e4 fc bc
       0.11411735 -0.08195142 0.046199147 -0.030870713
000330 af 31 f9 bc 79 f5 43 3b ff 9d 89 bd 6a 13 08 be
       -0.030419199 0.0029900952 -0.067195885 -0.13288656
000340 90 9d 97 3d ec 98 87 bc b0 6e 9f bd 25 09 12 3d
       0.074030995 -0.016552411 -0.07784784 0.035653252
000350 fc 5b 9b bd 27 be 8e bc 4d 79 1a 3d 96 f3 9c bd
       -0.07585904 -0.017424656 0.037713338 -0.07663648
000360 a3 8d 0a 3d dd 44 34 3d 25 f7 dc bd 9d 65 05 3d
       0.03382648 0.044010986 -0.107893266 0.03256761
000370 65 05 06 3d 63 03 bb ba 78 92 82 3d 20 56 56 bd
       0.03271999 -0.0014267977 0.06375593 -0.05232823
000380 e6 43 93 bd 39 b0 d4 3d 70 6c 2f bd 93 05 b3 bd
       -0.07190685 0.10385174 -0.042828023 -0.087412976
000390 da 96 15 be 2e 4a 8c bd 86 a5 0d be bf 52 b3 bd
       -0.14608327 -0.06850086 -0.13832673 -0.08756017
0003a0 77 80 b3 3d 96 18 51 bd da 88 7d 3d fb 6e 2f 3d
       0.08764737 -0.051048838 0.06189809 0.04283045
0003b0 b2 07 b6 3d 28 44 a5 3d 29 6e 83 bd 4e 36 67 bd
       0.088881865 0.080696404 -0.06417496 -0.056448273
0003c0 7c 85 42 3d f0 04 c2 3d 9a d4 b3 3d c9 03 d7 39
       0.047490582 0.09473598 0.08780785 0.00041010816
0003d0 22 14 00 bd b6 13 bf bb 4a 42 e1 bd 6c 6a a9 bd
       -0.0312692 -0.005831207 -0.10998972 -0.082722515
0003e0 69 c6 e0 bb 63 a9 ee 3d b3 40 68 bb 6b a9 86 3d
       -0.00685959 0.11653402 -0.0035438954 0.06575283
0003f0 05 ab a6 bc 15 18 3e bd 03 b2 db bc 15 22 67 3d
       -0.02034522 -0.046409685 -0.026818281 0.056428988

layer3.bias f4 [15]
000000 d6 f2 b6 3d 86 c5 a4 3d d3 6d 9f 3c 5e 02 90 3d
       0.08933036 0.08045487 0.019461548 0.070317015
000010 a8 97 b9 3d 8e fe 99 3c bc fa 95 3c 74 54 2b bd
       0.09062129 0.018798139 0.018308036 -0.041828588
000020 b5 4a 41 3c 2b 18 3f bd 0a 19 8f 3d 7e 20 08 be
       0.011797597 -0.046653908 0.06987198 -0.13293645
000030 fc 28 0e 3d 9d 29 5b bd e4 98 97 bd
       0.034707054 -0.053506482 -0.074022084
