code/models/race_net_2.pt (torch, 90271 bytes, 6 tensors)

layer1.weight f4 [128, 27]
-0.07020647 -0.17196469 0.10518131 0.11669984 -0.13793007 0.11137385 -0.038195234 -0.14385106
-0.0043775565 -0.015643774 0.14833058 0.06820204 0.07659409 -0.040109143 -0.15993221 0.031844057
0.13343696 -0.13472259 0.15799877 -0.1804723 0.0010379694 0.03846966 -0.05178573 -0.07553343
0.08266269 0.057516847 -0.05904689 0.112262875 -0.046449926 0.11400511 0.058650218 -0.0054313364
0.15084052 0.081827044 -0.11668453 -0.17038146 0.05002464 0.13660432 -0.051881354 0.0052979663
0.016974755 0.22182453 0.19381286 0.08722858 -0.18009791 -0.16835569 0.1339108 -0.13377427
-0.076774955 0.124264 0.09759345 0.05725976 -0.13889988 0.31991208 0.11879132 0.023550862
0.21549346 -0.06973126 0.1614085 -0.16259892 0.00824973 -0.010447609 -0.047724042 -0.1956973
0.1362131 -0.11978161 0.25402722 0.041600652 0.27291214 0.018490585 0.15669718 0.078591034
0.044585735 -0.1299394 0.03923174 -0.13764541 -0.042412076 0.0345924 0.07408369 -0.018089108
0.31766328 -0.20634659 0.119708516 -0.09678472 0.10303083 0.24972801 -0.024128176 -0.011477226
-0.17901465 0.17200926 0.083966576 -0.060242962 0.16502382 -0.020699484 -0.05686123 0.15151818
0.1404635 0.11093284 0.18339024 0.066243574 0.2074751 -0.0076593645 -0.02114087 -0.03188154
-0.095307566 0.04493147 0.15755375 -0.25457868 0.018125834 -0.096141346 0.12898445 -0.07983945
-0.06883088 0.07671851 0.0023901346 0.11088787 0.112503365 -0.044397652 -0.030807298 0.051687595
-0.106612526 0.13418342 -0.14507283 0.15110347 0.28615627 -0.09893044 0.11833926 -0.09918279
0.21681535 0.19958043 0.0636685 0.16763496 -0.062356036 0.16753301 0.09496064 -0.2035317
0.19094652 -0.0005358015 0.17895202 -0.036626514 0.112554215 0.004448192 0.23691018 -0.1968328
0.1673141 -0.18423907 -0.07677749 -0.13923623 -0.060814887 0.015117905 0.0025185759 -0.05624613
-0.12567864 0.0679403 0.110060714 0.14903954 0.14163406 -0.076128624 0.1367078 0.08738254
0.22724496 0.3739761 -0.19827202 0.22328234 0.21057887 -0.12769175 0.006723533 -0.0235658
-0.109359354 0.18889508 -0.11943301 0.17368619 0.21569136 0.06681999 0.10524932 0.21963209
0.023769274 0.14787412 0.07206912 0.13244928 0.24407503 -0.12160729 -0.007777361 -0.0387126
0.1862177 0.18283527 -0.04927137 0.061536398 -0.09415133 0.1617446 -0.09956517 -0.08368902
0.11907544 -0.07888 -0.18927749 -0.034871995 0.038042467 0.24722105 0.05822399 0.025388878
0.10597228 0.051021572 0.045824084 0.10719043 0.21259186 -0.19707222 -0.03033757 -0.21481766
0.07963485 -0.18258229 -0.11165386 0.056691192 0.006852634 -0.037807032 0.053024165 0.113381766
0.12191808 -0.0651765 -0.16659482 0.04127097 -0.036529213 -0.17935401 0.053833026 -0.1648577
0.018529896 -0.038463447 -0.06956748 0.048379123 0.103950515 -0.048182357 0.12223708 -0.029501792
0.0017408922 0.017614633 -0.14913754 0.13015361 -0.008117183 -0.17913732 -0.12998706 -0.13897999
0.06917462 -0.05290238 -0.1289038 0.078948155 -0.031472012 0.16827072 0.12045516 0.07521279
-0.11290035 0.09735094 -0.037629396 0.08144663 -0.014319196 0.10674377 0.112180635 -0.033945605
00000000: 69c8 8fbd 8317 30be 4c69 d73d 5300 ef3d
00000010: 8a3d 0dbe f917 e43d 9b72 1cbd b14d 13be
00000020: 9b71 8fbb 5f27 80bc f9e3 173e 83ad 8b3d
00000030: 5ddd 9c3d 7c49 24bd 45c5 23be ea6e 023d
00000040: b3a3 083e b8f4 09be 6eca 213e bbcd 38be
00000050: 790c 883a 5d92 1d3d 461d 54bd 45b1 9abd
00000060: 0e4b a93d c996 6b3d 27db 71bd 14ea e53d
00000070: 4742 3ebd 837b e93d 363b 703d 5af9 b1bb
00000080: f075 1a3e f094 a73d 4df8 eebd 7a78 2ebe
00000090: a3e6 4c3d 01e2 0b3e 8b81 54bd 909a ad3b
000000a0: a40e 8b3c f825 633e e176 463e e6a4 b23d
000000b0: 966b 38be 6f65 2cbe ea1f 093e 1ffc 08be
000000c0: 303c 9dbd 207e fe3d 13df c73d 3689 6a3d
000000d0: c53b 0ebe 84cb a33e dd48 f33d bded c03c
000000e0: 51aa 5c3e 43cf 8ebd 4548 253e 5580 26be
000000f0: e029 073c 732c 2bbc 497a 43bd df64 48be
00000100: 727b 0b3e 1050 f5bd db0f 823e 7265 2a3d
00000110: 24bb 8b3e 9179 973c 3a75 203e 56f4 a03d
00000120: 889f 363d d60e 05be 76b1 203d ebf2 0cbe
00000130: 49b8 2dbd c3b0 0d3d 31b9 973d 9c2f 94bc
00000140: c3a4 a23e 854c 53be bd29 f53d 1137 c6bd
00000150: d401 d33d b3b8 7f3e 74a8 c5bc fa0a 3cbc
00000160: 9e4f 37be 3223 303e abf6 ab3d 53c1 76bd
00000170: 01fc 283e f791 a9bc 52e7 68bd 9527 1b3e
00000180: aad5 0f3e c230 e33d a7ca 3b3e b6aa 873d
00000190: 5a74 543e 68fb fabb 9e2f adbc 3896 02bd
000001a0: 9d30 c3bd 100a 383d c555 213e 2358 82be
000001b0: a17c 943c c1e5 c4bd 8014 043e de82 a3bd
000001c0: 34f7 8cbd 981e 9d3d cea3 1c3b 2e19 e33d
000001d0: 2a68 e63d 50da 35bd 965f fcbc 5fb6 533d
000001e0: ab57 dabd 6167 093e f98d 14be deba 1a3e
000001f0: 1383 923e 0b9c cabd db5b f23d 5920 cbbd
00000200: d804 5e3e d05e 4c3e a164 823d 80a8 2b3e
00000210: 0b69 7fbd c68d 2b3e b97a c23d 9d6a 50be
00000220: 7c87 433e 0875 0cba 333f 373e af05 16bd
00000230: d382 e63d 24c2 913b 9598 723e 8a8e 49be
00000240: 6354 2b3e 2ba9 3cbe 843d 9dbd f193 0ebe
00000250: 0819 79bd 17b1 773c b10e 253b 5862 66bd
00000260: e7b1 00be 4924 8b3d 8367 e13d d29d 183e
00000270: 8508 113e 53e9 9bbd 21fd 0b3e 9ef5 b23d
00000280: e7b2 683e cc79 bf3e d207 4bbe 20a4 643e
00000290: fda1 573e a0c1 02be 1551 dc3b 110d c1bc
000002a0: ccf7 dfbd b66d 413e 4b99 f4bd cbda 313e
000002b0: 32de 5c3e ebd8 883d f58c d73d 3ce7 603e
000002c0: c8b7 c23c 506c 173e fa98 933d c9a0 073e
000002d0: ceee 793e 3e0d f9bd 3cd9 febb 1a91 1ebd
000002e0: daaf 3e3e 2b39 3b3e c7d0 49bd 970d 7c3d
000002f0: 6ad2 c0bd 60a0 253e d3e8 cbbd 2665 abbd
00000300: d3dd f33d d68b a1bd f5d1 41be f0d5 0ebd
00000310: 6bd2 1b3d 8427 7d3e 477c 6e3d 56fc cf3c
00000320: ff07 d93d fffb 503d 09b2 3b3d a886 db3d
00000330: aeb1 593e 4dcd 49be 7f86 f8bc 29f9 5bbe
00000340: 9917 a33d daf6 3abe c7aa e4bd 0635 683d
00000350: 0f8c e03b 8cdb 1abd de2f 593d b334 e83d
00000360: 30b0 f93d 427b 85bd d597 2abe c00b 293d
00000370: a89f 15bd 94a8 37be 0580 5c3d 75d0 28be
00000380: 02cc 973c d98b 1dbd 6579 8ebd 3029 463d
00000390: 02e4 d43d dd5a 45bd 6f57 fa3d bead f1bc
000003a0: a62e e43a 904c 903c 83b7 18be fd46 053e
000003b0: effd 04bc c66f 37be 541b 05be c550 0ebe
000003c0: 6cab 8d3d 2ab0 58bd 5cff 03be 92af a13d
000003d0: cce8 00bd 294f 2c3e 32b1 f63d 2a09 9a3d
000003e0: 4c38 e7bd ee5f c73d 4821 1abd 7ecd a63d
000003f0: 109b 6abc 7a9c da3d f6be e53d 8c0a 0bbd

layer1.bias f4 [128]
0.045113284 -0.00606685 -0.07566081 -0.16014668 0.18106876 -0.038548134 0.20599328 -0.04396116
0.1835287 -0.18740009 0.07995754 0.13690332 0.035655208 0.23363301 -0.10401424 -0.08162421
0.13756622 -0.009185153 0.1575057 0.03999744 0.042097334 0.20756136 0.14933868 0.026623309
-0.03649059 0.028100302 0.053442262 0.029355833 0.17802033 0.08843769 -0.17282106 0.23184894
0.0358048 0.09012591 -0.04523809 0.17467704 0.0329232 -0.03840535 -0.15251009 -0.030086383
-0.00987337 -0.07023984 -0.057467014 0.20581686 0.20167613 0.015576401 0.12732476 0.006317937
-0.035247542 0.041159794 -0.05043558 0.10996719 0.15938759 0.1730727 -0.045863736 0.11913172
0.033857677 0.19770905 -0.11198769 0.048321206 0.17439793 -0.10158511 -0.034982305 -0.15227343
0.20468758 -0.13161504 -0.13207881 -0.055370092 -0.089803904 0.08917044 0.084268674 0.07690273
0.23258662 0.10605829 0.03866527 -0.15522625 0.11495711 0.1298339 -0.16457324 0.1300279
0.1799315 0.08822803 -0.17972237 -0.038365077 0.14517121 0.024572363 -0.10902975 0.21612531
0.036054034 -0.037037734 -0.09480423 -0.0377537 -0.04517893 -0.022604901 -0.1370182 0.04532882
0.06424852 0.19006987 0.04724882 0.18334942 0.17816666 0.19964327 0.035676975 0.16426028
-0.038773376 -0.15402015 0.017645562 0.09797677 0.035752945 -0.13523987 0.07051959 0.19451448
-0.103842355 0.038115267 0.04784012 -0.17423737 0.086063184 0.018185882 0.16406216 -0.015976157
0.047471378 0.21062888 0.19330782 0.009171937 -0.0970496 0.12843691 0.048906226 0.14765748
00000000: b5c8 383d 6dcc c6bb 0ef4 9abd 7efd 23be
00000010: 176a 393e a6e4 1dbd e7ef 523e 9e10 34bd
00000020: f3ee 3b3e cfe5 3fbe c7c0 a33d 6230 0c3e
00000030: 320b 123d 7e3d 6f3e 6b05 d5bd 982a a7bd
00000040: 29de 0c3e 537d 16bc 2d49 213e 5bd4 233d
00000050: 416e 2c3d f78a 543e 3dec 183e 2019 da3c
00000060: 2877 15bd 9b32 e63c 46e6 5a3d a57b f03c
00000070: f64a 363e d21e b53d 01f8 30be cf69 6d3e
00000080: 0ea8 123d ef93 b83d 934b 39bd 8ade 323e
00000090: 7ada 063d ee4e 1dbd 9b2b 1cbe b877 f6bc
000000a0: eac3 21bc e8d9 8fbd 8862 6bbd a8c1 523e
000000b0: 3084 4e3e 2934 7f3c 6c61 023e b206 cf3b
000000c0: ba5f 10bd 2c97 283d 8a95 4ebd 7a36 e13d
000000d0: 8036 233e f839 313e 9ddb 3bbd 55fb f33d
000000e0: 59ae 0a3d 3e74 4a3e cd59 e5bd 75ec 453d
000000f0: 5f95 323e db0b d0bd 9b49 0fbd 91ed 1bbe
00000100: 9f99 513e 18c6 06be ab3f 07be c0cb 62bd
00000110: 1ceb b7bd fe9e b63d 0e95 ac3d 2e7f 9d3d
00000120: 302b 6e3e 1735 d93d 795f 1e3d a1f3 1ebe
00000130: a26e eb3d 2ef3 043e e385 28be 0926 053e
00000140: f73f 383e e6b0 b43d 2409 38be b324 1dbd
00000150: c3a7 143e fb4b c93c fd4a dfbd f44f 5d3e
00000160: 65ad 133d e1b4 17bd b828 c2bd a0a3 1abd
00000170: 8b0d 39bd ea2d b9bc 804e 0cbe b6aa 393d
00000180: ba94 833d ada1 423e fb87 413d f3bf 3b3e
00000190: 5271 363e 496f 4c3e 0522 123d d933 283e
000001a0: d5d0 1ebd 75b7 1dbe 6d8d 903c 0ba8 c83d
000001b0: ae71 123d 527c 0abe 936c 903d ce2e 473e
000001c0: 4dab d4bd c11e 1c3d 00f4 433d 486b 32be
000001d0: e541 b03d 8ffa 943c e9ff 273e 6ee0 82bc
000001e0: 5971 423d 19af 573e 7cf2 453e e445 163c
000001f0: f1c1 c6bd f784 033e e551 483d 8633 173e

layer2.weight f4 [128, 128]
-0.0012390445 0.03107089 0.06990495 -0.038385294 0.06626632 0.07844712 0.070635386 -0.0023714108
-0.007866223 -0.08366811 0.06658394 0.0579357 0.015140201 0.081829816 -0.060124923 -0.0016547487
-0.025839722 0.05353396 -0.060678992 -0.05313079 -0.030684082 -0.09408695 -0.029384747 -0.043576695
-0.080880806 -0.03515953 -0.006338528 0.041044008 0.0063149435 -0.057359338 -0.06117782 0.014508178
0.023991276 -0.08454776 -0.011236192 -0.061569232 0.009687468 -0.084301464 -0.014516398 -0.07972594
0.07030378 0.027977018 -0.037514195 -0.034234453 -0.065988064 0.005645795 -0.08286044 -0.040347464
-0.011254332 0.06829698 -0.04235416 -0.019881932 0.012411884 0.07215796 -0.009977781 0.024618542
0.053829234 -0.09215157 -0.020878468 -0.041124664 0.05431939 0.023479242 0.024072254 -0.004993067
0.05821569 0.027446695 -0.057072215 -0.062068887 0.06609108 0.041010562 0.032739792 0.031041993
0.05759193 -0.038485873 0.024232307 -0.006834884 -0.071607366 -0.0081357 0.06050862 -0.0795135
0.004769337 0.0046350746 -0.012692075 0.011034853 0.07158959 -0.0039423946 0.025084868 0.026572477
0.016706696 0.004081892 0.035497993 0.07837501 -0.023846764 -0.08704438 0.035508964 -0.08190196
-0.034357525 0.009574332 0.06275846 -0.08286118 0.018193152 0.03049056 0.03800754 0.0405425
-0.034576766 0.035666443 -0.010804656 -0.0065765893 -0.07615309 -0.015750166 -0.0051338016 0.0048542023
-0.068371 0.050434828 0.014479246 -0.04927787 -0.018179795 -0.059639603 0.012380611 -0.06447449
-0.09177673 -0.008215679 -0.006553663 -0.0904012 -0.073833145 -0.085032046 0.037836723 0.019087652
-0.009302984 -0.013759492 0.008765428 -0.014117725 -0.07925251 -0.095677175 -0.03509475 0.028734285
0.07837155 -0.034091417 0.13203798 -0.0143816145 -0.09763963 0.16723482 0.0019633262 -0.024885489
0.13918048 5.4115375e-05 0.055111818 -0.06513873 -0.012463733 0.06609272 0.06317732 0.048953287
-0.00721205 -0.061429624 0.062252134 -0.031675927 0.12665586 -0.051107448 0.023884248 0.06574358
0.08036955 0.040198486 -0.08432467 0.11876905 0.1292133 0.13187169 0.08558591 0.017863885
-0.031935737 -0.06797977 -0.021710714 0.015923414 -0.011877852 0.03787595 0.01501115 -0.02256086
0.09404886 0.04762282 0.011653814 -0.04593764 0.09952311 0.096049815 0.020196242 0.06968317
-0.016208403 0.09712044 -0.07201783 -0.006120157 -0.079794504 -0.1819787 -0.03763756 0.06919767
0.09881407 -0.073622085 -0.03081374 -0.026171967 0.0868068 0.09836503 0.0228932 0.18810147
0.014922023 -0.0041336734 0.0700537 0.058211897 0.12161279 0.14646676 -0.015674727 0.07814269
0.07310714 -0.007274132 0.041170403 -0.08359438 0.083286725 0.009393474 -0.053300284 -0.10089774
-0.115352266 -0.00940189 0.043203935 0.052820113 -0.03158727 0.06868637 -0.029306483 -0.035974797
-0.035063855 0.058559258 -0.03675735 0.07103691 0.024039889 0.077080324 -0.07904523 -0.07259989
0.062439833 -0.06401793 0.025105162 0.071043305 -0.06763393 -0.02388127 -0.053000316 -0.01311098
-0.09326095 -0.00712924 -0.03541352 0.036127534 0.06616574 0.0027520808 -0.08093642 0.060277935
0.030303866 0.024599224 0.0028880446 0.19906771 0.039404806 0.0663805 0.12585661 -0.058926854
00000000: 6f67 a2ba 6188 fe3c 542a 8f3d e639 1dbd
00000010: a3b6 873d e2a8 a03d 49a9 903d ac69 1bbb
00000020: 55e1 00bc 305a abbd 295d 883d fc4d 6d3d
00000030: 9b0e 783c 6496 a73d 8d45 76bd 27e4 d8ba
00000040: d3ad d3bc 6d46 5b3d 898a 78bd ac9f 59bd
00000050: 2f5d fbbc a9b0 c0bd 48b8 f0bc 7a7d 32bd
00000060: d6a4 a5bd 7003 10bd 6db3 cfbb c31d 283d
00000070: 96ed ce3b a0f1 6abd 9895 7abd b6b3 6d3c
00000080: 5a89 c43c 6027 adbd 0118 38bc 0530 7cbd
00000090: 30b8 1e3c 3fa6 acbd 30d6 6dbc 5b47 a3bd
000000a0: 6efb 8f3d 0f30 e53c 7ca8 19bd 6d39 0cbd
000000b0: c024 87bd 5c00 b93b bcb2 a9bd 6243 25bd
000000c0: 1764 38bc 49df 8b3d 8e7b 2dbd 6fdf a2bc
000000d0: 375b 4b3c 8dc7 933d d979 23bc d3ac c93c
000000e0: 0b7c 5c3d f6b9 bcbd 5209 abbc 5672 28bd
000000f0: 027e 5e3d 8a57 c03c 2d33 c53c e29c a3bb
00000100: 9373 6e3d e4d7 e03c 8ec4 69bd f23b 7ebd
00000110: c35a 873d b1fa 273d 291a 063d c74b fe3c
00000120: 84e5 6b3d 5da3 1dbd d582 c63c 2af7 dfbb
00000130: e2a6 92bd 994b 05bc e3d7 773d f9d7 a2bd
00000140: 1948 9c3b d3e1 973b 6cf2 4fbc 87cb 343c
00000150: 909d 923d 342f 81bb c87e cd3c 86ae d93c
00000160: 7bdc 883c 64c1 853b 5866 113d 1483 a03d
00000170: 4a5a c3bc 5344 b2bd d971 113d 37bc a7bd
00000180: 7aba 0cbd a9dd 1c3c 8287 803d 1fb3 a9bd
00000190: ce09 953c 57c7 f93c cbad 1b3d e40f 263d
000001a0: 5ea0 0dbd fa16 123d 0306 31bc 6e80 d7bb
000001b0: 27f6 9bbd 7e06 81bc 7339 a8bb 0010 9f3b
000001c0: 1806 8cbd c094 4e3d 5c3a 6d3c 98d7 49bd
000001d0: cbed 94bc a848 74bd 0cd8 4a3c 340b 84bd
000001e0: 70f5 bbbd 0e9b 06bc 1cc0 d6bb 4424 b9bd
000001f0: d535 97bd 4825 aebd aefa 1a3d b55d 9c3c
00000200: 8b6b 18bc 7e6f 61bc df9c 0f3c 084e 67bc
00000210: 244f a2bd 65f2 c3bd 83bf 0fbd 2a64 eb3c
00000220: 4381 a03d 71a3 0bbd f734 073e dda0 6bbc
00000230: 49f7 c7bd 9b3f 2b3e 26ab 003b a7dc cbbc
00000240: 5485 0e3e f1f9 6238 eebc 613d 7467 85bd
00000250: af34 4cbc 9f5b 873d 1c63 813d 3e83 483d
00000260: 0f53 ecbb a19d 7bbd 18fc 7e3d 9ebe 01bd
00000270: 13b2 013e 0b56 51bd e6a8 c33c 92a4 863d
00000280: ca98 a43d 2ba7 243d 6ab2 acbd 303d f33d
00000290: 7e50 043e 5f09 073e aa47 af3d 4857 923c
000002a0: 0ccf 02bd fa38 8bbd abda b1bc d271 823c
000002b0: 529b 42bc d023 1b3d 54f1 753c 8dd1 b8bc
000002c0: b09c c03d 2510 433d a4ef 3e3c 1b29 3cbd
000002d0: c6d2 cb3d c4b5 c43d 9772 a53c 0db6 8e3d
000002e0: 7cc7 84bc 15e7 c63d 167e 93bd 998b c8bb
000002f0: 4d6b a3bd a058 3abe d829 1abd 82b7 8d3d
00000300: 085f ca3d 2dc7 96bd 196d fcbc 9866 d6bc
00000310: c3c7 b13d 9b73 c93d 858a bb3c ac9d 403e
00000320: 807b 743c c473 87bb 5078 8f3d 996f 6e3d
00000330: 2010 f93d 62fb 153e 4968 80bc 4609 a03d
00000340: 32b9 953d d85b eebb 4ca2 283d 8833 abbd
00000350: 3b92 aa3d 16e7 193c 6651 5abd 79a3 cebd
00000360: cf3d ecbd 630a 1abc 9cf6 303d e759 583d
00000370: a761 01bd 71ab 8c3d 2614 f0bc 4f5a 13bd
00000380: 1e9f 0fbd d5db 6f3d e08e 16bd cd7b 913d
00000390: 4def c43c 4adc 9d3d 77e2 a1bd 40af 94bd
000003a0: e9c0 7f3d d51b 83bd 57a9 cd3c 277f 913d
000003b0: a883 8abd a7a2 c3bc dc16 59bd 70cf 56bc
000003c0: 99ff bebd 669c e9bb c40d 11bd 77fa 133d
000003d0: e781 873d 415c 343b fec1 a5bd ffe5 763d
000003e0: d03f f83c 5084 c93c 5945 3d3b 68d8 4b3e
000003f0: ef66 213d 80f2 873d 8ee0 003e 495d 71bd

layer2.bias f4 [128]
-0.037188172 0.08812039 -0.060379654 0.108961195 -0.043695282 0.042035718 0.10039678 -0.01408929
0.17594783 0.057801012 -0.06353807 0.08525859 0.0031050518 -0.057566978 0.012385509 -0.0029104925
0.018055724 -0.03644003 0.06939263 0.04156738 -0.06403905 0.11683276 -0.066690624 -0.055894565
0.014716562 0.114339635 -0.010320535 -0.053694926 0.017699888 0.05546659 -0.018286873 -0.0015963818
0.009026219 0.10327706 -0.07719838 -0.011612071 -0.015523557 0.114649504 0.02454213 0.051214598
-0.06747166 -0.0009283647 -0.017261103 0.066309035 0.031819284 0.06297496 -0.01268621 0.06884648
0.037490163 -0.043725446 0.04812879 0.10826607 0.08816855 0.0037671193 -0.010060996 0.026572442
0.020369787 -0.03847304 -0.039538532 -0.06896164 0.0015610829 -0.017637763 0.049212597 0.0287216
0.031346604 0.03990121 0.047638632 0.06625358 -0.018048247 0.12211769 0.072784044 -0.035027973
-0.018700652 0.020078445 0.014665272 0.032133862 0.031015335 0.034574125 -0.06995805 0.024075622
0.13246617 0.06055173 -0.02973596 0.005238517 -0.04240292 0.017242556 0.020632202 -0.05290614
0.04849691 -0.053833 -0.081797905 0.10553879 0.078900665 -0.035463806 0.0034647696 -0.047304172
0.011555743 -0.020149287 0.06854928 -0.05925323 -0.06656296 -0.06364245 -0.026608426 -0.048100922
0.03061798 -0.02160466 0.045328885 0.039967634 -0.021004837 -0.053450085 0.009531143 -0.007217022
0.007848944 0.12273661 -0.05514013 -0.0494548 -0.04621153 -0.06633996 -0.024161723 -0.034629185
0.041552786 0.1837307 -0.004175086 0.010916994 -0.0072915354 0.10921206 -0.004424665 -0.019655375
00000000: a052 18bd 7778 b43d a850 77bd 0c27 df3d
00000010: d3f9 32bd a52d 2c3d d49c cd3d c4d6 66bc
00000020: ab2b 343e c1c0 6c3d 3f20 82bd 0e9c ae3d
00000030: 207e 4b3b 5acb 6bbd 97ec 4a3c f6bd 3ebb
00000040: 99e9 933c 2442 15bd b91d 8e3d 8f42 2a3d
00000050: e826 83bd 0446 ef3d 1895 88bd b3f1 64bd
00000060: bc1d 713c e62a ea3d 7617 29bc 36ef 5bbd
00000070: 5bff 903c ef30 633d 5ace 95bc af3d d1ba
00000080: b5e2 133c ec82 d33d 2f1a 9ebd 8e40 3ebc
00000090: 8456 7ebc 5ccd ea3d 940c c93c 66c6 513d
000000a0: 952e 8abd 805d 73ba 2867 8dbc 08cd 873d
000000b0: f054 023d 04f9 803d d2d9 4fbc 62ff 8c3d
000000c0: 498f 193d 7419 33bd b222 453d 9aba dd3d
000000d0: b691 b43d c6e1 763b e0d6 24bc 73ae d93c
000000e0: 8ade a63c e895 1dbd 28f3 21bd c33b 8dbd
000000f0: 409d cc3a 127d 90bc 2693 493d 9049 eb3c
00000100: 4c65 003d 746f 233d ba20 433d f5af 873d
00000110: ebd9 93bc d718 fa3d cd0f 953d 7e79 0fbd
00000120: 1c32 99bc 8d7b a43c 9c46 703c cc9e 033d
00000130: df13 fe3c 999d 0d3d 2b46 8fbd 3d3a c53c
00000140: 36a5 073e 1705 783d d498 f3bc dea7 ab3b
00000150: afae 2dbd 4340 8d3c dd04 a93c 1cb4 58bd
00000160: b2a4 463d fe7f 5cbd a985 a7bd b924 d83d
00000170: ac96 a13d 7f42 11bd 3011 633b 05c2 41bd
00000180: 4d54 3d3c 1e10 a5bc 9163 8c3d 84b3 72bd
00000190: 2952 88bd f956 82bd eaf9 d9bc 7905 45bd
000001a0: 8fd2 fa3c 42fc b0bc c8aa 393d 1ab5 233d
000001b0: 5612 acbc 7aee 5abd 8328 1c3c c57c ecbb
000001c0: db98 003c 555d fb3d 9eda 61bd 1e91 4abd
000001d0: 4d48 3dbd 3fdd 87bd ceee c5bc 55d7 0dbd
000001e0: 4133 2a3d e723 3c3e 29cf 88bb 31dd 323c
000001f0: d5ed eebb 93aa df3d c8fc 90bb 4f04 a1bc

layer3.weight f4 [15, 128]
-0.023770066 0.016608384 0.01271299 0.053932175 0.13165553 0.10439312 0.005322788 0.16724645
-0.011850304 0.08568417 -0.022157032 0.14180021 0.016214661 0.1519974 0.10026421 0.12703606
0.08283884 0.020459242 0.09635472 0.035781514 0.12653612 0.12481034 -0.07654861 -0.016808514
0.1438124 0.1311444 -0.004614081 0.13210548 0.082241684 0.02609511 -0.03484585 0.10094766
0.081903584 0.1651074 0.19885634 0.047858737 0.008580238 0.117702246 -0.06353215 0.0046194578
0.016327014 -0.039317694 0.007218777 0.13602494 0.053038944 0.16737066 -0.06677653 -0.016983222
-0.0005059168 0.1556219 -0.07952018 -0.023120226 0.004403037 -0.05071133 0.023879722 0.1357676
-0.025009606 0.15744492 -0.021965042 -0.05444088 0.052126147 0.027933456 0.17507982 -0.070226096
0.011978861 0.1248555 0.1251148 0.15682839 -0.012291939 -0.035681847 -0.038123984 0.05561713
0.1426181 0.1263069 -0.04721503 0.14148733 -0.026137091 -0.07965665 0.15686381 0.026540339
-0.033165652 0.08912404 0.16834518 0.13821508 -0.05438497 0.18387133 0.062744096 0.08507565
0.041248724 -0.0105319135 0.12944202 0.022249814 -0.00954717 -0.0810469 0.055979688 0.13363405
0.15037706 -0.08413234 -0.04280062 -0.007685277 0.14398456 -0.035807554 0.14748777 0.1108214
-0.05761478 -0.074122235 -0.05905019 0.08251534 -0.0966542 -0.0793898 0.13724588 -0.019653572
0.052640744 0.07393876 0.122499615 -0.112096 0.029543031 0.08523933 0.11795988 0.14780045
0.15310723 0.07244731 0.048810497 -0.11603956 0.17169665 0.015044615 0.15972836 -0.08033371
0.00715784 0.059190996 0.05010561 0.058443267 -0.06318674 -0.07414463 0.12557468 -0.105467305
0.074504174 0.055908144 0.054231647 0.07156361 0.06556646 0.086287625 -0.15135674 0.021837119
-0.12754352 0.025263831 -0.036840335 0.016157724 0.05767806 0.08552177 -0.027215436 -0.028703658
-0.14945811 0.025370257 -0.0021239254 -0.023986723 0.031936187 -0.08181286 -0.05049214 -0.065190986
0.068954214 -0.02162816 -0.072210915 0.0041565993 0.05176131 0.095866464 0.028690018 0.0501599
0.048196837 0.07688466 -0.030681202 0.059152342 -0.08886935 -0.09621877 -0.069804564 0.03461104
0.007309013 -0.09774317 0.05572307 0.03599635 -0.040794943 -0.08606219 -0.007854432 -0.04944262
0.15789948 -0.055077538 -0.088314496 0.008065552 -0.08407797 -0.06117503 -0.0572752 -0.038257327
-0.054015342 -0.073603645 -0.012739019 -0.008220637 0.12938401 0.014282147 0.029266644 0.01759193
0.11368128 -0.08219682 0.04583005 -0.031419862 -0.030425245 0.0026368774 -0.06766326 -0.13306223
0.07360666 -0.01695436 -0.07824362 0.035184316 -0.07587113 -0.017807456 0.037399672 -0.07664857
0.033832528 0.04401703 -0.10802598 0.03219557 0.032327786 -0.0014269867 0.06376802 -0.05279397
-0.07219648 0.10341392 -0.04283407 -0.08764884 -0.14655723 -0.068512954 -0.13867185 -0.08772718
0.08743595 -0.05106093 0.061910182 0.042836495 0.088581726 0.080708496 -0.064657696 -0.056460366
0.047052044 0.09431362 0.08742553 2.017516e-05 -0.03147558 -0.006128438 -0.11030801 -0.083003215
-0.007244983 0.11609169 -0.0035838783 0.06535372 -0.020818928 -0.046975967 -0.027327595 0.05644108
00000000: 71b9 c2bc 4e0e 883c 254a 503c fce7 5c3d
00000010: b5d0 063e 0fcc d53d c86a ae3b a742 2b3e
00000020: c727 42bc 2f7b af3d aa82 b5bc 1334 113e
00000030: 9cd4 843c 35a5 1b3e 5257 cd3d be15 023e
00000040: 69a7 a93d 249a a73c a055 c53d a38f 123d
00000050: af92 013e 909c ff3d 85c5 9cbd 02b2 89bc
00000060: 8f43 133e b84a 063e b731 97bb a946 073e
00000070: 546e a83d 6ac5 d53c 86ba 0ebd a6bd ce3d
00000080: 11bd a73d ea11 293e ffa0 4b3e 8607 443d
00000090: 2094 0c3c e00d f13d 251d 82bd d25e 973b
000000a0: 3bc0 853c 970b 21bd 7e8b ec3b 1f4a 0b3e
000000b0: 5d3f 593d 3763 2b3e 22c2 88bd 6620 8bbc
000000c0: 809f 04ba 595b 1f3e 7adb a2bd a166 bdbc
000000d0: 5a47 903b afb6 4fbd 689f c33c a906 0b3e
000000e0: f2e0 ccbc 3e39 213e 08f0 b3bc 66fd 5ebd
000000f0: 3a82 553d b4d4 e43c 2048 333e b3d2 8fbd
00000100: fc42 443c 3eb4 ff3d 181e 003e 9f97 203e
00000110: 2164 49bc 2127 12bd e527 1cbd cace 633d
00000120: 7b0a 123e 9956 013e 8c64 41bd 0ee2 103e
00000130: 741d d6bc 0723 a3bd e8a0 203e 206b d93c
00000140: b5d8 07bd aa86 b63d ae62 2c3e 4188 0d3e
00000150: c6c2 5ebd c448 3c3e fa7f 803d 243c ae3d
00000160: 6cf4 283d 0c8e 2cbc 738c 043e 3e45 b63c
00000170: bc6b 1cbc ebfb a5bd f54a 653d 5dd7 083e
00000180: 72fc 193e 944d acbd b44f 2fbd c7d4 fbbb
00000190: b070 133e f1aa 12bd 0907 173e 55f6 e23d
000001a0: 7afd 6bbd 66cd 97bd 9dde 71bd cdfd a83d
000001b0: a3f2 c5bd 1f97 a2bd 2f8a 0c3e 8700 a1bc
000001c0: d29d 573d 346d 973d 14e1 fa3d 9692 e5bd
000001d0: 3a04 f23c f591 ae3d f394 f13d 0059 173e
000001e0: 24c8 1c3e 415f 943d 84ed 473d 26a6 edbd
000001f0: 3fd1 2f3e b07d 763c d58f 233e 0086 a4bd
00000200: 508c ea3b 4272 723d 8a3b 4d3d 3562 6f3d
00000210: 0d68 81bd 24d9 97bd a696 003e 3eff d7bd
00000220: a595 983d f0ff 643d 0122 5e3d f18f 923d
00000230: b547 863d 91b7 b03d 43fd 1abe c2e3 b23c
00000240: c59a 02be 18f6 ce3c e4e5 16bd 345d 843c
00000250: d43f 6c3d 0a26 af3d e8f2 debc ef23 ebbc
00000260: 8c0b 19be 49d5 cf3c 8e31 0bbb ce7f c4bc
00000270: 85cf 023d 808d a7bd d9d0 4ebd da82 85bd
00000280: de37 8d3d 8a2d b1bc 51e3 93bd 1534 883b
00000290: ab03 543d a355 c43d 5407 eb3c 7874 4d3d
000002a0: 0c6a 453d b475 9d3d 2557 fbbc ba49 723d
000002b0: 2201 b6bd 590e c5bd b2f5 8ebd 4ec4 0d3d
000002c0: 7280 ef3b 922d c8bd e03d 643d e970 133d
000002d0: 9918 27bd 6041 b0bd e0af 00bc 5884 4abd
000002e0: 67b0 213e fc98 61bd 3bde b4bd 6125 043c
000002f0: 1231 acbd ab92 7abd 6699 6abd b7b3 1cbd
00000300: 313f 5dbd 82bd 96bd 51b7 50bc daaf 06bc
00000310: 3e7d 043e abff 693c 9ac0 ef3c f41c 903c
00000320: bbd1 e83d ce56 a8bd 4ab8 3b3d 1db2 00bd
00000330: 5d3e f9bc 76cf 2c3b 0993 8abd 7741 08be
00000340: 17bf 963d dfe3 8abc 313e a0bd 6e1d 103d
00000350: 5362 9bbd f1e0 91bc 6630 193d edf9 9cbd
00000360: fa93 0a3d 344b 343d ba3c ddbd 81df 033d
00000370: 246a 043d ba09 bbba cf98 823d 7d3e 58bd
00000380: c0db 93bd adca d33d c772 2fbd 3c81 b3bd
00000390: 1913 16be 8550 8cbd feff 0dbe 4faa b3bd
000003a0: 9f11 b33d 4425 51bd 8895 7d3d 5275 2f3d
000003b0: 566a b53d 7f4a a53d 416b 84bd fc42 67bd
000003c0: a5b9 403d 8027 c13d 280c b33d d43d a937
000003d0: 8aec 00bd 10d1 c8bb 2ae9 e1bd 97fd a9bd
000003e0: 5367 edbb 7bc1 ed3d 80df 6abb 2cd8 853d
000003f0: 758c aabc df69 40bd 1fde dfbc c32e 673d

layer3.bias f4 [15]
0.08975009 0.07997716 0.019241055 0.07005147 0.09003511 0.019269943 0.01836072 -0.042002853
0.012049632 -0.046935454 0.070028104 -0.13138859 0.03452326 -0.05358671 -0.07395695
00000000: e5ce b73d 11cb a33d 6b9f 9d3c 2577 8f3d
00000010: 5464 b83d 00dc 9d3c 3869 963c 2f0b 2cbd
00000020: d26b 453c 643f 40bd e56a 8f3d bb8a 06be
00000030: 4368 0d3d bd7d 5bbd be76 97bd
