code/race_net_first.pt (torch, 90271 bytes, 6 tensors)

layer1.weight f4 [128, 27]
000000 3e 59 13 bc e8 aa 34 be eb 98 16 3e bf bd 0b 3e
       -0.008993445 -0.1764332 0.14706771 0.13646601
000010 75 79 1d 3e aa db 8b bd 37 83 df bd e8 f6 86 3d
       0.15378363 -0.06829007 -0.10913699 0.065900624
000020 c9 1c 85 3d 67 2a c0 bd 73 21 02 be b2 d2 09 bd
       0.06499631 -0.093830876 -0.12708072 -0.0336482
000030 a0 06 f6 bd 57 2d 79 bd 19 9f aa 3c 70 b6 36 be
       -0.12012982 -0.060834255 0.020827817 -0.17843032
000040 48 e3 8e 3d 60 2e 1c bd 48 8b d5 bd 76 95 85 bc
       0.06976944 -0.038130164 -0.104269564 -0.01630662
000050 69 80 23 be b0 9a 3c be 18 bf 27 be 13 4b 01 be
       -0.15966953 -0.18418384 -0.1638149 -0.12626295
000060 6f ce 32 3e a1 93 73 3d 44 5b 03 bd ac a7 bc 3d
       0.1746156 0.05946696 -0.03206946 0.09211668
000070 d8 d1 71 3e 9e 64 74 bd 1e 71 a1 bd c1 5e 20 be
       0.23615205 -0.05966627 -0.078829035 -0.15661146
000080 a1 49 90 3d 82 06 92 bd 27 a4 2e 3e df 0f 8f bd
       0.070452936 -0.071301475 0.17054807 -0.06985449
000090 3f 65 10 bc 37 52 e8 bb 82 aa f6 3d a8 53 43 3e
       -0.008813201 -0.007089879 0.120442405 0.19074881
0000a0 33 ee bc 3c 96 8e 6a 3d 24 e2 91 3d dd 01 45 3c
       0.023062801 0.057264887 0.07123211 0.01202437
0000b0 39 71 f9 bc e7 53 95 be 73 96 a2 3c 51 35 61 3d
       -0.030449497 -0.29165575 0.01984713 0.054982487
0000c0 ad f7 aa 3d fc c2 56 be 60 31 3a be 1b 9a 00 be
       0.08348022 -0.20972818 -0.18182898 -0.12558787
0000d0 43 a1 51 be c5 5e 19 3d b8 5e d8 bd f1 b1 fe bd
       -0.20471673 0.037443895 -0.10564941 -0.124362834
0000e0 3f f7 b4 3e 46 09 8f bd d0 06 c5 3b 3a c9 45 3e
       0.35344884 -0.06984191 0.006012775 0.19315043
0000f0 52 a6 b4 3d 4e 78 54 3d ce 4a a3 3d fc 25 02 be
       0.088207856 0.051872544 0.07973252 -0.12709802
000100 a7 5b 9a 3d bb 8d 15 3d 17 9c 94 bd 96 6f 92 3d
       0.075370125 0.036512118 -0.07256334 0.071501896
000110 72 24 11 be 3e 25 de bd fe 89 66 3e 17 62 4c 3d
       -0.14174059 -0.10846947 0.22513577 0.049898233
000120 b9 f0 a6 3e f2 2a 68 bd 6f 82 56 3e 60 1b 25 3e
       0.32605532 -0.05668158 0.20948194 0.16123724
000130 46 89 90 3e 4a f7 60 3e 04 79 86 3d 74 96 51 3e
       0.2822973 0.21969333 0.06566051 0.2046755
000140 63 03 c3 3d 95 4a 01 3e 86 ba 88 3d 28 ec 72 3d
       0.0952213 0.12626107 0.066762015 0.059307247
000150 6b 81 b7 3c 25 cc 0a 3e ed 74 f8 3d 7f 3a 24 3e
       0.022400578 0.13554437 0.12131677 0.1603794
000160 c3 71 21 3e ac 58 2b 3e 46 e6 73 3d a2 da 91 3d
       0.15766053 0.16733044 0.059545778 0.07121779
000170 91 cc a1 3d ab 04 36 3d 63 a3 c0 3d 96 29 57 bc
       0.07900346 0.044438045 0.094061635 -0.013132473
000180 bf 1a 41 3e cb 77 e3 3d 70 75 11 3e eb 42 83 3e
       0.18857859 0.11106833 0.14204955 0.25636992
000190 e1 f2 91 bd f4 f7 59 3e 24 3c a9 3d 92 85 fd 3d
       -0.071264036 0.21285993 0.08263424 0.12378992
0001a0 0c d3 c8 bd e5 2c 90 bc 19 3b 14 be e5 61 9c bd
       -0.09805879 -0.017599532 -0.14475669 -0.076358594
0001b0 ec f0 80 bd 4d 10 22 3c 9c 73 c8 3d df c6 93 3d
       -0.06295952 0.009891582 0.09787676 0.07215666
0001c0 ed dc 96 3e 7f 48 70 3b c1 da 26 3e 39 03 ea bc
       0.29465428 0.0036664305 0.16294385 -0.02856599
0001d0 d6 8a f8 bd c0 fd 48 3e 45 3a 86 bc ef de e3 3d
       -0.12135856 0.19628048 -0.016385207 0.111265056
0001e0 1c 9d 77 bd 6d 29 77 3d ed 40 38 be 59 fd bd 3c
       -0.060452566 0.06034224 -0.17993517 0.023192095
0001f0 b6 2f 57 3e bc a5 63 3d 67 51 46 3e 98 95 b9 3d
       0.21014294 0.05557798 0.1936699 0.09061736
000200 17 50 c5 3e c7 44 5b 3e 50 dd 68 3e 84 ab 05 be
       0.38537666 0.21412955 0.22740674 -0.1305371
000210 cc fd 2a 3d 11 c4 26 be cd 67 ec bd f4 97 ad 3d
       0.041745946 -0.16285731 -0.11543236 0.084762484
000220 c9 7c 09 be fc 06 24 be a7 81 c9 bc b5 c5 1c be
       -0.13426508 -0.1601829 -0.024597956 -0.15309794
000230 07 77 0d 3d 47 10 0c 3e 9e 1e af 3c e4 01 2a be
       0.03453734 0.13678084 0.021376904 -0.16602284
000240 52 cd 8e bd b8 d5 2b be 44 d0 28 be 24 2a 53 3d
       -0.069727555 -0.16780746 -0.16485697 0.05155386
000250 67 89 0b bd 9e 0c 41 3c d0 f8 01 3d 30 50 01 be
       -0.034066584 0.011782793 0.031731427 -0.12628245
000260 c0 2d b4 3d 13 39 23 3e e4 8e fb 3c 8d 69 c1 3d
       0.087977886 0.15939741 0.030707784 0.0944396
000270 07 1a 33 3d b7 d9 1e 3e 47 bd 3a 3e 8d 88 d6 bd
       0.043725993 0.15512739 0.18236266 -0.10475264
000280 df ee 8d bd 24 81 30 be be 03 06 bd 86 a7 6d 3e
       -0.06930327 -0.17236763 -0.032718413 0.23208436
000290 52 0f 94 3d ec 72 d1 bc d7 8a 3b 3e 94 f6 f5 3c
       0.072294846 -0.025567494 0.18314682 0.030024804
0002a0 61 43 4b 3d b8 53 94 3d 62 3e d2 3d f2 0e 1a 3e
       0.049624804 0.072425306 0.10265805 0.15044764
0002b0 e6 06 0e be 29 fe 59 3e 62 d3 a5 bb d7 56 6b 3e
       -0.13869819 0.2128836 -0.005060599 0.22982346
0002c0 1d 29 0c be ec 44 d7 bd cb 9b 4b 3e bf 7a 57 bd
       -0.13687558 -0.10511193 0.19883649 -0.052607294
0002d0 77 1f 43 3d af ba 65 bc 34 61 93 3e a7 73 ac 3d
       0.04763743 -0.01402156 0.28785098 0.084204964
0002e0 0a b1 9e 3d f7 a5 38 3e e6 92 7a 3d 31 e6 1f 3e
       0.07748611 0.1803206 0.06117525 0.15615155
0002f0 9b b7 f8 3d bb d9 0c 3e f1 f3 01 3e c3 07 6a 3e
       0.12144395 0.13754933 0.12690713 0.22854523
000300 44 4e bd 3d 2a c1 0e 3e 99 7b 33 3e ce cb 5c 3d
       0.092434436 0.13940874 0.17527618 0.0539053
000310 0b da e8 bd 67 c8 b0 bd 9a 8a f3 3d 57 47 78 bd
       -0.113697134 -0.08631974 0.118916705 -0.06061491
000320 c8 93 67 3e 13 cd d9 bc 66 f0 75 bd ee 06 9e 3d
       0.22614968 -0.026587045 -0.060043715 0.077161655
000330 38 67 2a 3d 32 d9 8a 3e a3 17 95 3d 00 86 81 3d
       0.041602343 0.27118832 0.07279899 0.063243866
000340 93 08 4c 3e 8a 46 ec 3d 29 32 0d be af dd 82 3e
       0.19925146 0.11536892 -0.13788666 0.25559756
000350 00 85 f3 bc d3 cf 2c 3e f8 20 01 be 7b e1 ab 3b
       -0.029726505 0.16876154 -0.12610233 0.005245385
000360 b9 de 16 3e 2c c6 82 3d 02 aa ce 3d 46 5c cb 3d
       0.147334 0.063854545 0.1009102 0.09929709
000370 55 f8 0f 3e 86 72 2a 3e 18 c6 93 3d 16 89 85 bd
       0.14059575 0.1664525 0.07215518 -0.06520288
000380 be 41 bb bd 1f af 35 3e 2c fe eb 3c ba a6 b7 3b
       -0.09143399 0.17742585 0.028807722 0.005604592
000390 5f 05 92 3d ee 48 49 3e 92 cd e2 bd 54 01 31 bd
       0.07129931 0.19656727 -0.11074366 -0.043214157
0003a0 c2 0c 56 bd 22 8c 09 3d 7a c7 1b bd 3a c8 2d 3d
       -0.05225826 0.033580907 -0.038032033 0.04242728
0003b0 96 cf 45 3e 1f 42 f3 bd be 7e 2d 3e fa e1 04 3e
       0.19317469 -0.11877846 0.1694288 0.12976828
0003c0 e9 48 06 be a0 a8 3e be 13 e1 8a 3d 34 31 e5 3d
       -0.1311375 -0.18619013 0.06781211 0.111910254
0003d0 b2 a2 77 3e 46 a7 0c be 3a d3 b4 3d 20 3a 2e 3e
       0.24183157 -0.13735685 0.08829351 0.1701436
0003e0 fb ec 2a bd df 3e 1e 3e 72 17 4d bd 11 3b 5a 3d
       -0.04172991 0.15453671 -0.050071187 0.053278986
0003f0 bd f8 61 3e 6b 81 b3 3d 48 76 70 bd e0 ee 16 3e
       0.22067542 0.08764919 -0.05870655 0.14739561

layer1.bias f4 [128]
000000 ee f4 53 bd 0c 7a 32 3e d3 11 0e 3e 3c 01 0e 3c
       -0.051747255 0.1742937 0.13873987 0.0086672865
000010 c4 61 8e bd 70 29 66 bd 30 da a0 bd 0f e2 48 3e
       -0.06952241 -0.05619186 -0.07854116 0.19617485
000020 ef 32 47 3e 61 d2 74 3e 18 ac e7 3d 75 47 c3 bd
       0.19453023 0.23908378 0.11312121 -0.09535114
000030 d5 2d 4f 3d 7a af 75 3e be 7f c6 3c a0 7d 3c bc
       0.05058082 0.2399272 0.024230834 -0.011504561
000040 b7 02 f4 3d 97 e8 d5 bc 96 9b 1a 3c 6e c9 ae 3c
       0.1191458 -0.026111884 0.009436509 0.021336284
000050 34 d4 9f 3d 7a b1 09 3e 8e ea f2 bc 7a cc 7d bd
       0.078041464 0.13446608 -0.02965286 -0.061962582
000060 ba e4 1e 3e 10 48 a1 bd eb c2 e2 bd f1 c0 16 3e
       0.1551694 -0.07875073 -0.11072334 0.14722039
000070 40 46 b5 3d f2 11 de bd b1 2e 77 3d 77 ed 2b 3e
       0.0885129 -0.108432665 0.060347263 0.16789804
000080 80 b1 c9 3d f8 af 23 3e ab d7 d9 3c 09 68 5d 3e
       0.098483086 0.15985096 0.026592096 0.21621718
000090 4c 6b 14 3e b6 f9 a2 3b 21 d2 19 bd a6 e4 16 be
       0.14494056 0.0049736155 -0.03755391 -0.1473566
0000a0 88 5b d5 3d 42 20 b5 bd f5 66 1d 3e 6d c9 f4 3b
       0.10417849 -0.08844043 0.15371306 0.007470301
0000b0 ab 88 bd bd ad d3 00 be 92 3d 89 bd 83 e1 4a 3e
       -0.09254583 -0.12580748 -0.06701197 0.19812588
0000c0 de 9e e5 3d f5 7e b1 bd 96 09 6a 3d 14 52 86 bd
       0.11211942 -0.08666793 0.057138048 -0.06558624
0000d0 00 0a 13 3e 50 20 1d bd 56 30 8d 3d 9a d0 10 3e
       0.14359283 -0.038360894 0.06893985 0.14142075
0000e0 e7 b2 1a be 26 88 6f 3e 74 82 ef 3d 53 6a 66 3d
       -0.15107308 0.2339178 0.11694804 0.056253742
0000f0 95 82 00 be 7b 03 27 3e b3 a1 b1 3d 22 83 37 3e
       -0.12549813 0.16309921 0.0867342 0.17921117
000100 8a a7 01 3e 64 09 f7 3c 07 b9 01 be 1b 16 79 bd
       0.12661567 0.030155845 -0.12668239 -0.060812097
000110 f1 19 19 be 8b b3 3b 3e a3 f6 17 bd ca d9 2c 3e
       -0.14951302 0.18330209 -0.037100445 0.16879955
000120 02 2f 37 3e 0a a1 14 be ee c9 da 3d f0 9e 72 3e
       0.17889026 -0.14514557 0.10683046 0.23693442
000130 4f 8b 14 bd c3 d1 24 3e bf 4e 1b be a4 84 aa 3c
       -0.036265668 0.16095643 -0.15166758 0.020815201
000140 41 08 17 3d 07 12 44 bd 95 dc 89 bd 35 f3 10 3e
       0.036873106 -0.047868755 -0.06731526 0.14155276
000150 db 90 cb bd 6b 22 a3 3d 92 88 08 be 30 8b 0b be
       -0.09939738 0.07965549 -0.13333347 -0.13627315
000160 a1 a3 b8 3b a2 de a9 bd 82 90 c4 3d fe da d7 bc
       0.0056347405 -0.08294417 0.09597875 -0.02634954
000170 f8 bf 03 be ea e2 cc bd a7 02 a8 bd be c0 40 3e
       -0.12866199 -0.10004218 -0.08203631 0.18823525
000180 ca af 18 3d d9 b7 02 3e 56 0e f2 3c a8 25 e8 bd
       0.03727702 0.12765445 0.029547852 -0.11335307
000190 70 95 32 3e b3 fa af bd db b4 ff 3d 40 b2 05 3e
       0.17439818 -0.08592739 0.12485667 0.13056278
0001a0 cc e2 87 3e dd 8f 69 3e 0d 1b 71 3d b6 d6 67 3c
       0.2654022 0.22808786 0.05886369 0.014150312
0001b0 2b 91 9d bd 79 8c 28 3e f2 5a 68 3d ea 46 a1 bc
       -0.07693704 0.16459836 0.056727357 -0.019687135
0001c0 51 9d 62 3e e5 9f e1 bd 76 91 92 bd c6 db 48 3e
       0.22130324 -0.110168256 -0.07156651 0.19615087
0001d0 07 88 b4 3c 9a 36 a2 bd 91 73 12 3d e7 f4 57 3d
       0.02203752 -0.07920571 0.035754744 0.05272379
0001e0 10 99 7f 3d b9 ab fb 3c e6 f6 1a 3e 85 fd 27 be
       0.06240183 0.030721532 0.15133247 -0.16405304
0001f0 79 a0 f4 3d b7 7b b3 3d d3 9a 54 3d 10 a0 4b 3d
       0.1194467 0.08763831 0.051905464 0.049713194

layer2.weight f4 [128, 128]
000000 40 13 a3 3c 08 d1 22 bd 51 98 d2 3d e4 5f 27 3d
       0.01990664 -0.03975013 0.10282958 0.040862933
000010 a7 61 16 3e 1e 3a c4 3c e7 85 d3 3d da 0f ce 3d
       0.14685689 0.023953494 0.10328274 0.10061617
000020 4e 10 bb 3d 4c da 2e b8 9d 3c a0 3d d2 a8 f0 3c
       0.09133969 -4.1688138e-05 0.07824061 0.029377375
000030 a5 8c 7f 3d da 69 60 3d af 7a 87 bd 46 dc a8 bb
       0.06238999 0.054788448 -0.06615197 -0.0051532118
000040 ca 99 14 bd 8e 28 aa 3d 3e 68 ad 3d 84 67 a5 bd
       -0.036279477 0.083085164 0.08467148 -0.08076385
000050 1a 78 47 3d 1f 30 33 bd 8b 4c dc 3d bc 45 5b 3c
       0.048698522 -0.043747064 0.10756787 0.013383325
000060 97 a5 ad 3c c0 57 89 bc 7a 2b 86 3c 38 5b ae bb
       0.021197123 -0.016765475 0.016378153 -0.0053209327
000070 0d a0 4c 3d 52 b5 d0 3d 96 55 5e bd 37 5e 30 3d
       0.049957324 0.10190834 -0.05428084 0.0430586
000080 f2 b6 e4 3d bb 66 81 bd 96 10 9e 3d d1 52 e7 3c
       0.111677065 -0.063184224 0.07718007 0.028237732
000090 0b 57 d0 bc 12 af 6d 3d ea f9 53 3d 76 9f a9 3d
       -0.02543213 0.05802829 0.05175201 0.08282368
0000a0 2d 5b ac bc 49 e1 b3 bd 8e 63 ff 3c f8 e9 61 bc
       -0.02103957 -0.08783204 0.031175401 -0.013788693
0000b0 d2 f2 c7 bd 4d 79 cd bd c1 41 96 3d 0f d8 4e bd
       -0.09763111 -0.10032902 0.0733676 -0.05049902
0000c0 4c 28 f0 3c 8e a3 5e bd 09 08 a5 bd 16 ad 6e 3d
       0.02931609 -0.054355197 -0.08058173 0.058270536
0000d0 13 b2 8a bc d9 3a 8a bc e4 6e 02 3e 39 2b 4d bd
       -0.016930616 -0.016873764 0.12737614 -0.05009005
0000e0 e5 e1 62 bc 30 4c ae 3c 31 43 2c be 83 97 18 3d
       -0.013847803 0.021276563 -0.16822506 0.037253868
0000f0 6e 0a 96 bd 67 97 b7 3d f1 23 71 3d 01 91 22 3d
       -0.07326208 0.089644246 0.058872167 0.039689068
000100 64 29 2b 3d 33 b7 09 bd 28 91 99 3d 07 09 b3 bd
       0.04178752 -0.033621978 0.074983895 -0.08741956
000110 f3 1b ff bc e1 e7 57 3d 1c 21 16 3e f3 3a 16 be
       -0.031141257 0.05271137 0.14661068 -0.14670925
000120 2e 68 f2 bd 74 37 62 3d 79 63 2f 3c 65 cb 24 3d
       -0.11836277 0.055228665 0.0107048685 0.040233035
000130 ac c3 9b 3d 13 24 44 bc e2 d3 b9 bd b1 1f 79 38
       0.07605681 -0.011971491 -0.090736166 5.939574e-05
000140 ee f6 da 3d c4 d5 28 3e 71 e1 5a 3d 31 12 b7 3d
       0.10691629 0.16487795 0.053437654 0.089390166
000150 36 44 ff 3c a6 b8 d7 3d 58 d5 f0 3d 3f 6f b3 3c
       0.031160455 0.10533266 0.11759442 0.021903632
000160 dc 11 d4 3d bf 81 7d bd 9c 5a a4 3c 2d 69 95 3d
       0.10354969 -0.061891314 0.020062737 0.07295451
000170 f0 3c a9 bd fa dc 2b 3d c9 4e 5d 3d 4f 06 8c bb
       -0.08263576 0.041958787 0.054030214 -0.004273213
000180 57 68 08 bd b7 cf c0 3c 03 20 0b 3e 95 68 34 3d
       -0.03330263 0.023536546 0.1358643 0.04404505
000190 7a a4 d3 bc 53 ea 7f bd 3a d9 a3 bb af ca b5 3d
       -0.025835264 -0.06247933 -0.0050002607 0.088765495
0001a0 26 22 67 bd 71 ea 67 3b 4c e9 c9 3d bf 79 30 3d
       -0.05642905 0.003538754 0.09858951 0.043084856
0001b0 16 4b e5 3c ba 04 b1 3d 2a c7 43 3b c1 7c 81 3d
       0.027989905 0.0864348 0.002987335 0.06322623
0001c0 0d 2b a7 3c 42 94 3a bc 4c c6 88 3d 52 fa 1d bd
       0.02040627 -0.0113878865 0.06678447 -0.038568802
0001d0 5d af 20 bd 16 bc 1b 3e 04 e2 84 bc 8e 63 40 bd
       -0.03922974 0.15208468 -0.016221054 -0.046969943
0001e0 bb f1 e8 b9 f4 46 83 3d 2a cc b9 bc e8 8b 8b bd
       -0.00044430592 0.064100176 -0.02268036 -0.068137944
0001f0 9d 0d 0e 3e ef c2 6e 3d 4f 77 d8 3d 4b 15 73 3d
       0.1387238 0.058291372 0.10569631 0.05934648
000200 90 0d 2c bd 8c 9e 67 bd 70 f3 b1 3d 7a c7 6b bd
       -0.04200512 -0.056547686 0.0868901 -0.057563283
000210 04 3e 41 3c 96 52 9a 3d f6 5c f3 3b 48 7e 2b 3d
       0.011794571 0.07535283 0.0074268533 0.041868478
000220 c7 ac 12 3d 0a 35 c2 3c f3 29 1e 3d d1 25 b1 3c
       0.035809305 0.023706932 0.038614225 0.021624478
000230 b2 60 49 3b 5e 5c 4c bc b7 d6 8e 3d dc 5b b2 3d
       0.00307278 -0.012473194 0.06974547 0.08708927
000240 33 d8 00 bb a2 b1 df 3d e2 3c b6 3d bf ad 97 3d
       -0.0019660115 0.10922553 0.08898331 0.07406186
000250 ea 18 68 bd 1b 35 8b bd f9 96 33 3d 13 37 27 bd
       -0.056664385 -0.067972384 0.04384515 -0.040824007
000260 fe 6e 9e 3d 4d 23 59 bd 01 cc 2b 3d bf b4 97 bc
       0.07736014 -0.05301218 0.0419426 -0.018518804
000270 6d fc c5 3d 2f 39 88 bd 50 65 a3 3d 72 e5 14 bd
       0.09667287 -0.06651532 0.07978308 -0.03635163
000280 3c b9 98 3d 6d 52 b2 3d 54 65 94 3d a5 e3 bf 3c
       0.07457206 0.08707128 0.07245889 0.023423979
000290 1e 53 94 bd 52 68 3f 3d 7e b3 ba bc 2d b0 9e 3c
       -0.07242416 0.046730347 -0.022790667 0.019371117
0002a0 01 06 37 bd 88 99 46 3d e1 45 70 3d 2e 8e 3f 3c
       -0.04468346 0.048486263 0.05866039 0.011691613
0002b0 2e 69 8e bd 61 0b 40 bd 4f 4d 83 3d 6f e4 3e 3d
       -0.06953655 -0.04688585 0.0641123 0.04660457
0002c0 d3 d4 54 3d 06 92 7d 3d fb 2a a6 3d b2 55 3d 3d
       0.051960777 0.061906837 0.081136666 0.046224304
0002d0 60 28 b3 bb 9c f7 5b bc 69 0e 8c bc db ab 0a bd
       -0.0054674596 -0.013425734 -0.017096715 -0.0338553
0002e0 59 d2 30 b9 b0 a7 42 bc 59 d0 29 bd 60 b7 85 3d
       -0.00016863029 -0.0118808 -0.04145846 0.06529117
0002f0 fb 54 68 3d bd 39 2a 3d 39 33 83 3d 5a 8c fe bc
       0.05672167 0.04155897 0.06406254 -0.031072784
000300 4d 8e b2 3d bd 14 a8 3c 5e 91 c0 bb 95 0d ad 3d
       0.08718548 0.020517701 -0.005876704 0.08449856
000310 27 a8 90 bd 7e a6 28 3d 00 e7 73 3d 2a 87 0e be
       -0.070633225 0.041174404 0.05954647 -0.13918748
000320 ae 02 00 3d dc b9 4f bd 85 d8 a0 3c 73 f5 aa bc
       0.031252556 -0.05071436 0.019634495 -0.020868992
000330 ab df 80 3d b8 06 66 bd ba 04 66 3c d5 ca 84 3d
       0.06292661 -0.05615875 0.014039213 0.06484
000340 ba 09 0e bd 57 5d bc 3d 23 03 bd 3d 6c e4 3d 3d
       -0.034677245 0.09197491 0.09229114 0.04636042
000350 05 e4 df 3d c9 0d 94 b8 dd a5 71 3d a6 79 a2 3d
       0.10932163 -7.0597576e-05 0.05899607 0.07933359
000360 0c 96 8f 3d 7b 99 ae bd 25 bb 8c bd 7c ef 7f bc
       0.07011041 -0.08525368 -0.068716325 -0.015621062
000370 9f ab 84 3d e4 a1 44 3d 1d ea 05 bd 7c 0e 24 bd
       0.064780466 0.048005953 -0.03269397 -0.040052876
000380 a0 38 02 3c eb 96 92 bd 60 c8 ae 3d 6d 94 b7 bc
       0.007948071 -0.071576916 0.08534312 -0.022409642
000390 a1 9f 8a 3d 81 93 38 bc 20 ad 98 bc 6d 55 1f 3d
       0.06768728 -0.011265636 -0.01863724 0.038899828
0003a0 b9 53 1f bc ed 58 83 3d 65 74 54 bc 69 1d 01 bc
       -0.009724551 0.064134456 -0.012967204 -0.007880547
0003b0 79 95 b4 3c 4e c9 5a bd d3 2b c9 3d f3 0a 30 3d
       0.02204393 -0.053414635 0.09822812 0.042979192
0003c0 64 e4 b8 bb e7 1a 1b 3d 45 4c 35 bd 3f 72 b5 bd
       -0.0056424607 0.037867453 -0.04426219 -0.08859681
0003d0 4d 95 86 bd df ff d3 3d 90 69 aa bd d0 a2 d1 3c
       -0.065714456 0.10351538 -0.08320916 0.02559033
0003e0 bf 77 a7 3d 05 b0 3c bd a6 51 a4 bd ce 39 e2 bc
       0.08177137 -0.046066303 -0.08023386 -0.027615454
0003f0 f0 17 cf bc 84 c1 52 bd f0 ee ba 3d 1d 20 9b bd
       -0.025279969 -0.051454082 0.09127605 -0.075744845

layer2.bias f4 [128]
000000 13 d6 64 bd 84 2c 94 bb f0 62 a1 bd 30 b2 50 bd
       -0.05586822 -0.0045219082 -0.07880199 -0.050951183
000010 d5 e8 45 3d 16 22 6f bd 6d 8c cc 3a 32 61 b5 3d
       0.04831775 -0.058382116 0.0015605815 0.08856429
000020 a2 d5 6f bd 76 2b 90 ba 83 40 65 3c 94 8d 96 3d
       -0.058553346 -0.001099928 0.013992432 0.07351223
000030 ef 8a 78 bd 93 8f 0f 3d 4e 26 a4 bd 2a 5a b7 bc
       -0.060679372 0.035049032 -0.080151185 -0.02238186
000040 9a e9 f4 bc b7 4d a5 3d 6f 30 62 3d 84 14 84 3d
       -0.029896546 0.080714636 0.05522197 0.064492255
000050 30 a5 08 3e 65 84 c6 3d 73 1d b1 bd b0 c9 aa bd
       0.13344264 0.09693221 -0.08648195 -0.0833925
000060 10 90 83 bd 9a 89 a6 3d 65 59 71 bc d4 10 86 3d
       -0.06423962 0.08131714 -0.014730786 0.065461785
000070 45 4b 9b bd 06 ec 8a bd 83 98 9c 3c 32 a6 d7 ba
       -0.07582716 -0.06783299 0.019115692 -0.0016452728
000080 31 1e 41 3d 48 86 0c 3d 5b 04 78 bc b6 74 dd 3d
       0.047147933 0.034307748 -0.015137757 0.108132765
000090 bf 55 6e 3d c0 f1 93 bd 57 84 94 bd 9a 1c 49 bc
       0.058187243 -0.072238445 -0.07251804 -0.012274886
0000a0 4d e2 df 3d 46 67 2f 3d 4c 9e 76 bd b6 1a 07 3c
       0.10931835 0.0428231 -0.060209557 0.0082461145
0000b0 2f 3d f7 3d 6a ac 5f bd 0e 4e 55 3d 7a 1d be bc
       0.12072217 -0.054607786 0.052076392 -0.023207415
0000c0 b6 e3 a7 bc 70 19 22 bc 89 98 f2 3c 00 0c 84 bd
       -0.020494323 -0.00989376 0.02961375 -0.06447601
0000d0 1c 24 b4 3d 29 a7 65 3d 25 43 80 3d 40 c5 85 3d
       0.0879595 0.05606762 0.06262807 0.06531763
0000e0 34 e0 85 3d 6d 3a 25 3c 13 65 95 bd 2d a4 f2 3b
       0.06536904 0.010084731 -0.07294669 0.007404825
0000f0 ef dc e4 3d 17 fb a7 3d 88 ea cf bc 54 07 17 3d
       0.11174952 0.082021885 -0.025380388 0.036872223
000100 57 11 f5 3b 6e 2a 0b bd 69 ab 8c 3d f5 d8 39 bd
       0.0074788737 -0.03397601 0.068686314 -0.045372922
000110 29 a0 59 3d 3a de a9 3c 51 07 a1 3c 2a c2 04 3d
       0.053131256 0.020735849 0.019656809 0.03241173
000120 bb af 36 3c 04 d9 7c bd 72 f9 8f 3d 65 da 83 bc
       0.011150296 -0.0617304 0.0703 -0.01609535
000130 b7 51 6c 3c 84 4b 49 bb 13 8f c0 3d 4e 4f 6b 3d
       0.014423779 -0.0030715177 0.09402289 0.057448678
000140 7e b1 99 3d af 69 bb 3d 69 70 a2 bd 27 ae 17 3d
       0.07504557 0.09151017 -0.07931597 0.03703132
000150 22 7a f2 bc b8 60 6a bd 9e 40 60 3d da 51 1d bd
       -0.029599253 -0.057221144 0.054749124 -0.038408138
000160 5d 4f 9a 3c 14 57 f4 3c 3a 93 15 bd 55 cd 9b 3d
       0.018836671 0.029826678 -0.03651736 0.07607523
000170 14 f7 62 3d d3 1b 10 3c 4d 90 eb 3c c7 1a 4e 3d
       0.055411413 0.008795696 0.028755331 0.050318506
000180 e7 64 ed bc 3e 4d 7c bd f4 21 48 3d 0f e5 37 3d
       -0.028978778 -0.0615971 0.048860505 0.04489618
000190 6e 09 be 3c e3 78 c2 3c 5f 23 30 bd 88 5e d6 bc
       0.023197856 0.023739284 -0.043002483 -0.026168123
0001a0 ca bc 23 bd 3c 09 96 3d 56 6a 04 3d 20 95 a7 3d
       -0.039974965 0.0732598 0.032327972 0.0818274
0001b0 5b 60 e4 bc a5 d5 14 bd 9d 75 d2 3d 8c 27 9e 3d
       -0.027877977 -0.03633656 0.10276339 0.07722387
0001c0 2d 55 30 3d 5e 89 aa bd 02 58 02 3e 2e 88 ee bc
       0.04304998 -0.08326982 0.12728885 -0.02911767
0001d0 2e a4 94 3d 31 77 05 bd 1d c2 15 3d 69 68 b1 bd
       0.07257877 -0.032584373 0.036562074 -0.08662493
0001e0 37 76 88 bd d0 84 1b 3c ae 96 a6 3c 4d 74 dc 3d
       -0.06663173 0.009492114 0.020335522 0.1076437
0001f0 1f 25 2b bd f2 38 4c 3d 9a dd 42 3d ff a7 1a 3b
       -0.04178345 0.049858995 0.047574617 0.0023598669

layer3.weight f4 [15, 128]
000000 29 46 83 bd db 79 c5 bd 25 ee 0d 3b a4 11 cc ba
       -0.06409866 -0.09642383 0.0021656838 -0.0015569222
000010 97 3f a2 bd 45 8d 3a 3d 8b 13 85 bd 96 bc 79 bb
       -0.07922285 0.04554488 -0.06497868 -0.003810679
000020 c2 ba 8c bd c6 97 8c bc 04 12 bb 3d 9e 40 85 bd
       -0.06871559 -0.017162215 0.091342956 -0.065064654
000030 cb 75 bb bc 01 ad 47 bd ae b1 a6 3c d8 21 99 bd
       -0.022883317 -0.048748974 0.020348396 -0.07477158
000040 86 b8 e4 3c bc c1 8e 3d 7c 9b 8f bd e9 2f 65 3d
       0.027920019 0.06970546 -0.07012078 0.055953894
000050 f8 d1 c3 3d 59 aa a4 bd ff 40 92 bd 86 23 9a bd
       0.09561533 -0.08040304 -0.07141303 -0.07526307
000060 af dc 99 bd f5 80 b4 3d 1c 53 c2 3c e6 fb d0 3a
       -0.07512795 0.08813659 0.02372127 0.0015944212
000070 b9 fd e4 3c 70 03 1e 3c af 97 08 3d 6a 89 32 3d
       0.027953016 0.009644374 0.03334778 0.04358808
000080 da 5d 45 3d 30 14 96 3d 01 2a 32 bd 3c f0 94 3c
       0.048185207 0.07328069 -0.04349709 0.018180959
000090 45 a4 ab bc 7c e2 93 3d 11 76 68 3b fa 3a a8 bd
       -0.020952353 0.07220933 0.0035470764 -0.08214374
0000a0 6e a8 d8 bb 48 17 b5 3d 26 fa 7a 3d a3 8c 59 3c
       -0.0066118753 0.08842331 0.061273716 0.013278159
0000b0 62 33 19 bb 73 22 33 bd 24 66 88 3d ff be 9c 3d
       -0.0023376574 -0.043734025 0.06660107 0.07653617
0000c0 89 7d 29 bd cc 3e 02 bd 58 ce 46 bb 9b 24 99 3c
       -0.041379485 -0.03179817 -0.0030335393 0.018694213
0000d0 bb 55 ac 3d 79 e0 57 bd 30 d6 ce 3c bb fe 00 3d
       0.08414789 -0.05270431 0.025248617 0.03149293
0000e0 6f 15 05 bc ad 7d d7 3c f3 8e 1b 3d 17 a6 71 3c
       -0.008122786 0.026305044 0.037978124 0.014749072
0000f0 4b 0b ba 3d eb c6 93 3d 63 c2 62 3b 96 58 66 3d
       0.09084185 0.07215675 0.0034600727 0.056236826
000100 6e 12 97 bc 59 55 6a 3d cf f3 54 3d be 7b 62 bd
       -0.018441405 0.0572103 0.051990326 -0.05529379
000110 a9 b1 b0 bd c5 33 9a bd 7d c3 71 3d fa 79 82 bd
       -0.08627636 -0.075294055 0.059024323 -0.063709214
000120 05 49 aa bc d1 00 21 3d 19 cd 39 3c da 5b 12 bd
       -0.020786772 0.03930742 0.011340403 -0.035732128
000130 cd 39 74 3d 61 e7 42 3d 25 77 26 bc 7d 3e b7 3d
       0.059625436 0.04758394 -0.010160242 0.089474656
000140 ea ae 4c 3d d8 1e ab 3d 01 df e2 3c f8 8c 8f bd
       0.0499715 0.08355492 0.027694227 -0.070093095
000150 fb 28 b1 bc 62 f7 91 3d 7a 50 a5 bd 09 44 ad 3c
       -0.021625986 0.07127263 -0.0807199 0.021150606
000160 7d 77 81 3d 44 c7 96 3d 51 a4 72 bd 3e f0 b2 3d
       0.06321619 0.07362226 -0.059238736 0.08737229
000170 db 70 a5 3d 70 1d fe 3c 1c 8c 80 bd 7a 18 23 3c
       0.08078166 0.031019896 -0.06276724 0.009954566
000180 84 a8 a6 3c 3f e3 70 3d cd 09 ad bb 21 40 75 bc
       0.020344026 0.05881047 -0.0052807094 -0.014968903
000190 7d 70 1b bd 2c 70 4b bc 06 3d 9d 3d a6 fc 2e 3d
       -0.037949074 -0.012416881 0.07677655 0.042721413
0001a0 86 e3 89 bd 23 7d d6 bc 98 a5 5b bb 35 49 ab 3d
       -0.0673285 -0.026182717 -0.003351545 0.083635725
0001b0 20 05 6e bd ee 39 88 bc e6 94 5b 3d d8 3e 69 3c
       -0.058110356 -0.016629186 0.053608797 0.0142361745
0001c0 85 bc b3 3d 37 13 31 3d 07 46 9c bc d9 be d1 bc
       0.087761916 0.043231215 -0.01907636 -0.025603699
0001d0 11 ef ba 3d 6b 05 11 bd d0 73 80 bc e9 a2 15 bd
       0.091276295 -0.035405558 -0.015680224 -0.036532316
0001e0 7c 82 12 bc f4 ab 42 3c b3 f6 8a bd 51 0a e2 bc
       -0.008942243 0.011881817 -0.067853354 -0.02759281
0001f0 d0 f4 30 3d 59 f3 c1 bd 0b 90 b1 3d 7e b3 4c bd
       0.04320222 -0.09470243 0.08670052 -0.049975865
000200 a8 e4 0d be 62 9e 84 be 35 cf 96 3d 79 50 63 3d
       -0.13856757 -0.25902086 0.0736374 0.055496667
000210 23 fb dc bd 0c e1 95 bb c0 e3 5f 3d 2f 11 d9 bd
       -0.10790088 -0.004573947 0.05466056 -0.10598981
000220 77 56 0b 3b 44 13 95 bd c6 b6 55 3d 3e 82 5c bc
       0.0021261254 -0.07279065 0.05217626 -0.0134587865
000230 5f 82 8f 3d 6e 2a 1d bb 2e ae 0a 3b 82 56 62 bb
       0.07007288 -0.002398159 0.0021160948 -0.0034536426
000240 bc 7a 81 3c df 4d 94 bd 94 b6 56 ba a2 d0 37 3d
       0.015805595 -0.07241415 -0.00081906584 0.044876702
000250 62 0b 2b bd ec 72 f6 bd 8b 00 52 bd ab d9 64 3d
       -0.041758902 -0.12033638 -0.05127005 0.055871647
000260 2a 87 7b bd ff 90 77 bc 69 d9 2f be 3e 1f 1f bc
       -0.0614082 -0.015110253 -0.17172779 -0.009712039
000270 78 f7 06 bd b3 08 8d 3d 4d 86 d0 bd 3c 1e 52 3c
       -0.03295085 0.06886425 -0.10181866 0.012824591
000280 12 59 13 bd 3c 0a 0e be e3 7a 38 bd 79 b6 15 bc
       -0.035973616 -0.13871092 -0.04503907 -0.009137743
000290 16 5c 07 3d 20 53 e8 bc 8a 90 da bb ff 24 65 bd
       0.033046804 -0.02835995 -0.0066700624 -0.055943485
0002a0 9f 8f 0a be 90 7a 2b be 20 8e 26 bd 5b a6 44 be
       -0.1353135 -0.16745973 -0.040662885 -0.19204085
0002b0 82 e0 b6 bd 9e aa 52 3d da 8b 8a be 2a 69 09 bd
       -0.0892954 0.051432244 -0.27059823 -0.033547558
0002c0 ed 57 20 be 7b 89 2f 3d cb 93 3e bc 70 36 cb 3d
       -0.15658541 0.04285572 -0.011631916 0.099224925
0002d0 33 5a d5 bc 32 7c 8a bd 17 02 3c be 7a d7 9a 3d
       -0.026043987 -0.067619696 -0.18360172 0.0756063
0002e0 5e 18 83 bb 76 2f 39 be bc 09 05 3d 31 1f a4 3d
       -0.0040007075 -0.18084511 0.032479987 0.08013762
0002f0 02 1b b7 bd 72 ca 1c be e0 17 5c 3c 1c 60 aa bd
       -0.08940698 -0.15311602 0.013433427 -0.08319113
000300 99 15 c0 bd 8e 2e 3f 3d 26 5f a2 3c fc 2e 53 3d
       -0.093791194 0.046675257 0.019820761 0.05155848
000310 92 e4 3f be 01 64 e3 bd 23 32 9c 3d a0 13 30 bd
       -0.18739536 -0.111030586 0.0762675 -0.042987466
000320 66 2a 23 be 37 34 6f bd 30 48 0a be ee 27 57 bd
       -0.15934142 -0.058399405 -0.135041 -0.052528314
000330 01 41 8e be 24 28 44 be f4 e9 1e be b0 d9 3b be
       -0.2778397 -0.19155937 -0.15518934 -0.1834476
000340 d5 da 10 be 95 e2 97 bd d8 d4 87 3d c9 52 1d b9
       -0.14145978 -0.07416264 0.066323936 -0.00015003527
000350 9c 9e 27 bd 1d 4e 85 3d a1 08 72 3d 25 e6 7b 3b
       -0.040922746 0.065090396 0.05909026 0.0038436737
000360 02 02 29 be 7a 56 00 be 8a 80 2d 3d 81 e6 a1 bd
       -0.16504672 -0.12532988 0.042358913 -0.07905293
000370 a5 e0 d2 bd be 4f 2d be ec 8c 88 bc 91 92 07 be
       -0.10296754 -0.1692495 -0.01666876 -0.13239504
000380 c6 bb 1d be b3 0d 97 3d 50 2f cd bd 45 a5 76 bd
       -0.15403661 0.0737566 -0.1001879 -0.060216207
000390 cc 88 90 bb 85 d7 a1 bd 24 b2 d8 bb 67 13 ba 3c
       -0.0044108387 -0.07902435 -0.006613033 0.02271433
0003a0 1d a6 8b bd 00 1a 06 bb aa d6 0c be fd 81 85 bd
       -0.06818793 -0.0020462275 -0.13753763 -0.06518934
0003b0 02 d2 91 bd c4 1d 27 bd 74 55 fd bd bc c5 9c bd
       -0.07120134 -0.04079987 -0.123698145 -0.07654902
0003c0 23 17 48 bd 2a a6 07 3d 3b ae 32 bd e9 d8 d9 bc
       -0.04885019 0.03311745 -0.04362319 -0.026592689
0003d0 35 78 88 3d ac 18 18 ba ea b7 ce bd c4 79 1d 3d
       0.06663553 -0.0005802016 -0.100936726 0.038446203
0003e0 a5 b5 36 3d 58 48 61 be 2e 0b 87 3c d9 fd 23 be
       0.044606823 -0.22000253 0.016484823 -0.16014804
0003f0 b6 f7 c8 3c 4d fc 1f be 8d 42 04 3d cc 03 0e bd
       0.02453218 -0.15623589 0.03229003 -0.03467159

layer3.bias f4 [15]
000000 c5 fe 08 3d 0f 85 2e bd 3d 5d 76 bc 41 3c 28 3c
       0.033446092 -0.042607363 -0.015036878 0.010268272
000010 34 2a da bd e1 46 0d bd a8 bd 1c 3d 7f 87 81 bd
       -0.10652581 -0.034491424 0.038266808 -0.06324672
000020 f1 e6 d7 bd 7f 86 e0 bb 71 b5 37 bd c4 96 07 be
       -0.105420955 -0.0068519707 -0.04485077 -0.13241106
000030 c8 b9 01 be 98 0d 82 3d 9f 13 b8 3c
       -0.12668526 0.06350249 0.022470294
