code/race_net.pt (torch, 90271 bytes, 6 tensors)

layer1.weight f4 [128, 27]
00000000: 3d22 7b3d e982 37be cfdf a63c ba07 343e
00000010: a4f6 abbd c169 febd d3bc 603c abc5 1d3e
00000020: 4956 41bd 0377 ea3d 2fad 303e 454d b73d
00000030: 8a11 313e a641 f73d a3bc ad3d eb44 d93d
00000040: 65c7 9cbd 76aa cf3d 5159 083e 8a28 f7bd
00000050: 0d8d 183e 6b6b e6bd 81e3 a3bd ee3c 29be
00000060: a785 453e a688 603d 88f0 0c3d fbae 493c
00000070: 6e1c c93d 2ccc 12be 3bdd 063d af98 3c3e
00000080: 85a3 24bd 62ad 9c3c 0d76 9bbd 931f e5bd
00000090: 86ad 933d 71ad 463d 6ef6 30be 68bc 00be
000000a0: a5b3 45be 41db 20be a5b9 1e3e dece 10be
000000b0: 95fa dbbc 128e 56bd d7c5 f23d 60e5 61bc
000000c0: a148 1b3e d66f 01be 2288 423e 1ded b13d
000000d0: 0e80 40bd e863 fe3c 9442 32be d63b b53d
000000e0: 61d3 60bd 6dcf 753b 2b41 0cbe d49b a03d
000000f0: a428 0abe 96dd 35bd f3d0 2a3d 9cee b43d
00000100: ba09 9d3d c320 ed3d 0d1b 3dbe 1343 8ebd
00000110: 279c 78bc a5bf b23d 4308 033d b049 29bd
00000120: f916 06be 8ca4 c3bd d043 ef3d bdd7 383e
00000130: 3ffa 473e ad84 333e 01c0 4abd 767a 3f3c
00000140: 058c 8ebc 6f9d 303e 9acf 20be 63c1 0fbd
00000150: 201b 1cbe 6780 3a3e 3ea8 0b3e 00f0 2ebd
00000160: 7835 2b3e ab8a 0ebe 6971 0f3e 37a3 02be
00000170: 5836 0ebe 5b1a ffbd 6f2f e53c a654 1dbe
00000180: c399 633d ba7a e63d cd68 2fbe 4ac3 00be
00000190: 8c5b f2bc 2de7 49be fd22 71bc 4656 a4bc
000001a0: 62a6 12be 4dd7 3b3e 790d 0ebe 9679 773d
000001b0: 9758 953c 329f 39be f08b 98bd fb1f 74bd
000001c0: cc53 e03d a291 39be 6143 c53d e955 f13d
000001d0: d421 3cbe dca6 eebd b1bc e5bd 17d3 823d
000001e0: 7b3b 98bd 5590 df3d ecd9 1b3e dafc 9c3c
000001f0: 7b60 2fbe e403 413e 49c2 c1bd 8f87 3fbe
00000200: ff4e da3d 9bcd 253e 77c4 4dbd 8342 043e
00000210: 63ba f2bd 34f8 71bc a90b 13bd 6098 333e
00000220: d6c5 863d 882a 0d3e 0950 c0bc 43e4 233c
00000230: 4c0c 0bbe 6a2e 37be 4119 363e caa9 1dbe
00000240: cdd5 c13d 33c9 34be 504d 823d f87c d13d
00000250: 57e7 73bd d2f1 2cbe 1695 263e da92 3cbe
00000260: 05e0 8ebd 573e 0a3e 4044 29be 3e52 da3d
00000270: 69f0 bc3d 8cd5 d3bd 79fe 6ebd c170 e03b
00000280: ad46 fa3d d7e6 3abe 1ba3 0b3d a096 06be
00000290: 6b17 583b 8801 493d 669d 243c 897e d9bd
000002a0: 4088 183e 9a0d ff3d 0960 0fbe d2fb bc3d
000002b0: 236a 7cbb 798d 3d3c c25a f8bd 443b a83d
000002c0: 2acf 0d3e 56f2 38be 39df 423e a334 27be
000002d0: 2710 04be 837e 2b3e 982e 58bd 6a72 873c
000002e0: ef4e 0e3e e6b3 a8bd cf0f 35be 6d06 4f3d
000002f0: b2a4 0ebd 40fa febd fa7b e03d b33b 0cbe
00000300: 9365 5d3d ccce 8a3d 3ff5 183d 873f eb3d
00000310: 25a3 34be 4678 43be 940b 9abc f03e 313e
00000320: 7870 60bd c7bc 043e a029 3b3e 8eb2 1ebe
00000330: 1785 963c 202f 323d 4191 2ebd a176 97bd
00000340: 6859 433d b9ec 98bd f614 e6bd 1d43 cdbd
00000350: 2bf1 31be bd4c 1fbc 95d0 f13d d4af 16be
00000360: 35a1 e03b 401c 1ebe 9571 013d 10f1 c8bd
00000370: 6399 96bd 31fd fc3d dc93 f5bd 883b a0bd
00000380: 157f 15be eae6 9e3d 6b9e b73d b8b2 753d
00000390: fb7d 9cbd 9903 b8bd 46f7 f33c 0aba 1fbe
000003a0: d194 7b3c d2b9 70bb f0fe 8fbd 192d 013e
000003b0: 8c6e b93c c40a 94bd c04b 073e 1d81 2bbe
000003c0: 0692 283d 6c6a e1bc 9978 083e 5db4 5bbd
000003d0: cf18 1cbe 2298 ee3d fc0a 143e c399 a93d
000003e0: de71 21be 40e6 a93d 8f4e d93d d13e a8bd
000003f0: fd13 b3bd 4c8c 0d3e 1ec5 05be 1a6e 42be
0.06131195 -0.17921032 0.020370392 0.17581072 -0.08396652 -0.12422515 0.013716894 0.15407436
-0.04720143 0.11448481 0.17253564 0.08950285 0.17291847 0.12073068 0.08483245 0.10608848
-0.07655219 0.10139935 0.13315322 -0.12068279 0.14897557 -0.11250957 -0.08002377 -0.16527149
0.19289266 0.054817818 0.034409076 0.012309785 0.09819876 -0.14335698 0.032925826 0.18417619
-0.040195007 0.019125644 -0.07590876 -0.11187663 0.07210831 0.04850525 -0.17281505 -0.12571871
-0.1930681 -0.15708639 0.15500505 -0.14141414 -0.026852885 -0.052381583 0.11854141 -0.013787597
0.15164424 -0.12640318 0.18997243 0.08687804 -0.046997122 0.031053498 -0.1740821 0.088493034
-0.054889087 0.0037507669 -0.13696735 0.07842222 -0.13492066 -0.044400774 0.041703176 0.088345736
0.07667871 0.115785144 -0.1846735 -0.06946387 -0.015173948 0.087279595 0.0319903 -0.04133004
-0.13094701 -0.09552869 0.11682856 0.18051048 0.19529055 0.1753108 -0.049499515 0.011686912
-0.01740075 0.17247556 -0.15704194 -0.035096537 -0.15244722 0.18213044 0.13638398 -0.04270935
0.16719615 -0.13920085 0.14008106 -0.12757574 -0.13887918 -0.12456199 0.02797672 -0.15364322
0.05556656 0.11253877 -0.17129822 -0.12574497 -0.029584669 -0.19717093 -0.0147178145 -0.02006067
-0.14321283 0.1834385 -0.13872327 0.060418688 0.01823072 -0.18127134 -0.07448566 -0.05960081
0.10953483 -0.18121961 0.09631992 0.11783964 -0.1837228 -0.1165292 -0.11217631 0.063879184
-0.0743322 0.10916201 0.1521985 0.019163538 -0.17126648 0.1884914 -0.09460885 -0.18704055
0.106595986 0.16191714 -0.05023619 0.12915997 -0.11851957 -0.014768649 -0.035899792 0.17538595
0.06580703 0.13785756 -0.023475664 0.010003152 -0.1357891 -0.178888 0.17783071 -0.153968
0.094646074 -0.17654876 0.063624024 0.10228914 -0.059546795 -0.16889122 0.1626781 -0.18415394
-0.06976322 0.13500343 -0.16529942 0.10660218 0.09225542 -0.10343465 -0.058348153 0.006849379
0.122205116 -0.18252121 0.034091096 -0.13143396 0.0032972943 0.049073726 0.010047292 -0.10619838
0.14895725 0.12453766 -0.14001478 0.092277184 -0.003851541 0.011569374 -0.12126686 0.08214429
0.13848558 -0.18061194 0.19030465 -0.16328673 -0.12896787 0.16747479 -0.05277881 0.016534049
0.13897298 -0.08237438 -0.17681812 0.050543237 -0.034825034 -0.12450075 0.10961147 -0.13694648
0.054051947 0.067777246 0.03734326 0.11486726 -0.1764036 -0.1908885 -0.018804349 0.17309165
-0.05479476 0.12962638 0.18277597 -0.154978 0.018374009 0.043501973 -0.042618994 -0.073956735
0.047692686 -0.07467026 -0.11234467 -0.100225665 -0.17377155 -0.009722886 0.11807362 -0.1471551
0.006855155 -0.15440464 0.03160246 -0.09811604 -0.07353475 0.1235298 -0.119910926 -0.07823855
-0.14599259 0.07758887 0.08965763 0.059984893 -0.07641216 -0.08985061 0.029780995 -0.15598312
0.015355305 -0.0036731851 -0.07031047 0.1261486 0.02263572 -0.07228616 0.1321249 -0.16748472
0.041154884 -0.027516566 0.13327254 -0.053638805 -0.15243839 0.11650111 0.14457315 0.08281281
-0.15766093 0.0829587 0.10610687 -0.08215106 -0.08744047 0.1382305 -0.13063475 -0.18987313

layer1.bias f4 [128]
00000000: 0730 ca3d b260 3bbe 723b 233e 4c30 9cbc
00000010: 733d a63c fb85 41be f9f8 c0bc 18dd 8fbc
00000020: a7d0 07be 6ffb a4bd ef86 75bb 3c8f b93d
00000030: 1536 16be 0feb 6f3d c59c 35be baa1 ce3d
00000040: 70eb f2bd 83ca 3cbe efac 0e3d 4eb1 10be
00000050: ea8f 9bbd d0a2 b93d e963 23be a5d0 af3d
00000060: ca59 3b3d e467 8ebd 5d40 fe3c db1e 0bbe
00000070: 55e3 2abd 1f33 87bc e992 31be 9fed 103e
00000080: 2c3a 5bbd 12f8 1c3e e18a 913d 6e29 223e
00000090: 8ddf 01be a51f 04bd b38b fcbd d652 fb3d
000000a0: e655 36bd 69ba 2e3e cc38 1ebe 5b28 71bd
000000b0: 6e43 85bd f15e c6bd 27bc 53bd 2a29 253d
000000c0: 0d75 773d 62ec 63bb 944f 303e 32d4 1dbe
000000d0: 2757 fa3d 6cc9 3c3e 2296 2abe 7314 443d
000000e0: a069 803d a49c b43c d72d a73b ec65 e2bd
000000f0: 0be4 6f3d 6315 06be 6a90 f4bb cba1 2fbe
00000100: 118c d23d 1052 d63d da4d 243d 385a f8bd
00000110: 6805 173e 4e64 e53d f7f7 99bd 96eb b93c
00000120: 292e abbd 142a 633d 57e3 edbb 6e7d 37be
00000130: 3448 453d a8d7 383e 21f2 153e 17f9 133c
00000140: 35e4 13bc cacc 93bd d777 36be b80e dabd
00000150: 876c b8bc 7870 3ebe 3424 1c3e 2132 44be
00000160: f179 413d c7b6 183d 8bfd ebbb beca e9bd
00000170: 4f8b 0f3e daba 94bd 9832 d03d 041b 16be
00000180: 075f 3abe a8b5 123e d49a 063e eeec 59bc
00000190: 4684 233d 4397 3e3e 9fe3 0a3e 159d 933d
000001a0: 9bff c43d 0c50 213e ad84 8abc 6e33 b83d
000001b0: 0e3a aa3c 8d62 43be 2831 b13d 2c5e f43d
000001c0: d246 e436 e406 4d3d aeb3 9cbc c4fb 42be
000001d0: 284a 1c3e 662d 41be 2bd7 c63d d19d 183e
000001e0: aaf1 243e dfef 0b3e e64e 963d c9f3 fb3d
000001f0: e37f d3bd b4a6 36bd 46a1 55bb 8f51 b93c
0.09872442 -0.18298605 0.15940645 -0.019065998 0.020292973 -0.18898766 -0.02355622 -0.01756148
-0.13263188 -0.0805577 -0.003746446 0.09060523 -0.14669068 0.05857378 -0.17735584 0.10089441
-0.118613124 -0.18436627 0.03483289 -0.14130136 -0.07595809 0.09064257 -0.15956081 0.08584718
0.045739926 -0.06953409 0.03103655 -0.13585989 -0.041720707 -0.016503869 -0.17341198 0.14153145
-0.053522274 0.15329006 0.07106567 0.15836117 -0.12682934 -0.03225674 -0.12331333 0.12271659
-0.044515513 0.17063297 -0.15451354 -0.058876377 -0.06507002 -0.096860774 -0.051693108 0.04032246
0.060414363 -0.0034778346 0.17217857 -0.15412977 0.12223654 0.18436211 -0.16658834 0.047871064
0.06270146 0.022047348 0.0051019 -0.11054596 0.058567088 -0.13094096 -0.0074635046 -0.17151563
0.10280622 0.10464871 0.040113308 -0.12126583 0.14748156 0.11200772 -0.07517999 0.022695344
-0.08358414 0.05546005 -0.007259767 -0.17918941 0.04816456 0.18051016 0.14643146 0.009031556
-0.009026577 -0.07216795 -0.17819153 -0.10647339 -0.022512687 -0.18597591 0.15248185 -0.19159748
0.047235433 0.037283685 -0.0072018555 -0.11415623 0.14017986 -0.072622016 0.101659 -0.14658743
-0.18200313 0.14327109 0.13145 -0.013301117 0.039921068 0.1861239 0.13563393 0.072076954
0.096190654 0.15753192 -0.016908968 0.089941844 0.020779636 -0.19080563 0.08651954 0.11932024
6.803174e-06 0.0500554 -0.019128647 -0.19041353 0.15262663 -0.18864974 0.09709009 0.14903952
0.16107813 0.13665722 0.073392674 0.12302358 -0.10327127 -0.044592574 -0.0032597347 0.022621898

layer2.weight f4 [128, 128]
00000000: 2b6b b2bd 97d6 ab3c ee62 433c 47a2 8b3d
00000010: 179f 183d 9b51 0bbd f35b d3bc 799b 85bd
00000020: 7424 443c 8424 50bd 84be 933d df1c a13d
00000030: 5a68 b03d e807 a73d 6073 8ebd 20ad 84bd
00000040: c499 5d3b 7b11 383d 7092 723d 7804 413d
00000050: 6fd7 41bd 8d3f 83bc a8bb 96bd fb99 683d
00000060: d65a 593d 0b2e cf3c ff6f 1f3d 2394 603b
00000070: 4ff8 5abd 5a9a d13c e7e0 a5bc eaca a9bd
00000080: 350b 77bd dfab a13d 770d 92bd b9d8 1dbd
00000090: 1571 c2bb 2c1d 863d 21e6 393d 8490 87bb
000000a0: 041b d9bc 2bd7 82bd 4ee1 57bd d21f 12bd
000000b0: 03a4 1c3d 967f ea3b 7ec5 a03d adec c5bc
000000c0: 6c9a 683d 2d25 93bd 5d08 abbd 52ae 8fbd
000000d0: be50 aa3d 961e cd3c 5241 9f3d cffb ee3c
000000e0: d721 67bb 0c3e 703d 504e ae3d 8438 85bc
000000f0: 0bdf b33d 8466 2d3d f48c 11bd 437d 233d
00000100: ac11 a33d ec1b 9abc 2c48 13bd 95c3 8dbd
00000110: 3ec8 0abd 55ac 9dbc a708 3d3d 4977 74bd
00000120: 13ff 783d f02e 59bb a47a 28bd 75bd 1bbc
00000130: a3fc b23d fb14 073d 69b9 313d 9069 9e3d
00000140: 0439 a73d e8ba 9abc d3fc fa3c cfd1 743d
00000150: fc13 b33d ff75 2fbc 9041 19bd 2fd6 a23d
00000160: 69d1 99bd 0170 aabd cf3d 5dbd ecea c7bc
00000170: bfa6 813d 2f79 85bd 870b 27bc 13c0 8dbd
00000180: 063f a93c 80bd 3abd f812 81bb 62e0 053d
00000190: 8f80 993d 4d11 5ebd edf1 7e3d 090f a03d
000001a0: e2bd 8bbc 8497 1f3c be5f 90bd a346 bf3b
000001b0: 777b 82bd 5470 80bd 2770 a5bd 11ab 61bd
000001c0: a8ef 60bd be5d 3b3d f508 a13d 36d3 54bc
000001d0: 096d b73c 2a4f abbd 830f 173d 4521 8fbd
000001e0: a4e9 debb 1d76 0a3d f51b 22bd 0da6 adbd
000001f0: 2945 8e3b 4447 3e3d 895a 933c 8e8e 6abd
00000200: 0e7f a83d 1083 b0bd eefe 173d 1027 9ebd
00000210: 6758 ae3c f9ec 6a3d 07a5 b2bd 7fc9 913d
00000220: e856 c83c 5800 5abd d780 8ebc 90ab a9bd
00000230: 9262 ac3d 7f87 4cbd 248e 11bd a052 3abd
00000240: b386 383c f18a 763d 4228 a8bd 21d7 e6bb
00000250: e236 2dbd afca 9cbd 040b 7f3d e3f1 65bd
00000260: c1f6 85bd 6d37 94bd 40c7 2c3d a325 b33c
00000270: 7ac8 8ebd 8431 643c a3a7 013d 42f8 4f3d
00000280: 4cfd 3dbd 0ac1 d53c d5c2 b13d 45b4 923d
00000290: ffb7 123d 8e8b 0a3c ad95 293c b635 1c3d
000002a0: f50f c23b 23bc 393d d8f7 bb3c 7865 59bc
000002b0: 32c7 e53c 822d 28bd c791 9d3d 04e7 253d
000002c0: 5866 5e3d f5eb 373d b988 303d 7975 4b3d
000002d0: 0f66 1f3d a169 973c 042b 0e3d 229b 10bd
000002e0: 8c0a 87bd 0799 8ebc 8196 6c3d 3ef2 cbbc
000002f0: 058d b13d ce13 423d bb17 f43c 99bb 963d
00000300: 3d7e 3f3d 3ae7 a63d 54c2 80bd 9c30 d73a
00000310: a811 efbc 3edc 913c acb1 f5bc 439f 383d
00000320: ae27 9abd de97 31bd 22bb b0bc 3b77 ff3c
00000330: 8e6c 7dbc db8c 883d 9c87 aa3b b813 92bd
00000340: f1df 0cbd acbe 053b 161f bfbb 70fa 1d3c
00000350: b301 61bd 1c01 94bd b554 8f3d 4494 013d
00000360: b729 043d 2d1c bcbb 1f6b 7a3d af74 b03d
00000370: a34a 06bd fd2e 783d 9c3d e2bc 6386 1cbd
00000380: 3144 9c3d 2e97 a23d 9dce 1dbc 923f 56bd
00000390: 029a 20bd 14a1 9abd 825d 85bd 2281 9a3d
000003a0: befd 8e3d 13df 9b3d 8f1a 64bd 7673 753d
000003b0: 25ec 673d 0bd5 37bd 32d3 1dbd 081d b23d
000003c0: 6db1 403d 6faf 613d 2442 853d 995a 4b3d
000003d0: 1a9f a0bc c681 b43c 41fb 6a3d 3de0 6d3d
000003e0: 95f4 90bd efcf 7bbc ee3a 5b3c 534e 1e3b
000003f0: 320d f4bc 728e b0bd e30a 72bd 0b59 96bd
-0.08711847 0.020976348 0.011925442 0.06818061 0.037261095 -0.034013372 -0.02580068 -0.06523795
0.011971582 -0.050816074 0.07214072 0.07866835 0.086136535 0.08155805 -0.069556 -0.064783335
0.0033813575 0.044938546 0.059221685 0.047123402 -0.047324594 -0.016021514 -0.07360011 0.056787472
0.053065144 0.02529051 0.038925167 0.0034267984 -0.05345946 0.025586296 -0.020248843 -0.08290656
-0.060313422 0.0789411 -0.071314745 -0.03853676 -0.0059338906 0.06548533 0.045385484 -0.0041371007
-0.02650214 -0.06388696 -0.0527051 -0.035674877 0.03824235 0.0071563227 0.07850169 -0.024160707
0.056787893 -0.07184825 -0.083512045 -0.07015671 0.083161816 0.025038999 0.07776131 0.029172806
-0.0035267973 0.058652923 0.08511031 -0.0162623 0.087827764 0.042334095 -0.035534814 0.03991438
0.07962355 -0.018812142 -0.0359575 -0.0692207 -0.033882372 -0.019247213 0.04615083 -0.05968407
0.060790133 -0.003313955 -0.041132584 -0.009505619 0.08739593 0.032978993 0.04338971 0.07734978
0.08165172 -0.018887952 0.030638134 0.0597704 0.08744046 -0.010709285 -0.03741604 0.079510085
-0.07510645 -0.08322144 -0.054014023 -0.024404012 0.063306324 -0.065172546 -0.010195619 -0.06921401
0.020659935 -0.045590878 -0.003939029 0.03268469 0.07495224 -0.054215718 0.062242437 0.07815368
-0.017058317 0.009740714 -0.070495114 0.005837278 -0.06371205 -0.06271425 -0.08078032 -0.055094782
-0.054916054 0.045743696 0.078630365 -0.01298981 0.02239086 -0.08364709 0.036880028 -0.069887675
-0.0068027545 0.033804048 -0.039577443 -0.08478937 0.0043417406 0.046454683 0.017987506 -0.057264857
0.08227359 -0.08618748 0.037108354 -0.07722294 0.021282388 0.0573549 -0.08722883 0.071185105
0.024455503 -0.053222984 -0.01739542 -0.08284676 0.08417238 -0.049933907 -0.035535946 -0.045488954
0.011262584 0.0601911 -0.082108036 -0.0070446883 -0.04228867 -0.07655846 0.062266365 -0.056138884
-0.06541205 -0.07237134 0.042182207 0.021868533 -0.069718316 0.013927821 0.03165401 0.050773866
-0.04638414 0.026093025 0.086797394 0.0716329 0.035820004 0.008456124 0.010350627 0.03813716
0.0059223124 0.045345437 0.02294533 -0.013268821 0.028049085 -0.041059025 0.076938204 0.040503517
0.05429682 0.04490276 0.04309914 0.049672578 0.03891569 0.018482985 0.03470899 -0.035304196
-0.065938085 -0.017406953 0.05776072 -0.024895784 0.086694755 0.04738217 0.029796472 0.0736
0.04675125 0.08149572 -0.06287065 0.0016417685 -0.029183224 0.017805215 -0.029991947 0.04507376
-0.075270995 -0.043357722 -0.021573607 0.031184783 -0.015467776 0.06667491 0.005204154 -0.07132667
-0.034393255 0.0020407839 -0.005832563 0.0096422285 -0.05493326 -0.07226774 0.069985785 0.031635538
0.032266345 -0.0057406635 0.061137315 0.08616006 -0.032786023 0.060591687 -0.027617268 -0.0382141
0.07630194 0.079389915 -0.00963178 -0.05230672 -0.039209373 -0.075502545 -0.06511976 0.075441614
0.06981991 0.076109074 -0.05568939 0.059924565 0.05662169 -0.044880908 -0.03853149 0.086969435
0.047044206 0.055098947 0.06506756 0.049646948 -0.019607116 0.022034537 0.05736852 0.05807518
-0.070779 -0.015369399 0.013380749 0.0024155572 -0.029791448 -0.08620919 -0.059092414 -0.07341202

layer2.bias f4 [128]
00000000: fd66 bbbb 8704 90bc 0a05 a93d ae35 ad3b
00000010: cb73 4abc 26f0 fdbb 189a a53d 6688 d8bc
00000020: 8f56 afbd d575 6a3c 5e05 8a3d 0420 ac3d
00000030: c443 583c 7795 90bc 59d0 7fbd e9b0 29bd
00000040: 38c5 233c 7a3f 783d ea97 953b 5928 0cbd
00000050: b81e 863d a928 373d 5500 b13d 31a4 093d
00000060: c522 e6bc c716 0d3c ee48 21bc 4c91 06bd
00000070: 2b34 193d 074c 69bc 862f 5fbd 73e2 6c3c
00000080: 57ec 8dbc 8781 5b3c 838e f73b e819 4bbc
00000090: 01be 9d3c 9520 f93c 0d75 a13d 66a8 bd3c
000000a0: cd6d 3fbd 6a26 31bd 87c9 ec3c e4f5 133d
000000b0: 9b26 b1bb bee3 45bc 6aa1 ae3d da20 07bd
000000c0: 6869 85bc 443e 1d3c b018 e0bc e5e3 2abd
000000d0: 43f6 8bbd d7e2 19bd e804 2f3d f873 6d3d
000000e0: 990b 07bd 4c43 b23b b012 f2bc 3014 78bd
000000f0: f403 72bd 84e5 753d 8f86 49bd e116 063d
00000100: 2780 0d3c dfd7 903d 80da ad3d 77e3 18bd
00000110: e8c5 893c b2f2 393c 67d2 9a3d 6ae5 613c
00000120: 6ed9 a13d d968 cf3c bb22 9f3d 2495 613d
00000130: 1627 a8bc 870c 67bc 5b8c 99bd ad36 a2bd
00000140: f582 a3bd f284 1cbd 2470 823c a043 3fbd
00000150: 218d cbbc 4cb0 383d 3cd9 bb3c c529 ae3c
00000160: 8a71 123d f7a9 b03b b7c3 41bd f94b 923d
00000170: a82d 62bd 3b8c b03d 9ee0 a7bc 34f8 45bd
00000180: 8810 163c 568b 733d 1fa3 133c 7789 543d
00000190: d9ec 6c3d 0aa4 c63c 7dac 8f3d c946 a8bd
000001a0: 3b11 103c 327f 993c c9fe 9c3d c3d9 94bb
000001b0: 18fe 703d 3215 263d 6dc9 533d 4f3e dbbc
000001c0: ee1e 053d 35db 57bd e61d ad3c 7687 81bd
000001d0: 5dcc 7bbd d288 313d dc2e 9fbc 4812 603d
000001e0: b710 b23d 4f61 b43c 68a4 113c df1d abbd
000001f0: 6f72 923d 0845 b3bd 2cc7 ccbc 7a29 083d
-0.0057190643 -0.017580284 0.08252914 0.00528594 -0.012356709 -0.007749575 0.08086032 -0.026432227
-0.085614316 0.01431032 0.06739305 0.08404544 0.01319975 -0.017649395 -0.062454555 -0.04142848
0.009995751 0.06060741 0.0045652287 -0.034218166 0.06548828 0.04471651 0.086426415 0.03360385
-0.028092751 0.008611388 -0.009844048 -0.03285341 0.037403267 -0.014239318 -0.05448868 0.014458287
-0.01732461 0.013397581 0.0075548305 -0.012396313 0.01925564 0.030411044 0.07883654 0.023151588
-0.046735574 -0.043249525 0.02890469 0.03612317 -0.0054062135 -0.012078224 0.08526881 -0.032990314
-0.016285613 0.009597365 -0.027355522 -0.041721243 -0.0683408 -0.037569847 0.04272929 0.057971925
-0.032970045 0.0054401513 -0.029549927 -0.060566127 -0.0590858 0.060033336 -0.04920059 0.032736663
0.008636511 0.07072424 0.08488941 -0.037326302 0.016818002 0.011349367 0.07559662 0.013787607
0.079027995 0.02531855 0.07770296 0.055073872 -0.02052645 -0.014102108 -0.07497474 -0.07920585
-0.079839624 -0.038212724 0.015922613 -0.04669535 -0.024847569 0.045090005 0.022930734 0.021260152
0.03575281 0.005391355 -0.04730579 0.07143397 -0.055219322 0.08620497 -0.020492848 -0.048332408
0.009159215 0.059459053 0.009011059 0.05188891 0.057843063 0.024248142 0.070153214 -0.08216626
0.008793171 0.01873741 0.07665784 -0.004542561 0.058836073 0.040547557 0.051705766 -0.02676311
0.0325002 -0.052699286 0.02113242 -0.06324665 -0.061474193 0.043343373 -0.019431524 0.054704934
0.08694594 0.022019057 0.008889295 -0.08355307 0.07150733 -0.08753401 -0.024997316 0.03324268

layer3.weight f4 [15, 128]
00000000: 1723 e53c 64c9 d2bc f8af 8b3d 5c54 0cbc
00000010: ad10 fcbc 9885 22bd fd9c d33c 8bfe 14bd
00000020: 6bd3 1bbd e035 4bbc c5b7 32bd c164 dfbb
00000030: 7d08 78bd 8e4b 8ebd 5c05 c93c 5456 563d
00000040: f9d6 89bd d629 39bd 9cf1 8e3d 0f80 553c
00000050: f2da b23c 1127 8c3d 89d4 3a3d b1b4 f73b
00000060: c68d 38bc 15a2 90bd 5e4e b83d 66d3 88bd
00000070: 98c5 f2bb c50f b13d d691 113d 345e 513d
00000080: 2c0c 84bd e6bd a4bc 350c f03b c767 acbd
00000090: 0d3b 9b3d a7fe 51bd f9d6 37bd 62b7 3bbd
000000a0: f32a ba3d 7c51 f63c 842e 85bd f2e6 073c
000000b0: 3a93 853d 3e6e 8ebc 15b2 163d d973 2e3a
000000c0: 5cf4 2e3d 366c 683d edd6 99bd 1095 913d
000000d0: adf7 8fbd 29a2 9f3d 2012 9bbc e6e3 823d
000000e0: 561e 693b dfe9 393c a4b8 5e3d 9879 cbbb
000000f0: 7b2c ed3c 9640 ae3d 9f91 993d 0a06 94bd
00000100: 5ee8 663d 7534 55bd ee40 893c da30 313d
00000110: 1c3e 90bc 5af3 4cbd 9b74 86bd f7f4 68bc
00000120: d13d 3cbd 1db0 153d 6e31 583c 683e a4bd
00000130: c387 863d f745 6e3d f2d4 8abb 0b80 b03d
00000140: 2dc3 9b3d a164 503a cd8d 6f3d b822 6e3d
00000150: e846 9bbc 84c6 33bc 6d70 3c3d 98ba e13c
00000160: a970 483c f545 35bd 9a4b 443d 7a60 a13b
00000170: 1d0f 86bd c82e 8d3d 9d8a 943d 95e2 9e3d
00000180: 2626 9c3d 6f3c 29bd eb92 683d 8f9c 1cbc
00000190: 7fc4 92bd e3ed 583d 5e61 ed3c 6b1a 283d
000001a0: 8d19 493d e5d6 703d a5fc 1e3c fb59 6bbd
000001b0: e33f 16bd e9ed 873c 7fa7 b43d 5179 af3d
000001c0: 9a8c 553d fe30 5d3d 5236 343d ed47 3bbd
000001d0: 72c4 8abc 2e2f 04bd 41a5 bfbc 1376 8ebd
000001e0: 9c70 373c 5bb9 103c 24e9 8bbc fd51 d7bc
000001f0: 6be1 b33d 0da1 b4bc 5a1a ecbc 4c99 30bd
00000200: 70a7 afbb f3a0 a3bd 5fa8 10bd c684 86bd
00000210: f348 333d 42ce 553d 8233 fe3b 4691 85bd
00000220: bee4 6cbd 4d90 023d 22a6 dbba dd46 0bbd
00000230: b383 39bd 06bd 86bd 6aed a7bc f28d 143d
00000240: 1591 24bb 8fcc b03c 4e2e 86bd 9d7f 0c3b
00000250: ad23 06ba 1560 79bd 9636 2c39 3f7c 13bd
00000260: 2bb3 003d d656 a2bd c677 2fbd ffa6 a1bd
00000270: ce94 74bd c10f 1b3d 6a01 51bd 1bcd 03bd
00000280: 143b 813d 5582 943d 3560 a2bc 6718 b23d
00000290: c976 133d ce3b 7cbd 6d4e 8cbd 2521 1b3d
000002a0: 2924 083c 3283 7b3d 9aa7 7abd 5357 ff3c
000002b0: ea9b 3dbd fda9 4a3d 9168 98bc 30b9 8bbd
000002c0: 8659 8f3d e824 f13c 74d1 cb3c 8096 863b
000002d0: f432 5a3d 7af5 363d 134a d1bc 5c0c c13c
000002e0: bc40 b2bd 450c acbd 7a6a 5c3d 2380 7f3d
000002f0: 69f2 7bbd 4111 883d 007f 7d3b a8b9 5abd
00000300: 1725 9a3d 8dc6 1d3d b9a0 b1bd b95a 1bbd
00000310: 6e75 7a3d 1b00 d63c 45a1 063d e381 88bc
00000320: 5237 2d3d 4103 dfbc 58c8 95bd 0630 b33c
00000330: 182a 5d3d d3ae 3cbc 5af0 11ba 1d64 423d
00000340: c997 963c d434 693d f3e6 ca3c 34b4 8c3d
00000350: 5ec4 843d fab3 fbbc 2034 453d 2693 c3bd
00000360: eb63 413d f902 8e3d 200d 063c b5da 77bd
00000370: ebcf 523d c3ff b9bd 0763 593c fc96 febb
00000380: 1b40 abbd 62bf 0ebd 899b 7a3d dec1 6cbd
00000390: 365a 10bd 13e4 85bb 52dd 793d f588 ad3b
000003a0: ef49 1cbd c6ee 58bd 5c5b 17bb 3983 5abd
000003b0: 9b4d f8bc eca6 7fbd 830f 67bd dbc3 943c
000003c0: e0fd 2e3d deac 143d 7492 893d ec57 9dbc
000003d0: fad8 903c a14f bebd fb35 95bd 7ebb 2b3d
000003e0: 6efc 663d 8d0e 7abd ddb6 8e3d 4b71 533d
000003f0: e431 0b3c f8ff f6bb 53c5 9d3c 84c8 72bd
0.027970834 -0.025730796 0.06820673 -0.008565035 -0.03076967 -0.039678186 0.025831694 -0.036375564
-0.03804342 -0.0124029815 -0.043632288 -0.0068174307 -0.06055497 -0.06948005 0.024538688 0.052328423
-0.06730456 -0.045205913 0.06979677 0.01303102 0.021832917 0.06843389 0.045612846 0.007559382
-0.01126427 -0.07062165 0.08999322 -0.06680946 -0.007408809 0.08645586 0.03553947 0.05111523
-0.06447634 -0.020110082 0.007325674 -0.084182315 0.075796224 -0.051268246 -0.04488275 -0.045829184
0.09090223 0.030068152 -0.06503013 0.008294808 0.06522222 -0.017386552 0.036790926 0.0006654836
0.042713508 0.056743823 -0.07511697 0.071085095 -0.07029662 0.077946015 -0.018929541 0.063911244
0.003557106 0.011347263 0.054375306 -0.0062095635 0.028951874 0.085084125 0.07498478 -0.07227714
0.056373946 -0.05205198 0.016754594 0.04325948 -0.017607741 -0.050036766 -0.065652095 -0.01421856
-0.04595739 0.036544908 0.013195379 -0.080197155 0.06568863 0.058172192 -0.004236811 0.08618172
0.07605586 0.0007949565 0.05848484 0.05813858 -0.01895471 -0.010972623 0.046005655 0.027554795
0.0122338915 -0.04425617 0.04792366 0.004924831 -0.065458514 0.068936884 0.07253001 0.07758061
0.07624464 -0.0413174 0.056780737 -0.009558811 -0.07166385 0.05296124 0.028977092 0.04104082
0.049096633 0.05879869 0.00970379 -0.05745886 -0.03668202 0.016592937 0.0882101 0.08568061
0.05213604 0.0540018 0.043997116 -0.04572289 -0.016939376 -0.032271557 -0.023394229 -0.069561146
0.011196282 0.008833255 -0.017078944 -0.026284212 0.087832294 -0.022049451 -0.02882116 -0.043114945
-0.0053605363 -0.07989683 -0.03531682 -0.06568293 0.04377074 0.052198656 0.007757605 -0.06521849
-0.057835333 0.031875897 -0.0016757885 -0.034003127 -0.045291614 -0.06579022 -0.02049895 0.036268182
-0.002511089 0.021581916 -0.06551801 0.0021438368 -0.00051170104 -0.060882647 0.00016423533 -0.036007162
0.031420868 -0.07926719 -0.042838834 -0.0789318 -0.059712224 0.03785682 -0.05102674 -0.032178026
0.063100964 0.07251421 -0.019821266 0.08696061 0.036001954 -0.06158047 -0.06850896 0.037873406
0.0083094025 0.061404414 -0.061194994 0.03116957 -0.04629127 0.04947852 -0.018604549 -0.06822431
0.06999497 0.029436544 0.024880148 0.0041072965 0.05327125 0.0446677 -0.025548017 0.023565464
-0.08703753 -0.08400778 0.05381248 0.06237806 -0.061510477 0.06643916 0.0038680434 -0.05339971
0.075266056 0.03851943 -0.086732335 -0.037928317 0.061147146 0.026123097 0.032868642 -0.016663497
0.042289086 -0.027223231 -0.07313603 0.021873485 0.05399522 -0.011516291 -0.0005567126 0.047458757
0.018382924 0.056935146 0.024768328 0.068703085 0.064827666 -0.030725468 0.048145413 -0.09549551
0.04721443 0.06934161 0.00818184 -0.06051131 0.051467817 -0.09081986 0.013268239 -0.0077694636
-0.083618365 -0.034850486 0.061183486 -0.057802074 -0.03524228 -0.0040860265 0.061002083 0.0052958676
-0.038156446 -0.052962087 -0.0023095226 -0.0533478 -0.030310443 -0.06241505 -0.056411278 0.018159797
0.042722583 0.03629767 0.06717387 -0.019206963 0.017681587 -0.09292532 -0.072856866 0.041926853
0.05639308 -0.061049033 0.06968472 0.051621716 0.008495782 -0.007537838 0.01925913 -0.059273258

layer3.bias f4 [15]
00000000: 951d aa3d d14c 203c f39c 97bd 082c 84bd
00000010: d41f b3bc d01b 8a3d db82 9dbd 6cae a13d
00000020: 2612 5c3d dab2 8b3d 5385 813d e5a1 30bd
00000030: dea1 1cbb dc84 813c ec2d f0bc
0.083064236 0.009783939 -0.074029826 -0.06453711 -0.021865763 0.06743586 -0.07690974 0.078945965
0.053728245 0.068212226 0.06324258 -0.043123145 -0.0023900191 0.015810423 -0.029318772
