code/race_net_4.pt (torch, 90271 bytes, 6 tensors)

layer1.weight f4 [128, 27]
000000 5b e1 90 bd f5 54 30 be f4 01 d7 3d 09 54 ee 3d
       -0.07074233 -0.17219909 0.104984194 0.11637122
000010 23 5a 0d be bd bd e3 3d 62 5a 1d bd 31 69 13 be
       -0.13803916 0.11120174 -0.038416274 -0.14395596
000020 75 95 97 bb f5 91 81 bc 8b ae 17 3e 1d 3e 8b 3d
       -0.004625971 -0.015816668 0.14812677 0.067989565
000030 39 84 9c 3d 71 59 25 bd 87 49 24 be 29 4d 01 3d
       0.07642407 -0.0403685 -0.16043673 0.031567726
000040 a9 a3 08 3e 90 27 0a be 10 a6 21 3e 66 81 38 be
       0.13343681 -0.13491654 0.15786004 -0.18018112
000050 d1 b5 89 3a 52 97 1e 3d ab 41 54 bd 65 6e 9b bd
       0.0010506456 0.03871853 -0.05182044 -0.075894155
000060 20 f3 a8 3d 80 c4 69 3d b6 4c 71 bd 88 c7 e7 3d
       0.082494974 0.057072163 -0.058911048 0.113173544
000070 59 47 3b bd b9 8f e9 3d 28 8e 6e 3d d4 f6 ae bb
       -0.04572234 0.11404366 0.05824104 -0.005339483
000080 86 82 1a 3e b6 88 a8 3d e0 65 ee bd b0 86 2d be
       0.15088853 0.082292005 -0.11640525 -0.1694591
000090 68 1f 4e 3d 5c 0a 0d 3e 92 45 52 bd 6e 3e c7 3b
       0.05032292 0.13773483 -0.05133588 0.0060804402
0000a0 3b b7 90 3c 79 ee 63 3e ab fd 46 3e c4 9e b2 3d
       0.017665496 0.22258939 0.19432704 0.087216884
0000b0 72 8d 38 be 57 8a 2c be ac a6 08 3e 95 52 09 be
       -0.18022707 -0.16849647 0.1334483 -0.13410409
0000c0 1b 4b 9f bd 56 63 fd 3d 36 00 c7 3d ff 3c 6b 3d
       -0.07777997 0.123724625 0.09716837 0.057431217
0000d0 87 45 0e be ac 43 a4 3e e8 63 f4 3d d4 cb c7 3c
       -0.1389371 0.3208288 0.11933118 0.024389185
0000e0 3b 8c 5d 3e 05 74 8e bd 88 8c 25 3e c1 bb 26 be
       0.21635525 -0.06955723 0.1616689 -0.1628256
0000f0 7a 1a 0d 3c 5a a9 36 bc f7 17 41 bd 74 f1 48 be
       0.00861227 -0.011148775 -0.047141995 -0.19623357
000100 0f 55 0c 3e ef ec f3 bd f7 32 82 3e 87 df 2d 3d
       0.13704322 -0.11910426 0.25429508 0.0424495
000110 67 e0 8b 3e 87 36 9c 3c 50 d5 20 3e 87 5a a0 3d
       0.27319643 0.01906897 0.15706372 0.07829767
000120 3a b9 38 3d 6b 49 05 be 5b 45 23 3d 80 2d 0d be
       0.04509852 -0.13016288 0.039861064 -0.13786888
000130 00 3d 2a bd 95 4c 0e 3d 1d a2 99 3d 4e dd 92 bc
       -0.04156208 0.034741003 0.07501624 -0.017927792
000140 93 07 a3 3e 59 0d 54 be 81 f2 f3 3d e2 35 c6 bd
       0.31841716 -0.20708217 0.11911488 -0.09678246
000150 51 7a d3 3d 10 a0 7f 3e 61 9d c6 bc 99 00 42 bc
       0.103260644 0.24963403 -0.024244966 -0.011840963
000160 e3 8b 37 be 11 55 2f 3e 47 3e ab 3d 0e ad 7a bd
       -0.17924456 0.17122294 0.08361488 -0.061200194
000170 17 63 28 3e 6e bf ad bc 30 96 6b bd 48 93 1a 3e
       0.1644405 -0.021209445 -0.057516277 0.15095246
000180 05 3a 0f 3e 51 28 e3 3d 06 df 3b 3e 62 fc 87 3d
       0.13986976 0.11091674 0.18346795 0.06639935
000190 9c ca 54 3e 01 a7 ed bb b7 f9 a4 bc 79 5e 00 bd
       0.20780414 -0.0072525744 -0.020138605 -0.031340096
0001a0 2d 5d c2 bd 73 3f 37 3d 5b 56 21 3e 22 bc 82 be
       -0.09490428 0.044738244 0.15755598 -0.2553416
0001b0 3c ce 91 3c 2c 98 c5 bd 1c c5 03 3e fd 41 a4 bd
       0.017798536 -0.09648165 0.1286816 -0.08020399
0001c0 1c 0d 8e bd 5d 0d 9c 3d ae 7a 00 3b 2c ad e2 3d
       -0.06936094 0.07619736 0.0019604373 0.11068186
0001d0 e9 ec e5 3d e3 12 37 bd 90 69 00 bd f6 c9 51 3d
       0.11226828 -0.044695746 -0.031350672 0.051217996
0001e0 94 20 db bd e1 e3 08 3e e5 cb 14 be 58 33 1a 3e
       -0.10699573 0.13368179 -0.14530905 0.15058649
0001f0 14 5b 92 3e d5 9a cb bd 24 3e f2 3d b6 2a cc bd
       0.28585112 -0.09941641 0.11828259 -0.09969084
000200 48 9f 5d 3e 99 4b 4b 3e 64 fb 80 3d 12 37 2b 3e
       0.21642792 0.19853057 0.06297949 0.16720226
000210 2b 38 7f bd 06 73 2b 3e 23 fa c2 3d 8a 23 50 be
       -0.062309425 0.16743097 0.09520366 -0.20326057
000220 21 91 43 3e be 13 16 ba 78 e7 36 3e c6 70 17 bd
       0.19098331 -0.0005724988 0.17861736 -0.036972784
000230 05 d3 e5 3d 6b 58 8d 3b eb 77 72 3e 41 3a 49 be
       0.112218894 0.0043135188 0.23678558 -0.19651128
000240 dd 32 2b 3e 0d 41 3c be f0 50 9d bd 19 51 0e be
       0.16718622 -0.1838419 -0.07681453 -0.13898124
000250 94 09 79 bd 4e a4 7c 3c 40 6b 24 3b 65 b7 66 bd
       -0.06080015 0.015420033 0.002508834 -0.056327242
000260 f0 fa 00 be ad 14 8b 3d 8c 6d e0 3d 33 43 18 3e
       -0.12595725 0.06791053 0.109583944 0.14869384
000270 92 08 10 3e 44 00 9d bd e8 a2 0b 3e 6f 48 b3 3d
       0.1406577 -0.07666066 0.13636363 0.0875405
000280 1e a6 68 3e 1f c1 bf 3e ac 62 4b be e4 31 64 3e
       0.22719619 0.37452027 -0.19861859 0.22284657
000290 ea 56 57 3e 7b 22 03 be 27 9b cd 3b dc 35 c7 bc
       0.21029249 -0.12806122 0.006274599 -0.024317674
0002a0 83 d1 e0 bd 30 e2 40 3e bb 30 f5 bd 45 4f 31 3e
       -0.10977461 0.18836284 -0.11972185 0.17315395
0002b0 ab 79 5c 3e 42 de 87 3d 30 6a d6 3d 06 3d 60 3e
       0.21530788 0.06634189 0.104694724 0.21898279
0002c0 87 a4 c0 3c 23 e2 16 3e 53 0f 93 3d 38 c0 06 3e
       0.023515953 0.14734702 0.07180657 0.13159263
0002d0 ce d4 79 3e 13 b4 fa bd 29 19 05 bc e7 ca 23 bd
       0.24397585 -0.12241378 -0.008123674 -0.039988425
0002e0 f0 d4 3d 3e e4 7f 3a 3e 28 60 4a bd 6e ff 7a 3d
       0.1853826 0.18212849 -0.049408108 0.061278753
0002f0 1f 63 c0 bd 8b 96 26 3e 25 32 ca bd 60 c4 aa bd
       -0.09393906 0.16268365 -0.098728456 -0.08338237
000300 c8 61 f3 3d 8f ca a0 bd dd 77 41 be f5 63 0c bd
       0.11883885 -0.07851135 -0.1889338 -0.034275014
000310 f9 7b 1d 3d 84 01 7e 3e 6c 78 70 3d 04 9a d9 3c
       0.038448308 0.24805266 0.058708593 0.026562698
000320 7a 89 da 3d 06 9c 53 3d 23 82 3f 3d 88 b3 dc 3d
       0.10670753 0.051662467 0.046754967 0.1077643
000330 93 72 5a 3e d1 98 49 be 80 82 f8 bc 67 fe 5b be
       0.21332769 -0.19687201 -0.030335665 -0.21483766
000340 6a 3f a2 3d 74 0f 3b be ad 99 e6 bd a9 17 66 3d
       0.079222515 -0.18267614 -0.1125978 0.056174908
000350 4e a8 d1 3b db 04 1a bd 04 ab 58 3d fb 42 ea 3d
       0.0063982373 -0.037602287 0.05289747 0.11438557
000360 06 d8 fc 3d ba 93 82 bd 4d 00 2a be e0 02 29 3d
       0.12345891 -0.06375833 -0.16601677 0.041262507
000370 c9 b0 14 bd b4 9f 37 be cc b2 5e 3d 95 c7 28 be
       -0.036301408 -0.17932016 0.054369733 -0.16482385
000380 86 c8 9f 3c 84 c7 19 bd df 7d 8a bd 70 4c 4e 3d
       0.019504797 -0.03754379 -0.06762289 0.050365865
000390 4d b8 d6 3d aa f8 3d bd a2 d5 fb 3d 3f be e6 bc
       0.10484371 -0.046379723 0.122966066 -0.028166888
0003a0 ce 76 f9 3a b0 43 90 3c 6e 82 18 be 1d 3e 05 3e
       0.0019032599 0.0176104 -0.14893505 0.13011976
0003b0 4b 9a 01 bc e6 66 37 be 6f b8 04 be e5 47 0e be
       -0.0079103215 -0.17910346 -0.12960981 -0.13894613
0003c0 11 99 8e 3d 6a 9e 58 bd 7c 21 03 be b2 a6 a1 3d
       0.06962789 -0.05288545 -0.12805742 0.07893123
0003d0 ec df 00 bd 49 46 2c 3e 72 9f f6 3d 4a 00 9a 3d
       -0.03146355 0.16823687 0.120421305 0.075195864
0003e0 8c 26 e7 bd 2e 4e c7 3d 68 18 1a bd 9e c4 a6 3d
       -0.11286649 0.097317085 -0.037620932 0.081429705
0003f0 50 89 6a bc ba 8a da 3d 36 ad e5 3d ac 01 0b bd
       -0.014314964 0.10670991 0.11214678 -0.03393714

layer1.bias f4 [128]
000000 35 a5 37 3d f2 2d af bb 5a 2f 99 bd a5 87 24 be
       0.044835288 -0.0053460533 -0.07479735 -0.1606737
000010 0b ff 38 3e b6 6d 1d bd ad 7d 52 3e 7b bd 30 bd
       0.18066041 -0.038434707 0.20555754 -0.043149453
000020 a9 55 3d 3e ef dc 3f be 86 7e a2 3d 09 f2 0b 3e
       0.18489708 -0.18736623 0.07934289 0.13666548
000030 73 b5 0f 3d c5 2f 70 3e 1a 6f d6 bd 7f 28 a9 bd
       0.035085153 0.23455723 -0.1047041 -0.08259677
000040 0a 77 0d 3e a8 a7 22 bc 00 d6 20 3e 13 e0 21 3d
       0.13814941 -0.009927668 0.15706635 0.039520334
000050 36 ba 28 3d be 04 53 3e 0b 98 18 3e f0 35 d3 3c
       0.04119321 0.20607278 0.1490175 0.025782555
000060 c8 bb 17 bd 57 cf e6 3c 35 fd 58 3d d1 e3 e4 3c
       -0.037044317 0.02817504 0.052975852 0.027940663
000070 89 59 36 3e 7d 70 b6 3d 21 ef 30 be 12 d1 6e 3e
       0.17807592 0.08908174 -0.1727872 0.23321941
000080 0b 94 0c 3d 33 38 b9 3d f6 f6 3c bd 9f 84 32 3e
       0.034320872 0.09043922 -0.046133958 0.17433403
000090 1a c1 05 3d 17 c8 1d bd 85 72 1b be a6 1f fc bc
       0.03265486 -0.0385209 -0.15180404 -0.03077681
0000a0 b3 07 1f bc 38 99 92 bd 59 79 6a bd 9e df 52 3e
       -0.0097064255 -0.071581304 -0.057244632 0.20593116
0000b0 f2 55 4e 3e d8 ca 83 3c 29 31 01 3e 15 02 be 3b
       0.20149973 0.016087934 0.1261641 0.005798588
0000c0 70 b0 10 bd c0 08 28 3d a4 76 53 bd d6 dd e1 3d
       -0.035324514 0.04102397 -0.051626816 0.1102864
0000d0 15 0b 23 3e e9 bc 30 3e c8 57 3d bd 1e c2 f1 3d
       0.15922196 0.17259564 -0.046226293 0.11804603
0000e0 e0 f5 08 3d 82 24 4b 3e fc 1d e5 bd ae 23 44 3d
       0.03343761 0.19838145 -0.1118736 0.04788559
0000f0 6f 08 32 3e 87 dd d0 bd 5d f5 13 bd 89 e0 1b be
       0.1738603 -0.10198503 -0.03612267 -0.15222372
000100 0b eb 50 3e e3 23 06 be bf 1e 07 be 3a 25 61 bd
       0.20402162 -0.13099627 -0.13195322 -0.054967143
000110 3f c9 b6 bd 0b bd b8 3d a5 7c ab 3d 8a c2 9d 3d
       -0.089251034 0.09020432 0.083733834 0.07703121
000120 0d 59 6e 3e aa d1 d7 3d 74 90 1d 3d 47 b1 1f be
       0.23276158 0.10538037 0.03846784 -0.1559497
000130 7d 5b ea 3d 34 a6 04 3e 03 7d 28 be 10 e7 04 3e
       0.11443231 0.12954026 -0.16453938 0.12978768
000140 a3 8e 38 3e 98 41 b3 3d 7b 6a 38 be ea 2e 21 bd
       0.18023162 0.087527454 -0.18009369 -0.03935138
000150 f5 fa 15 3e 6d 96 c6 3c c0 50 de bd de 6d 5d 3e
       0.14646514 0.02424165 -0.108552456 0.21623942
000160 67 8e 10 3d 06 6d 19 bd 45 bc c0 bd bb ad 1c bd
       0.035292055 -0.03745749 -0.094109096 -0.03825162
000170 91 19 3b bd 57 d7 b4 bc 58 e4 0d be 1a 5f 35 3d
       -0.04567868 -0.022075338 -0.13856637 0.04428015
000180 dd d2 82 3d 13 2c 42 3e 33 0c 3f 3d 80 01 3d 3e
       0.06387875 0.18962125 0.046642493 0.18457603
000190 14 b3 35 3e d1 21 4c 3e 49 c0 0c 3d 10 46 27 3e
       0.17744094 0.19934775 0.034363065 0.1633532
0001a0 8d 6e 1e bd 85 28 1e be 2f 78 8d 3c 3b c1 c7 3d
       -0.03867965 -0.15445144 0.017269222 0.09753653
0001b0 e4 25 0e 3d 3d 5a 09 be 18 11 8f 3d f0 c9 46 3e
       0.034704104 -0.1341333 0.06985682 0.1941297
0001c0 4a ea d2 bd 15 00 1e 3d e2 f1 42 3d 68 62 32 be
       -0.10298593 0.038574297 0.04759396 -0.17420352
0001d0 e8 52 ae 3d 4b 54 91 3c b1 e1 26 3e ab c8 73 bc
       0.08511907 0.01774039 0.16297032 -0.014879386
0001e0 2c a2 41 3d 06 e0 57 3e de bc 44 3e db a6 30 3c
       0.0472738 0.21081552 0.19212672 0.010781969
0001f0 f2 db c7 bd 8e ff 01 3e e1 c4 49 3d d2 e9 16 3e
       -0.09758748 0.12695143 0.049260024 0.14737633

layer2.weight f4 [128, 128]
000000 8f 5e a2 ba a1 76 fe 3c 74 21 8f 3d 06 31 1d bd
       -0.00123878 0.031062426 0.069888026 -0.03837683
000010 c3 ad 87 3d 02 a0 a0 3d 69 a0 90 3d cc 60 1b bb
       0.06624939 0.07843019 0.07061846 -0.0023708818
000020 75 d8 00 bc 50 51 ab bd 49 54 88 3d 3c 3c 6d 3d
       -0.007864107 -0.083651185 0.06656701 0.057918772
000030 db fc 77 3c 84 8d a7 3d cd 33 76 bd 67 d2 d8 ba
       0.015135969 0.08181289 -0.060107995 -0.0016542197
000040 13 9c d3 bc ad 34 5b 3d c9 78 78 bd ec 8d 59 bd
       -0.025831258 0.053517032 -0.060662065 -0.053113863
000050 6f 4b fb bc e9 9e c0 bd 88 a6 f0 bc 9a 74 32 bd
       -0.030675618 -0.0940531 -0.029376283 -0.04356823
000060 f6 9b a5 bd 90 fa 0f bd ad a1 cf bb e3 14 28 3d
       -0.08086388 -0.035151064 -0.006336412 0.041035544
000070 d6 db ce 3b e0 df 6a bd d8 83 7a bd f6 a1 6d 3c
       0.0063128276 -0.05734241 -0.061160892 0.0145039465
000080 9a 77 c4 3c 80 1e ad bd 21 0f 38 bc 45 1e 7c bd
       0.023982812 -0.08453083 -0.011234076 -0.061552305
000090 50 af 1e 3c 5f 9d ac bd 70 c4 6d bc 7b 3e a3 bd
       0.009685352 -0.08428454 -0.014512166 -0.079709016
0000a0 8e f2 8f 3d 4f 1e e5 3c 9c 9f 19 bd 8d 30 0c bd
       0.070286855 0.027968554 -0.03750573 -0.03422599
0000b0 e0 1b 87 bd 7c f7 b8 3b dc a9 a9 bd 82 3a 25 bd
       -0.065971136 0.005644737 -0.08284351 -0.040339
0000c0 37 5b 38 bc 69 d6 8b 3d ae 72 2d bd 8f d6 a2 bc
       -0.011252216 0.06828005 -0.042345695 -0.0198777
0000d0 77 49 4b 3c ad be 93 3d f9 70 23 bc 13 9b c9 3c
       0.012407652 0.07214103 -0.009975665 0.024610078
0000e0 4b 6a 5c 3d 16 b1 bc bd 72 00 ab bc 76 69 28 bd
       0.053812306 -0.09213464 -0.020874236 -0.0411162
0000f0 42 6c 5e 3d ca 45 c0 3c 6d 21 c5 3c 02 94 a3 bb
       0.05430246 0.023470778 0.02406379 -0.004992009
000100 d3 61 6e 3d 24 c6 e0 3c ce b2 69 bd 32 2a 7e bd
       0.05819876 0.02743823 -0.057055287 -0.06205196
000110 e3 51 87 3d d1 f1 27 3d 49 11 06 3d 07 3a fe 3c
       0.066074155 0.0410021 0.03273133 0.031033529
000120 c4 d3 6b 3d 7d 9a 1d bd 15 71 c6 3c 6a e5 df bb
       0.057575002 -0.03847741 0.024223844 -0.006832768
000130 02 9e 92 bd b9 42 05 bc 23 c6 77 3d 19 cf a2 bd
       -0.07159044 -0.008133584 0.060491692 -0.07949657
000140 39 3f 9c 3b f3 d8 97 3b ac e0 4f bc a7 c2 34 3c
       0.004768279 0.0046340167 -0.012687843 0.011032737
000150 b0 94 92 3d 54 26 81 bb 08 6d cd 3c c6 9c d9 3c
       0.07157266 -0.0039413366 0.025076404 0.026564013
000160 9b d3 88 3c 84 b8 85 3b 78 5d 11 3d 34 7a a0 3d
       0.016702464 0.004080834 0.03548953 0.078358084
000170 8a 48 c3 bc 73 3b b2 bd f9 68 11 3d 57 b3 a7 bd
       -0.0238383 -0.08702745 0.0355005 -0.08188503
000180 9a b1 0c bd c9 d4 1c 3c a2 7e 80 3d 3f aa a9 bd
       -0.03434906 0.009572216 0.06274153 -0.08284425
000190 ee 00 95 3c 97 b5 f9 3c eb a4 1b 3d 04 07 26 3d
       0.01818892 0.030482097 0.037999075 0.040534034
0001a0 7e 97 0d bd 1a 0e 12 3d 23 fd 30 bc ae 6e d7 bb
       -0.034568302 0.03565798 -0.01080254 -0.0065744733
0001b0 47 ed 9b bd 9e fd 80 bc 93 30 a8 bb 20 07 9f 3b
       -0.076136164 -0.015745934 -0.0051327436 0.0048531443
0001c0 38 fd 8b bd 00 83 4e 3d 9c 28 6d 3c d8 c5 49 bd
       -0.06835407 0.0504179 0.014475014 -0.049260944
0001d0 eb e4 94 bc e8 36 74 bd 4c c6 4a 3c 54 02 84 bd
       -0.018175563 -0.059622675 0.012376379 -0.064457566
0001e0 90 ec bb bd 2e 92 06 bc 5c ae d6 bb 64 1b b9 bd
       -0.0917598 -0.008213563 -0.006551547 -0.090384275
0001f0 f5 2c 97 bd 68 1c ae bd ce f1 1a 3d d5 54 9c 3c
       -0.07381622 -0.08501512 0.03782826 0.01908342
000200 ce 70 19 bc bc 1b 4d bc 97 ab 1a 3c b9 85 59 bc
       -0.009365274 -0.012518819 0.009440324 -0.013276511
000210 4d 46 a0 bd fe 21 c3 bd 0e 06 0b bd 0b 7e f8 3c
       -0.07825909 -0.09527968 -0.03394132 0.03033354
000220 2d 62 a3 3d 91 9a 0b bd db af 08 3e 34 31 51 bc
       0.0797771 -0.034082953 0.13348334 -0.012768079
000230 ac de c7 bd 1a ad 2c 3e 76 c0 47 3b 8d 09 c8 bc
       -0.09759268 0.16862908 0.0030479706 -0.024418617
000240 b9 6a 0f 3e cf 39 6f 3a 97 c7 66 3d d7 d5 83 bd
       0.14005555 0.00091257406 0.056342687 -0.06437271
000250 66 42 48 bc 87 f0 88 3d eb ce 83 3d 78 36 4b 3d
       -0.012222862 0.06686502 0.06435951 0.049612492
000260 c8 e9 d4 bb 4c 5a 78 bd 7e 82 82 3d ae b1 00 bd
       -0.0064975955 -0.06063299 0.06372546 -0.03141945
000270 24 03 03 3e 3c 3d 4c bd 26 97 c3 3c b8 65 89 3d
       0.12794167 -0.049863085 0.023875784 0.067088544
000280 05 fb a6 3d 9c de 27 3d a0 85 aa bd b3 af f5 3d
       0.08153347 0.04098378 -0.08326268 0.119964026
000290 d2 a6 05 3e aa 22 08 3e 99 93 b1 3d 4a 71 9b 3c
       0.13051918 0.13294473 0.0867073 0.018974919
0002a0 96 79 ff bc 92 88 89 bd 1a 58 a7 bc 0d e9 88 3c
       -0.031185906 -0.06715502 -0.020427752 0.01671269
0002b0 26 fa 2f bc 2d e4 1e 3d 39 bc 84 3c bb a5 b1 bc
       -0.010740792 0.038791824 0.016203033 -0.021685472
0002c0 79 38 c2 3d 70 e8 44 3d 55 57 49 3c a1 c1 38 bd
       0.094834276 0.048073232 0.012288888 -0.045106534
0002d0 9a a3 ce 3d 24 93 c7 3d cc e2 b1 3c 4f 4a 90 3d
       0.10089798 0.09744862 0.02171459 0.07045423
0002e0 93 d3 81 bc 79 e7 c9 3d a3 29 91 bd 1d 93 b5 bb
       -0.015847957 0.09858603 -0.0708802 -0.005541219
0002f0 76 5c a2 bd 44 33 3a be 1a ae 19 bd 7a 6d 90 3d
       -0.07927792 -0.18183619 -0.03751955 0.07052131
000300 e8 f1 cc 3d 05 41 97 bd 8d 3d f8 bc 3d 94 cc bc
       0.100070775 -0.07385448 -0.030302787 -0.02497303
000310 8e 92 b3 3d 5c cb cc 3d 1f e6 c3 3c c9 28 42 3e
       0.087681875 0.09999725 0.023913441 0.18960871
000320 02 2c 86 3c 3b bd 42 bb 8e 94 92 3d f3 db 71 3d
       0.016378406 -0.002971484 0.07157241 0.05904765
000330 a3 08 fc 3d 42 a2 17 3e 69 5f 80 bc 01 d6 a3 3d
       0.12306335 0.1480799 -0.015670495 0.079998024
000340 d2 a2 98 3d 6c 3e ce bb ea 7b 2a 3d 29 88 a9 bd
       0.074529305 -0.0062940624 0.04162208 -0.082779236
000350 41 a9 ad 3d b6 9a 32 3c 52 21 57 bd 0b ca cc bd
       0.08479548 0.010901144 -0.05252201 -0.09999474
000360 63 05 eb bd b7 ff 16 bc c5 56 35 3d 2a 74 59 3d
       -0.11475637 -0.009216241 0.044272203 0.0530893
000370 88 51 f9 bc 8a 56 8f 3d a6 d7 e9 bc d2 fd 10 bd
       -0.030434385 0.06998928 -0.028545212 -0.035398312
000380 bf c2 09 bd 7c 43 75 3d da c2 15 bd 05 fa 94 3d
       -0.03363299 0.05987881 -0.036562778 0.0727425
000390 b1 0a d1 3c f0 8b a0 3d 6a 2b a0 bd 84 dc 92 bd
       0.025517793 0.07839191 -0.078207806 -0.07170966
0003a0 99 fe 80 3d 58 bd 81 bd 04 31 cd 3c c9 dc 92 3d
       0.06298561 -0.063349426 0.025047787 0.07171018
0003b0 c5 1c 8a bd 74 04 b6 bc 00 b5 54 bd ea 21 4d bc
       -0.067437686 -0.02221892 -0.051930428 -0.012520293
0003c0 93 f8 be bd 23 9c cf bb 13 73 11 bd 97 f1 13 3d
       -0.093247555 -0.0063357516 -0.035510134 0.03611907
0003d0 5f 9d 88 3d 28 0e 8a 3b 21 d1 a3 bd 04 e3 7e 3d
       0.06670641 0.0042131133 -0.079988725 0.062228218
0003e0 14 10 ff 3c 0a 41 d1 3c 01 60 80 3b 7f a5 4d 3e
       0.031135596 0.025543708 0.0039176946 0.20082663
0003f0 b9 b4 23 3d f8 b2 89 3d 66 e5 00 3e ac 1c 6f bd
       0.039967272 0.06723589 0.12587509 -0.058376953

layer2.bias f4 [128]
000000 c0 49 18 bd 8f 37 b7 3d e8 3e 77 bd fe 44 df 3d
       -0.03717971 0.08946144 -0.060362726 0.10901831
000010 8a 5d 33 bd 4a fb 2a 3d 57 d0 ce 3d f1 c1 6a bc
       -0.043790378 0.041743554 0.100983314 -0.014328466
000020 76 dd 34 3e 69 68 6d 3d 5f 17 82 bd 8a da ae 3d
       0.17662606 0.0579609 -0.06352114 0.08537777
000030 60 6c 4b 3b cf f0 6f bd cd ab 41 3c 02 61 83 bb
       0.0031039938 -0.058579262 0.011820746 -0.004009367
000040 b0 bf 8d 3c 44 39 15 bd 33 92 8c 3d 76 eb 24 3d
       0.017303318 -0.036431566 0.06863823 0.040263616
000050 d5 53 84 bd 3e f7 ee 3d 38 8c 88 bd f3 df 64 bd
       -0.06461302 0.116682515 -0.066673696 -0.055877637
000060 47 8e 60 3c 99 62 e9 3d 73 5f 25 bc de 7a 60 bd
       0.013705797 0.11395759 -0.010093558 -0.054804675
000070 bb ed 87 3c 2f 1f 63 3d 7a c5 95 bc c2 e7 0a bb
       0.01659285 0.05544966 -0.01828264 -0.0021195267
000080 d5 d9 13 3c 03 3d d3 3d 8d 9e 9f bd 2f 89 3c bc
       0.009024103 0.103143714 -0.07793913 -0.0115073165
000090 c4 44 7e bc f2 5e eb 3d d4 fa c8 3c a6 b4 51 3d
       -0.015519325 0.11492719 0.024533667 0.05119767
0000a0 af 52 8c bd c0 4b 73 ba 48 5e 8d bc 94 9b 87 3d
       -0.06851708 -0.0009281002 -0.01725687 0.06621471
0000b0 0d 74 01 3d cf 96 80 3d 12 c8 4f bc 82 f6 8c 3d
       0.031604815 0.062787645 -0.012681978 0.06882955
0000c0 69 86 19 3d e8 fb 37 bd 7b 55 44 3d ce 7a e0 3d
       0.0374817 -0.04491797 0.047933083 0.10960923
0000d0 f6 2e b7 3d 06 d0 76 3b 00 ce 24 bc 3e 1d d7 3c
       0.08944504 0.0037660613 -0.01005888 0.026259061
0000e0 3a 22 ae 3c 82 13 20 bd 48 ea 21 bd e3 32 8d bd
       0.021256555 -0.039081104 -0.03953007 -0.068944715
0000f0 80 8b cc 3a 07 6d 91 bc f6 62 48 3d d0 37 eb 3c
       0.0015605539 -0.017752184 0.0489225 0.028713137
000100 6c 5c 00 3d 20 94 21 3d 3a f2 3f 3d be 04 88 3d
       0.03133814 0.039447904 0.046861865 0.066415295
000110 18 fb 93 bc 1e 00 fa 3d ed 06 95 3d 9e 70 0f bd
       -0.018064067 0.122070536 0.072767116 -0.03501951
000120 c7 bb 97 bc d6 42 9b 3c 36 b8 6d 3c 69 26 01 3d
       -0.018522156 0.018952768 0.014509251 0.03153077
000130 1f 02 fe 3c b6 a2 0d 3d 6f fb 8f bd 16 5f c1 3c
       0.03100687 0.034579 -0.07030379 0.02360491
000140 13 ed 07 3e ef 5c 72 3d 8c 0c fa bc f8 0e ab 3b
       0.1327403 0.05917066 -0.030523561 0.0052202903
000150 e1 de 2c bd 97 2a 85 3c e6 e2 9e 3c 5c a2 58 bd
       -0.04220474 0.01625566 0.019395303 -0.052889213
000160 f2 92 46 3d 3e 6e 5c bd 40 37 aa bd 64 52 d6 3d
       0.04847998 -0.053816073 -0.08311319 0.104649335
000170 b6 b9 9f 3d 9f 39 11 bd 70 ff 62 3b d8 4a 44 bd
       0.077990934 -0.035455342 0.0034637116 -0.04792294
000180 7d fe 26 3c d9 ca 99 bc b1 5a 8c 3d 74 56 75 bd
       0.010192511 -0.018773483 0.068532355 -0.0598969
000190 dd c4 89 bd 19 4e 82 bd ba ce e0 bc 83 fe 49 bd
       -0.06727002 -0.06362552 -0.027442325 -0.049314987
0001a0 0e 50 ff 3c 62 f3 b0 bc e8 a1 39 3d 3a ac 23 3d
       0.031166103 -0.021600429 0.04532042 0.03995917
0001b0 17 cd ac bc ba dc 5a bd 2e f8 1a 3c 05 6b ec bb
       -0.021093888 -0.053433158 0.009458585 -0.007214906
0001c0 11 b5 d8 3b b9 a7 fb 3d 49 39 63 bd 10 0d 49 bd
       0.0066133817 0.1228785 -0.055474553 -0.049084723
0001d0 54 a8 3f bd d5 7e 88 bd 7b 13 ce bc 6f e9 11 bd
       -0.04679139 -0.06664816 -0.025155773 -0.03562301
0001e0 bc ab 28 3d f1 40 3d 3e 88 b8 68 bb 3d 7b 36 3c
       0.041179404 0.18481804 -0.003551038 0.011137781
0001f0 3b 8d fc bb 64 43 e1 3d 8e 1d 99 bb 6f fb a0 bc
       -0.0077072657 0.10999182 -0.0046727126 -0.019651143

layer3.weight f4 [15, 128]
000000 b1 a7 c2 bc ea 53 7e 3c 65 38 50 3c 27 00 59 3d
       -0.023761602 0.015522936 0.012708758 0.05297866
000010 5a 25 06 3e d7 4c d6 3d 66 46 92 3b 7e 75 2b 3e
       0.13100186 0.10463875 0.0044639586 0.16744038
000020 43 7e 50 bc e0 8e ae 3d ca 79 b5 bc f3 aa 10 3e
       -0.012725416 0.08523345 -0.0221528 0.14127712
000030 bc cb 84 3c 85 40 1b 3e 9b ab cd 3d 3d 22 02 3e
       0.01621043 0.15161331 0.10042497 0.12708373
000040 c6 04 aa 3d 44 91 a7 3c 89 62 c5 3d 58 14 12 3d
       0.08301692 0.02045501 0.09637935 0.035663933
000050 dd 2a 01 3e 84 6e fe 3d a5 bc 9c bd 22 a9 89 bc
       0.12614007 0.12423423 -0.076531686 -0.016804282
000060 cd 95 13 3e da ba 05 3e 1b 87 9e bb 66 be 07 3e
       0.14412613 0.1305956 -0.004837883 0.13256225
000070 8f 00 a9 3d aa b3 d5 3c a6 b1 0e bd 91 b1 ce 3d
       0.0825206 0.026086647 -0.034837388 0.10092462
000080 31 b4 a7 3d d5 5e 28 3e 52 dd 4b 3e b6 da 42 3d
       0.08188666 0.16442426 0.19908646 0.04757186
000090 40 8b 0c 3c bf 5c ef 3d 45 14 82 bd f2 55 97 3b
       0.008578122 0.11687612 -0.06351522 0.0046184
0000a0 6f b3 83 3c b7 02 21 bd be 79 ec 3b c7 a7 0a 3e
       0.016076772 -0.03930923 0.0072166612 0.13540564
0000b0 78 c5 58 3d 91 69 2b 3e 42 b9 88 bd 86 17 8b bc
       0.052922696 0.16739489 -0.0667596 -0.01697899
0000c0 a0 96 04 ba bb 3b 1f 3e 2c 96 a3 bd 7b df c5 bc
       -0.0005057845 0.15550129 -0.079876274 -0.024154415
0000d0 05 35 5b 3b ef a4 4f bd a8 8d c3 3c 93 2f 0b 3e
       0.003344835 -0.050694402 0.023871258 0.13592367
0000e0 bd b4 d5 bc 7b c6 21 3e 28 e7 b3 bc a6 eb 5e bd
       -0.02608716 0.1579837 -0.02196081 -0.05442395
0000f0 7a 70 55 3d 93 fa e3 3c d7 04 33 3e d3 c9 8f bd
       0.05210922 0.027829444 0.17482315 -0.07020917
000100 3c 31 44 3c 1d c0 ff 3d f1 9e ff 3d c1 0a 20 3e
       0.011974629 0.124878146 0.124814875 0.15629102
000110 3f 08 51 bc cc 26 15 bd 05 1f 1c bd 0a bd 63 3d
       -0.012758314 -0.036413953 -0.03811552 0.055600204
000120 67 1c 11 3e 2a 85 01 3e 38 88 43 bd 34 47 11 3e
       0.14170991 0.12648454 -0.04773733 0.14187318
000130 b4 0b d6 bc e3 1c a4 bd f5 5a 20 3e 88 89 dc 3c
       -0.026128627 -0.08013322 0.15659697 0.026921049
000140 c7 95 0a bd dc dc b5 3d f2 8b 2c 3e c4 b0 0c 3e
       -0.033834245 0.08880016 0.1685026 0.13739306
000150 f1 76 5f bd fd 70 3c 3e 68 2a 80 3d 44 33 ae 3d
       -0.05455679 0.18402477 0.06258088 0.08505872
000160 8c eb 28 3d 2c 85 2c bc 0a ba 04 3e 06 1f b3 3c
       0.04124026 -0.0105297975 0.12961593 0.021865379
000170 7d 59 20 bc 0b f3 a5 bd 35 39 65 3d 84 6f 08 3e
       -0.009786961 -0.081029974 0.05596276 0.1332379
000180 f7 09 1a 3e 82 c3 ae bd d4 46 2f bd 49 d0 fe bb
       0.15042864 -0.08533384 -0.042792156 -0.0077762944
000190 a2 b9 13 3e 11 a2 12 bd 72 3c 17 3e 9a 27 e3 3d
       0.14426282 -0.03579909 0.14769152 0.11091538
0001a0 18 21 6d bd 86 c4 97 bd dd cc 71 bd ed f4 a8 3d
       -0.05789289 -0.07410531 -0.059033263 0.08249841
0001b0 40 c2 c6 bd 3f 8e a2 bd d0 cd 0b 3e a7 f7 a0 bc
       -0.09705019 -0.079372875 0.1365273 -0.01964934
0001c0 b7 35 55 3d fc 33 96 3d 12 54 fa 3d af c5 e6 bd
       0.05205318 0.07334134 0.122230664 -0.11268174
0001d0 5e 07 f2 3c 19 c7 ae 3d 14 30 f2 3d da 85 17 3e
       0.029544529 0.085340686 0.118255764 0.14797154
0001e0 57 f5 1c 3e 1f d4 92 3d 63 c8 48 3d 48 4a ef bd
       0.15327965 0.07169365 0.04901923 -0.1168409
0001f0 8a eb 2f 3e bb 42 6a 3c 5e 0d 23 3e 20 7d a4 bd
       0.17179695 0.014298136 0.15923068 -0.08031678
000200 90 7a ea 3b fa b5 74 3d ca 29 4d 3d 7e c6 71 3d
       0.007155724 0.05974386 0.05008868 0.059027188
000210 65 2e 80 bd 68 1a 97 bd a5 26 01 3e bd 26 d7 bd
       -0.06258849 -0.073780835 0.12612398 -0.105054356
000220 46 c4 99 3d c0 14 67 3d 41 10 5e 3d 00 92 93 3d
       0.07508139 0.056416273 0.05421472 0.07205582
000230 d5 3e 86 3d 95 cb b1 3d 2f 8d 1a be cc 2c b6 3c
       0.06554953 0.08681408 -0.1509292 0.022238158
000240 4b 2e 02 be 58 e4 ce 3c b3 c9 14 bd b7 00 87 3c
       -0.12712972 0.025255367 -0.036325168 0.016479833
000250 e8 41 6e 3d 96 3a b0 3d 28 e1 de bc 2f 12 eb bc
       0.05816832 0.086049244 -0.027206972 -0.028695194
000260 51 9e 18 be c6 29 d4 3c 46 d8 f8 ba 85 25 c1 bc
       -0.14904143 0.025898825 -0.0018985353 -0.023577461
000270 68 4b 04 3d a0 84 a7 bd 19 bf 4e bd 64 9e 84 bd
       0.032298476 -0.08179593 -0.050475214 -0.06475523
000280 fe 2e 8d 3d 31 f8 ac bc dd 00 93 bd 68 b1 98 3b
       0.06893729 -0.02111444 -0.07177899 0.0046598203
000290 eb f1 53 3d 22 7b c5 3d 94 f5 ea 3c b8 62 4d 3d
       0.051744383 0.09642626 0.028681554 0.050142974
0002a0 a5 23 47 3d d4 6c 9d 3d 65 45 fb bc 03 9b 74 3d
       0.048617978 0.07686773 -0.030672738 0.059718143
0002b0 32 0b b5 bd 62 24 c4 bd d2 ec 8e bd 6e bb 0d 3d
       -0.08840026 -0.09577252 -0.06978764 0.034602575
0002c0 b2 6e ef 3b 7a 41 c7 bd ba 04 66 3d 3b 94 15 3d
       0.007306897 -0.097292855 0.05615685 0.036518317
0002d0 79 d9 24 bd 80 38 b0 bd 00 a7 00 bc 4e 9d 48 bd
       -0.04024646 -0.086045265 -0.007852316 -0.048978142
0002e0 76 48 22 3e 90 f8 5f bd 5b d5 b4 bd 81 1c 04 3c
       0.15847954 -0.054680407 -0.08829757 0.0080634365
0002f0 32 28 ac bd 41 0d 79 bd e9 58 68 bd d7 aa 1c bd
       -0.08406104 -0.060803656 -0.056725416 -0.038248863
000300 71 2d 5d bd 03 c4 95 bd 03 7b 47 bc 63 8e fb bb
       -0.053998414 -0.07312777 -0.012175324 -0.007676886
000310 ce fd 04 3e a8 75 73 3c da ae ef 3c 14 14 90 3c
       0.12987444 0.014859594 0.02925818 0.017587699
000320 8a ec e9 3d 68 a6 a7 bd b9 b2 3d 3d 23 9f fc bc
       0.11422069 -0.08186036 0.04631302 -0.030837601
000330 9d 2c f9 bc bd 4d 4b 3b b9 6b 89 bd a2 0e 08 be
       -0.030416781 0.0031021677 -0.067099996 -0.13286832
000340 2f df 97 3d 65 db 86 bc d0 5c 9f bd f5 54 12 3d
       0.07415616 -0.016462037 -0.077813745 0.035725553
000350 22 f9 9a bd aa 9f 8e bc 9f d8 1a 3d 0d f1 9c bd
       -0.075670496 -0.017410118 0.037804242 -0.07663164
000360 1a 8b 0a 3d 54 42 34 3d 69 d1 dc bd d2 da 05 3d
       0.033824064 0.044008568 -0.10782129 0.032679386
000370 6a 5a 06 3d da 00 bb ba ef 8f 82 3d e0 f6 55 bd
       0.03280107 -0.0014267222 0.063751094 -0.05223739
000380 7a 1d 93 bd 02 ee d4 3d e7 69 2f bd 07 c3 b2 bd
       -0.071833566 0.10396959 -0.042825606 -0.08728605
000390 5a 84 15 be a5 47 8c bd 72 92 0d be 63 16 b3 bd
       -0.1460127 -0.068496026 -0.13825396 -0.08744504
0003a0 92 bb b3 3d 84 13 51 bd c8 83 7d 3d 72 6c 2f 3d
       0.087760106 -0.051044002 0.061893255 0.04282803
0003b0 9f 4b b6 3d 9f 41 a5 3d 9f 40 83 bd 3c 31 67 bd
       0.08901142 0.08069157 -0.0640881 -0.056443438
0003c0 50 fd 42 3d 15 40 c2 3d 61 ec b3 3d 90 f9 08 3a
       0.04760486 0.09484879 0.0878532 0.0005225176
0003d0 aa 98 ff bc ad c6 bc bb f7 1c e1 bd 54 67 a9 bd
       -0.031200726 -0.0057609887 -0.10991853 -0.082716614
0003e0 80 3b e0 bb b4 de ee 3d 0f b3 5f bb 23 f0 86 3d
       -0.0068430305 0.11663571 -0.0034133827 0.06588771
0003f0 69 cd a6 bc 1a f8 3d bd 6b 07 db bc 03 1d 67 3d
       -0.02036162 -0.046379186 -0.026736936 0.056424152

layer3.bias f4 [15]
000000 5c 2f b6 3d f8 fb a4 3d 14 79 a1 3c 87 d2 8f 3d
       0.08895752 0.08055872 0.019711055 0.07022577
000010 f2 26 bb 3d 6e 99 98 3c d4 f2 94 3c 73 17 2b bd
       0.091382876 0.018627848 0.018182196 -0.04177041
000020 50 ce 42 3c f1 3c 3f bd f3 ca 8e 3d 0f 76 09 be
       0.011890009 -0.046688978 0.06972303 -0.13423942
000030 c8 28 0d 3d c3 2b 5b bd da 26 98 bd
       0.03446272 -0.05350853 -0.07429285
