code/race_net_1.pt (torch, 90271 bytes, 6 tensors)

layer1.weight f4 [128, 27]
-0.07880926 -0.17662969 0.0987038 0.10874674 -0.14612699 0.108339615 -0.046334114 -0.14815584
-0.0116641205 -0.018722977 0.14268175 0.064382315 0.07240935 -0.044177294 -0.16857252 0.028091762
0.13171694 -0.14535789 0.15057589 -0.18669079 -0.0049904766 0.04329435 -0.059391003 -0.07746787
0.076175876 0.05023956 -0.064872235 0.10767831 -0.04842773 0.117008194 0.062816955 0.0066746995
0.15193985 0.08686001 -0.11832667 -0.16803162 0.05184845 0.1357914 -0.05185679 0.004190663
0.01529172 0.21734755 0.19477183 0.0969656 -0.17666508 -0.16895743 0.13741632 -0.13581729
-0.07367879 0.12508826 0.102771744 0.054278668 -0.14998984 0.3078174 0.1107002 0.015359359
0.21135667 -0.06411557 0.15992245 -0.1535355 0.004526457 0.0003157454 -0.052616518 -0.18575639
0.129223 -0.12345004 0.25250682 0.033225365 0.26460436 0.014553289 0.15563153 0.090614095
0.041961562 -0.12691912 0.03661911 -0.1383558 -0.046406046 0.040663224 0.06984661 -0.012249503
0.30649102 -0.20568575 0.118898325 -0.10314991 0.09589765 0.23690057 -0.024499783 -0.018398331
-0.17906979 0.16722141 0.08245991 -0.062102474 0.16529632 -0.025382314 -0.056665536 0.15125282
0.13977455 0.10035213 0.17961922 0.06509528 0.20531367 -0.007364761 -0.02524568 -0.033133395
-0.10145925 0.046340756 0.16701055 -0.24561635 0.026461715 -0.09946337 0.109581366 -0.07915317
-0.06436006 0.08277834 0.0048430823 0.11019188 0.119417794 -0.046635866 -0.023047538 0.051065985
-0.09888351 0.13325702 -0.1409076 0.14972122 0.28220332 -0.09626378 0.10220837 -0.09876765
0.20414306 0.1989333 0.051428698 0.1685688 -0.0813839 0.15311095 0.075265095 -0.1998804
0.18864782 -0.01313333 0.18378006 -0.026931964 0.1168902 0.01030562 0.23707858 -0.18955827
0.16730015 -0.1788549 -0.07810995 -0.13370919 -0.062894635 0.018144185 0.0011015694 -0.057293825
-0.12350697 0.055111513 0.11065102 0.13815108 0.14196587 -0.086123295 0.13929516 0.07337351
0.21551627 0.3567537 -0.19283095 0.22206347 0.19358312 -0.12668781 0.011027018 -0.01539635
-0.10764451 0.1907603 -0.11515849 0.17523278 0.22226396 0.0687645 0.11045815 0.22007747
0.025194513 0.14751439 0.06761984 0.1364403 0.23211198 -0.11885076 -0.018261096 -0.03894085
0.17887877 0.18577474 -0.0639636 0.048652183 -0.11158563 0.155307 -0.1004323 -0.08075568
0.1231745 -0.07242003 -0.19010551 -0.03268272 0.037039157 0.249964 0.060803246 0.022858052
0.10711404 0.04986165 0.044190716 0.102614045 0.21315548 -0.18450497 -0.026168702 -0.20517372
0.085358076 -0.18039547 -0.10937711 0.05916867 0.011407078 -0.03723196 0.045198254 0.10345421
0.10940046 -0.06604709 -0.15117936 0.043610085 -0.017106337 -0.18012667 0.069239706 -0.16556597
0.014970093 -0.025371674 -0.08376015 0.05085259 0.095749766 -0.05215905 0.11151517 -0.02848376
0.02258143 0.017695118 -0.12868957 0.1307331 0.012939937 -0.17990997 -0.11040481 -0.13955948
0.08778969 -0.050977368 -0.12584999 0.07930229 -0.031616885 0.16897899 0.120970264 0.07553473
-0.113383256 0.09776946 -0.037790366 0.08180077 -0.014383584 0.10722668 0.112663545 -0.034090478
00000000: c066 a1bd 6ade 34be 3825 ca3d 9cb6 de3d
00000010: 50a2 15be 29e1 dd3d d7c8 3dbd 2ab6 17be
00000020: de1a 3fbc ee60 99bc 2a1b 123e e0da 833d
00000030: 5a4b 943d 40f3 34bd 469e 2cbe b220 e63c
00000040: cee0 063e b3d8 14be 9130 1a3e df2b 3fbe
00000050: 2787 a3bb 6b55 313d fb43 73bd 7aa7 9ebd
00000060: 1902 9c3d ffc7 4d3d bcdb 84bd 7286 dc3d
00000070: 285c 46bd fea1 ef3d 2da6 803d 70b7 da3b
00000080: 1f96 1b3e a9e3 b13d 4155 f2bd 7b10 2cbe
00000090: 0a5f 543d e70c 0b3e c967 54bd d451 893b
000000a0: 1f8a 7a3c 5b90 5e3e 4472 473e e795 c63d
000000b0: b1e7 34be 2d03 2dbe ddb6 0c3e b013 0bbe
000000c0: e8e4 96bd 2317 003e fe79 d23d 4f53 5e3d
000000d0: f096 19be 3e9a 9d3e c9b6 e23d d2a5 7b3c
000000e0: e26d 583e 064f 83bd b6c2 233e 6938 1dbe
000000f0: ac52 943b a18a a539 6b84 57bd ec36 3ebe
00000100: 0953 043e 60d3 fcbd 9348 813e 5217 083d
00000110: 397a 873e eb70 6e3c df5d 1f3e e293 b93d
00000120: e3df 2b3d 16f7 01be ebfd 153d 25ad 0dbe
00000130: 4414 3ebd 7b8e 263d bd0b 8f3d 24b2 48bc
00000140: 64ec 9c3e 499f 52be f780 f33d 4340 d3bd
00000150: fd65 c43d 1096 723e c5b3 c8bc 19b8 96bc
00000160: 125e 37be 173c 2b3e bee0 a83d 2a5f 7ebd
00000170: 7043 293e 92ee cfbc 1f1a 68bd 05e2 1a3e
00000180: 0f21 0f3e 6b85 cd3d 1aee 373e ad50 853d
00000190: bf3d 523e 1854 f1bb 07d0 cebc e2b6 07bd
000001a0: dec9 cfbd cecf 3d3d d004 2b3e da82 7bbe
000001b0: 3dc6 d83c 74b3 cbbd 326c e03d 0f1b a2bd
000001c0: 35cf 83bd b187 a93d b8b2 9e3b 48ac e13d
000001d0: 5191 f43d 4005 3fbd 31ce bcbc 912a 513d
000001e0: 7083 cabd 8774 083e 154a 10be 8550 193e
000001f0: f47c 903e f225 c5bd 9f52 d13d b246 cabd
00000200: e10a 513e 2cb5 4b3e e6a6 523d 4d9d 2c3e
00000210: 9aac a6bd 1ec9 1c3e 9624 9a3d 73ad 4cbe
00000220: e52c 413e 2e2d 57bc d730 3c3e 6ca0 dcbc
00000230: 2164 ef3d e7d8 283c bac4 723e 901b 42be
00000240: bb50 2b3e bd25 37be 1cf8 9fbd 10eb 08be
00000250: e7ce 80bd 1da3 943c 8962 903a eeac 6abd
00000260: 39f1 fcbd 9cbc 613d 019d e23d 7a77 0d3e
00000270: 805f 113e 6961 b0bd 64a3 0e3e da44 963d
00000280: 4cb0 5c3e 6ca8 b63e 7a75 45be 9b64 633e
00000290: a73a 463e 73ba 01be aaaa 343c f940 7cbc
000002a0: ba74 dcbd ab56 433e 37d8 ebbd 3970 333e
000002b0: 2a99 633e 67d4 8c3d e237 e23d fd5b 613e
000002c0: b964 ce3c 030e 173e 457c 8a3d 02b7 0b3e
000002d0: c3ae 6d3e 0768 f3bd 4b98 95bc 7180 1fbd
000002e0: ff2b 373e bc3b 3e3e 59ff 82bd 8347 473d
000002f0: 0287 e4bd cc08 1f3e 73af cdbd 3c63 a5bd
00000300: ea42 fc3d f450 94bd 05ab 42be 51de 05bd
00000310: 5fb6 173d 90f6 7f3e d30c 793d cf40 bb3c
00000320: 9b5e db3d bb3b 4c3d 5301 353d 5027 d23d
00000330: 6e45 5a3e dfee 3cbe bf5f d6bc 0f19 52be
00000340: 37d0 ae3d 97b9 38be 1b01 e0bd d95a 723d
00000350: c1e4 3a3c 8a80 18bd ce21 393d cddf d33d
00000360: 590d e03d b243 87bd c3ce 1abe 7da0 323d
00000370: 9722 8cbc 2073 38be 8ccd 8d3d 208a 29be
00000380: 1f45 753c 42d8 cfbc 718a abbd ce4a 503d
00000390: 7418 c43d baa4 55bd 1162 e43d c656 e9bc
000003a0: b1fc b83c 5af5 903c 33c7 03be e6de 053e
000003b0: 0802 543c 523a 38be eb1b e2bd aee8 0ebe
000003c0: 15cb b33d a5cd 50bd d2de 00be 3d69 a23d
000003d0: b580 01bd d408 2d3e 42bf f73d f4b1 9a3d
000003e0: 7b35 e8bd 5b3b c83d 12ca 1abd 2987 a73d
000003f0: 20a9 6bbc a999 db3d 25bc e63d 75a2 0bbd

layer1.bias f4 [128]
0.039745923 -0.007893338 -0.08452961 -0.16233964 0.17926776 -0.04157059 0.20487253 -0.04458107
0.18287532 -0.18823713 0.08033403 0.1396413 0.039996665 0.23193362 -0.104806006 -0.08090905
0.13618407 -0.013445505 0.15921615 0.038682405 0.037394688 0.20822878 0.1507431 0.027689364
-0.035502084 0.025348196 0.05571949 0.024268577 0.17791902 0.085896075 -0.17046595 0.23176882
0.035527304 0.08831895 -0.043927316 0.17702924 0.035811786 -0.037522182 -0.15476547 -0.03016367
-0.013503208 -0.07412239 -0.05712482 0.20345077 0.1985476 0.013629108 0.12994044 0.0050665513
-0.03434142 0.038591687 -0.051007632 0.10831118 0.16182566 0.17499253 -0.044588063 0.11893004
0.02880577 0.2010442 -0.11308188 0.051414825 0.1776298 -0.107284725 -0.036586322 -0.1482067
0.20530498 -0.14890991 -0.13532232 -0.055526998 -0.09281967 0.08741137 0.087534055 0.07632065
0.23336507 0.10762681 0.04070907 -0.15626322 0.11646414 0.13219382 -0.16408926 0.13174328
0.18255553 0.08925201 -0.18055941 -0.03790331 0.148678 0.025054617 -0.11318288 0.21292911
0.03958211 -0.036351804 -0.09746329 -0.039177854 -0.044901665 -0.025374142 -0.13687643 0.046441983
0.065183654 0.191953 0.040742576 0.18462168 0.18037583 0.20173761 0.03394696 0.1604255
-0.044023324 -0.1530303 0.016638953 0.10141164 0.035096597 -0.14024359 0.07286811 0.18960004
-0.10980318 0.034802478 0.045939323 -0.17501003 0.08796758 0.019409932 0.16544591 -0.016411418
0.049077872 0.20842499 0.18866546 0.0040800557 -0.099216014 0.12707835 0.04972716 0.14513816
00000000: 9fcc 223d 0f53 01bc dc1d adbd 5d3c 26be
00000010: f891 373e ec45 2abd 1bca 513e a49a 36bd
00000020: ab43 3b3e 3cc1 40be 2b86 a43d 21fe 0e3e
00000030: 8bd3 233d 0280 6d3e 88a4 d6bd a5b3 a5bd
00000040: d673 0b3e 894a 5cbc 8f09 233e 7171 1e3d
00000050: 2c2b 193d ed39 553e 665c 1a3e ced4 e23c
00000060: a26a 11bd 05a7 cf3c 1f3a 643d e5ce c63c
00000070: 6730 363e 48ea af3d a08e 2ebe ce54 6d3e
00000080: 1485 113d 91e0 b43d 21ed 33bd 2747 353e
00000090: 61af 123d dcb0 19bd d77a 1ebe cd19 f7bc
000000a0: 8f3c 5dbc 7bcd 97bd b7fb 69bd 6655 503e
000000b0: 1050 4b3e 9f4c 5f3c 1b0f 053e 5005 a63b
000000c0: 97a9 0cbd 5112 1e3d 61ed 50bd 40d2 dd3d
000000d0: a0b5 253e 3e31 333e f9a1 36bd 9891 f33d
000000e0: 14fa eb3c 88de 4d3e 7997 e7bd 5a98 523d
000000f0: 96e4 353e 18b8 dbbd 8adb 15bd 7fc3 17be
00000100: 783b 523e d77b 18be ef91 0abe 4770 63bd
00000110: 3d18 bebd bb04 b33d 0e45 b33d 004e 9c3d
00000120: 41f7 6e3e 726b dc3d 8ebe 263d 7703 20be
00000130: c084 ee3d d15d 073e 0407 28be b6e7 063e
00000140: d6ef 3a3e c2c9 b63d 91e4 38be 8040 1bbd
00000150: 0c3f 183e 573f cd3c 6dcc e7bd 170a 5a3e
00000160: da20 223d a1e5 14bd d59a c7bd f578 20bd
00000170: cfea 37bd 6fdd cfbc 5629 0cbe f339 3e3d
00000180: 027f 853d 548f 443e b0e1 263d 770d 3d3e
00000190: 71b4 383e 4e94 4e3e f80b 0b3d 9546 243e
000001a0: cd51 34bd fab3 1cbe 6a4e 883c e8b0 cf3d
000001b0: 73c1 0f3d 049c 0fbe e03b 953d 8326 423e
000001c0: 7de0 e0bd 0b8d 0e3d df2a 3c3d d435 33be
000001d0: 5928 b43d 9401 9f3c a76a 293e 3d71 86bc
000001e0: e105 493d 5c6d 553e 8531 413e fdb1 853b
000001f0: c431 cbbd d420 023e b5ae 4b3d 199f 143e

layer2.weight f4 [128, 128]
-0.0012445778 0.031207714 0.07022689 -0.038546264 0.066556066 0.07880125 0.070957325 -0.0023814715
-0.007902442 -0.08402225 0.066873685 0.05819325 0.015207036 0.08218395 -0.060382474 -0.0016617911
-0.0259524 0.053775415 -0.06095264 -0.05335953 -0.030820906 -0.094505474 -0.029513523 -0.04376986
-0.08123494 -0.035320498 -0.0063666976 0.041221075 0.0063431133 -0.05761689 -0.06145147 0.014572566
0.024095906 -0.08493309 -0.011284483 -0.06184288 0.009731735 -0.0846644 -0.014580786 -0.08008008
0.07062572 0.028097745 -0.037675165 -0.034379326 -0.06627781 0.0056699403 -0.08321457 -0.04052453
-0.011302623 0.06858672 -0.042547323 -0.019970465 0.012468223 0.072479896 -0.010022048 0.024723172
0.05407069 -0.09257009 -0.020967001 -0.04130173 0.054560844 0.023583872 0.024176884 -0.0050152005
0.05847324 0.027567422 -0.057329766 -0.062342536 0.06638083 0.04118763 0.032884665 0.031178817
0.05784948 -0.038651235 0.024336938 -0.006865066 -0.071929306 -0.008171918 0.0607727 -0.07986763
0.004789458 0.004655196 -0.012748415 0.011083144 0.07191153 -0.0039605037 0.025197547 0.026687354
0.016779132 0.004100001 0.035658963 0.078729145 -0.023951394 -0.08743071 0.035669934 -0.08225609
-0.0345024 0.009614575 0.063048206 -0.08321531 0.018273637 0.030627385 0.03816851 0.040719565
-0.03472164 0.035827413 -0.010852947 -0.006604759 -0.07647503 -0.015822602 -0.005155935 0.0048763356
-0.06866074 0.050660186 0.014543634 -0.049487133 -0.01826028 -0.059897155 0.012434837 -0.06476424
-0.092184 -0.008251897 -0.0065818327 -0.09078753 -0.074155085 -0.08541837 0.037997693 0.019168137
-0.011651093 -0.018089734 0.003996052 -0.009900259 -0.076353155 -0.0898701 -0.035081208 0.018744614
0.07101392 -0.03423629 0.13325506 -0.021991355 -0.09007907 0.16263613 0.007962311 -0.02074554
0.13137421 0.0038459275 0.060604725 -0.0714572 0.0013907531 0.07085399 0.06084786 0.048611157
-0.008355922 -0.056256052 0.05860566 -0.027566649 0.12543085 -0.048839867 0.02085296 0.059766613
0.08599894 0.042108618 -0.081298634 0.11702503 0.12736328 0.12991957 0.08783674 0.01579884
-0.031715356 -0.06316945 -0.022620497 0.02213326 -0.010936473 0.03678941 0.017362686 -0.02479332
0.0854834 0.044588283 0.01595486 -0.044891376 0.09353727 0.088671215 0.01654897 0.070976704
-0.0115981875 0.08595705 -0.072034925 -0.010522178 -0.07375903 -0.1494354 -0.030200254 0.06948574
0.09889967 -0.07660888 -0.027130276 -0.027081825 0.08399416 0.08324891 0.025485182 0.17747499
0.0064457073 0.012057283 0.06606949 0.0624786 0.12120774 0.1424138 -0.015389974 0.059692875
0.0708741 -0.009956834 0.045529675 -0.07500719 0.07888392 0.0035964672 -0.048568137 -0.09336065
-0.10438432 -0.002243223 0.0417478 0.06259421 -0.042879064 0.071397185 -0.022914065 -0.029427744
-0.03660148 0.060397353 -0.031437326 0.06455867 0.030365026 0.07576549 -0.07539688 -0.07132365
0.060149632 -0.061239135 0.029819153 0.06621947 -0.061047282 -0.0287456 -0.050599955 -0.01522825
-0.07378157 -0.003265419 -0.030356798 0.036288504 0.07071096 -0.0061077652 -0.07835475 0.045302153
0.020963052 0.022689026 0.004882806 0.18400598 0.033091635 0.06923225 0.12241607 -0.057180822
00000000: 1a21 a3ba 52a7 ff3c 1ed3 8f3d b0e2 1dbd
00000010: 8c4e 883d 8d62 a13d 1352 913d 7612 1cbb
00000020: 3e79 01bc db13 acbd 12f5 883d 0c5c 6e3d
00000030: ef26 793c 0f50 a83d 9d53 77bd 75d0 d9ba
00000040: 219a d4bc 9c43 5c3d 7aa9 79bd 868f 5abd
00000050: 207c fcbc 168c c1bd 58c6 f1bc 0648 33bd
00000060: 815e a6bd 3aac 10bd bb9f d0bb 6ed7 283d
00000070: e4d9 cf3b b0ff 6bbd 89b4 7bbd c6c1 6e3c
00000080: c764 c53c 66f1 adbd 8de2 38bc f64e 7dbd
00000090: db71 1f3c 8764 adbd 40e4 6ebc 0601 a4bd
000000a0: 38a4 903d 3e2d e63c 4651 1abd 56d1 0cbd
000000b0: a9bc 87bd e8ca b93b 676c aabd 0dfd 25bd
000000c0: a32e 39bc 3277 8c3d 1a46 2ebd 1a99 a3bc
000000d0: 8547 4c3c 5770 943d 8433 24bc 4088 ca3c
000000e0: 3a79 5d3d 6395 bdbd fdc2 abbc 012c 29bd
000000f0: 317b 5f3d f732 c13c 9a0e c63c 8d56 a4bb
00000100: a381 6f3d 13d5 e13c 9ed2 6abd e35a 7fbd
00000110: acf2 873d 5cb4 283d 12b2 063d b86a ff3c
00000120: 94f3 6c3d c250 1ebd 425e c73c 59f4 e0bb
00000130: ac4f 93bd 82e3 05bc cbec 783d a491 a3bd
00000140: e3f0 9c3b 9d8a 983b bade 50bc 1396 353c
00000150: 5a46 933d 1dc7 81bb 166b ce3c 709f da3c
00000160: 6474 893c 4d59 863b 220f 123d bf3c a13d
00000170: b735 c4bc df0e b3bd a31a 123d e275 a8bd
00000180: 6352 0dbd 7386 1d3c 6b1f 813d ca6c aabd
00000190: 98b2 953c 48e6 fa3c 9556 1c3d 8fc9 263d
000001a0: 4738 0ebd c4bf 123d 8fd0 31bc bc6c d8bb
000001b0: f19e 9cbd 679e 81bc 1ef3 a8bb abc9 9f3b
000001c0: 019e 8cbd 0e81 4f3d 6c48 6e3c 05b3 4abd
000001d0: 9596 95bc b856 75bd 7dbb 4b3c 1da3 84bd
000001e0: f7ca bcbd f732 07bc 6aac d7bb d0ee b9bd
000001f0: 9fde 97bd d4ef aebd 78a3 1b3d 7f06 9d3c
00000200: 3ae4 3ebc ec30 94bc 50f1 823b b234 22bc
00000210: 0b5f 9cbd d10d b8bd 50b1 0fbd 4e8e 993c
00000220: bf6f 913d 5a3b 0cbd 0474 083e 3727 b4bc
00000230: 607b b8bd 168a 263e 5a74 023c 8df2 a9bc
00000240: f686 063e f50b 7c3b a93c 783d 2758 92bd
00000250: ee49 b63a e61b 913d 9b3b 793d 7e1c 473d
00000260: 47e7 08bc bf6c 66bd 7d0c 703d 74d3 e1bc
00000270: f270 003e 500c 48bd d4d3 aa3c d6cd 743d
00000280: 3620 b03d 167a 2c3d e67f a6bd d2aa ef3d
00000290: 856b 023e a309 053e c0e3 b33d 926c 813c
000002a0: f6e7 01bd fc5e 81bd 9f4e b9bc cf50 b53c
000002b0: e42e 33bc 7eb0 163d 313c 8e3c 5c1b cbbc
000002c0: ec11 af3d 34a2 363d c4b3 823c 05e0 37bd
000002d0: 7890 bf3d 4199 b53d b591 873c 3c5c 913d
000002e0: 5306 3ebc 400a b03d 0c87 93bd 3765 2cbc
000002f0: f90e 97bd 9805 19be 8666 f7bc 8a4e 8e3d
00000300: e98b ca3d 1ee5 9cbd 5040 debc b4da ddbc
00000310: 2105 ac3d 687e aa3d 4dc6 d03c 01bc 353e
00000320: 8336 d33b e98b 453c 714f 873d 8fe9 7f3d
00000330: c33b f83d ecd4 113e 3b26 7cbc 8480 743d
00000340: 7126 913d fd21 23bc 537d 3a3d 5f9d 99bd
00000350: e58d a13d b5b2 6b3b 62ef 46bd de33 bfbd
00000360: 72c7 d5bd 0903 13bb beff 2a3d 6531 803d
00000370: f5a1 2fbd b038 923d 47b6 bbbc 7412 f1bc
00000380: 6feb 15bd 3763 773d 6dc4 00bd 5637 843d
00000390: 13c0 f83c f02a 9b3d ae69 9abd 2212 92bd
000003a0: 765f 763d e3d5 7abd 4c47 f43c 139e 873d
000003b0: b70c 7abd e47b ebbc e641 4fbd e97f 79bc
000003c0: cb1a 97bd a400 56bb d2ae f8bc 41a3 143d
000003d0: e8d0 903d a623 c8bb 7578 a0bd c08e 393d
000003e0: b5ba ab3c 56de b93c f2ff 9f3b 106c 3c3e
000003f0: 188b 073d a3c9 8d3d 47b5 fa3d 7036 6abd

layer2.bias f4 [128]
-0.037349142 0.08674883 -0.060637206 0.11385628 -0.040215556 0.04239161 0.09264882 -0.013566185
0.16849844 0.06058033 -0.06382781 0.08489406 0.0031191367 -0.058327083 0.012874449 -0.0046546287
0.017877527 -0.036601 0.07339971 0.042291515 -0.06607262 0.11314593 -0.06698037 -0.05613602
0.014212046 0.11237448 -0.007421463 -0.051704165 0.017889654 0.055708043 -0.018367358 -0.0018616789
0.009066462 0.10632144 -0.07766243 -0.006770849 -0.015591969 0.10990666 0.02464676 0.051439956
-0.07569279 -0.00093238894 -0.01733354 0.065870315 0.033861592 0.06439327 -0.012742549 0.069136225
0.037651133 -0.041789897 0.044782817 0.106420934 0.08955219 0.0037832162 -0.0101052625 0.028072326
0.015888814 -0.03864269 -0.0397156 -0.06925139 0.0015681253 -0.01601478 0.05163183 0.028850377
0.032829545 0.04234097 0.053411286 0.06830723 -0.020767353 0.117092304 0.07310598 -0.035188943
-0.018239548 0.020316806 0.0128519265 0.033875592 0.031152159 0.031049266 -0.067142 0.024943737
0.1281489 0.060853794 -0.030699864 0.0053596627 -0.042596083 0.018445585 0.024095831 -0.0531315
0.04870617 -0.054074455 -0.083669044 0.10167275 0.08012549 -0.035624776 0.0034798605 -0.043511532
0.013512321 -0.025572697 0.06883903 -0.065009184 -0.06804598 -0.063932195 -0.028223582 -0.047202967
0.027431697 -0.021701243 0.04552205 0.0401447 -0.025435328 -0.05369154 0.012050474 -0.007249216
0.011436803 0.11152967 -0.05073603 -0.053816885 -0.050957095 -0.06788226 -0.02427917 -0.034569293
0.04345099 0.17699921 -0.0012469088 0.008691009 -0.00481887 0.11112971 -0.0038453704 -0.019743908
00000000: 6afb 18bd 5fa9 b13d b85e 78bd 7b2d e93d
00000010: 11b9 24bd d3a2 2d3d aabe bd3d b444 5ebc
00000020: db8a 2c3e 1523 783d 28b8 82bd f0dc ad3d
00000030: 6e6a 4c3b 61e8 6ebd 5aef 523c db85 98bb
00000040: e473 923c eeea 15bd 9652 963d de39 2d3d
00000050: 1551 87bd 0eb9 e73d 012d 89bd e2ee 65bd
00000060: a4d9 683c 9724 e63d be2f f3bb bfc7 53bd
00000070: 538d 923c 1e2e 643d 2477 96bc 9403 f4ba
00000080: 7f8b 143c 0ebf d93d 7b0d 9fbd 00de ddbb
00000090: 7575 7fbc be16 e13d 01e8 c93c b4b2 523d
000000a0: d204 9bbd 906b 74ba 11ff 8dbc 04e7 863d
000000b0: 74b2 0a3d 9ee0 833d 20c6 50bc 4b97 8d3d
000000c0: 1338 1a3d e22b 2bbd 306e 373d 38f3 d93d
000000d0: 2367 b73d d6ef 773b 8b90 25bc eff7 e53c
000000e0: 4229 823c cc47 1ebd d3ac 22bd acd3 8dbd
000000f0: 8e89 cd3a 6e31 83bc e67b 533d a057 ec3c
00000100: 4678 063d ba6d 2d3d cbc5 5a3d a9e4 8b3d
00000110: 4c20 aabc 17ce ef3d 97b8 953d 4822 10bd
00000120: 1b6b 95bc 6e6f a63c e390 523c 22c1 0a3d
00000130: d032 ff3c 085b fe3c bf81 89bd cf56 cc3c
00000140: 7739 033e d441 793d 487e fbbc 1ca0 af3b
00000150: 3b79 2ebd 321b 973c 9f64 c53c 6aa0 59bd
00000160: 1f80 473d 2d7d 5dbd ad5a abbd ce39 d03d
00000170: d518 a43d 49eb 11bd 5f0e 643b 2639 32bd
00000180: c862 5d3c d57d d1bc 7afb 8c3d 8923 85bd
00000190: b15b 8bbd e2ee 82bd 2435 e7bc e657 41bd
000001a0: 70b8 e03c cec6 b1bc 5475 3a3d c56e 243d
000001b0: c05d d0bc a9eb 5bbd 5a6f 453c d58a edbb
000001c0: 6e61 3b3c ab69 e43d 95d0 4fbd 186f 5cbd
000001d0: 63b8 50bd db05 8bbd 1ce5 c6bc 8898 0dbd
000001e0: aaf9 313d 483f 353e 516f a3ba bc64 0e3c
000001f0: 9de7 9dbb f997 e33d 9c02 7cbb fabd a1bc

layer3.weight f4 [15, 128]
-0.023874696 0.013777682 0.012769329 0.052316815 0.12519422 0.08456552 0.005953086 0.1458971
-0.01091944 0.07764026 -0.022253614 0.13073786 0.016287098 0.14900462 0.08981337 0.122960605
0.0729672 0.020547776 0.082127824 0.0350092 0.123734064 0.123407386 -0.07687055 -0.01688095
0.13367228 0.12903026 -0.0100068655 0.120546095 0.07491894 0.02620779 -0.034997866 0.09347961
0.08225772 0.15845443 0.18628734 0.038875844 0.008616456 0.11580108 -0.0638219 0.004639579
0.01670675 -0.03949476 0.007250971 0.1329986 0.03687144 0.15019597 -0.067066275 -0.017055659
-0.0005081804 0.15136589 -0.07767702 -0.02748273 0.0013323883 -0.050936688 0.023984352 0.123201355
-0.023334011 0.13716523 -0.022061624 -0.054682333 0.052351505 0.0114234695 0.16170087 -0.070548035
0.008639 0.10887074 0.11906774 0.147021 -0.011797076 -0.03454388 -0.038284954 0.055858586
0.13891613 0.121371105 -0.04507591 0.12755717 -0.02624977 -0.07735564 0.14581181 0.021476625
-0.03241015 0.08757847 0.15865207 0.13243249 -0.054626424 0.17296718 0.059705835 0.085461974
0.04142579 -0.010576756 0.12611353 0.023551442 -0.009121932 -0.081401035 0.056221142 0.12559293
0.14701916 -0.083234385 -0.042993784 -0.0068264045 0.12890057 -0.035968523 0.13810873 0.10740898
-0.054356646 -0.074444175 -0.059307743 0.08286947 -0.09321443 -0.07974394 0.12969692 -0.019742105
0.051758148 0.07385859 0.11394571 -0.10848552 0.029947981 0.07605204 0.1045395 0.14007273
0.13127737 0.07184565 0.030952023 -0.110771 0.15202604 0.008027507 0.15348846 -0.08068784
0.007190034 0.04925357 0.050330967 0.052095797 -0.0684117 -0.06869689 0.12172088 -0.11034697
0.06998339 0.054499824 0.054473102 0.066827044 0.0658562 0.09018012 -0.14322299 0.033732235
-0.11720918 0.02537651 -0.035655808 0.02611202 0.061162308 0.085782476 -0.027336163 -0.028832434
-0.13658412 0.025702063 0.00031231827 -0.01423541 0.04411552 -0.08216699 -0.0507175 -0.057459947
0.06924396 -0.02730817 -0.06392982 0.005635875 0.05198667 0.09116566 0.028818794 0.05038526
0.05547742 0.07720667 -0.030818027 0.057912957 -0.08879316 -0.094974 -0.07012113 0.03475591
0.007341207 -0.090373695 0.0624492 0.026160482 -0.052577037 -0.08644852 -0.00789065 -0.044016242
0.1518399 -0.050103992 -0.08870082 0.008101771 -0.0844321 -0.06927672 -0.0584782 -0.038418297
-0.05765443 -0.07165562 -0.012015686 -0.013840086 0.13343461 0.012914518 0.02939542 0.017672416
0.10568729 -0.06857873 0.04924164 -0.02594656 -0.03056207 0.0058732033 -0.06753396 -0.11972406
0.07328475 -0.012901017 -0.06932155 0.027068947 -0.07619307 -0.008223179 0.044791292 -0.07697051
0.0339774 0.044210196 -0.09320228 0.037999265 0.039813895 -0.001433023 0.06405777 -0.054243665
-0.06268676 0.09570919 -0.043027233 -0.07753414 -0.13748501 -0.0688027 -0.1277792 -0.076115176
0.09689547 -0.051286288 0.06218383 0.04302966 0.09497859 0.08106263 -0.0712449 -0.05670182
0.047429606 0.09518332 0.08694475 0.0018729407 -0.019210098 0.004566346 -0.098799266 -0.071541876
-0.0045085475 0.113681406 0.002730895 0.065637045 -0.021842504 -0.058588862 -0.030386943 0.056682535
00000000: de94 c3bc c9bb 613c 7336 513c 284a 563d
00000010: ea32 003e b030 ad3d 1b12 c33b 0d66 153e
00000020: 73e7 32bc db01 9f3d 364d b6bc 25e0 053e
00000030: 856c 853c ab94 183e 12f0 b73d c5d2 fb3d
00000040: d46f 953d cf53 a83c a232 a83d cf65 0f3d
00000050: 4968 fd3d 03bd fc3d 4f6e 9dbd eb49 8abc
00000060: 63e1 083e 8220 043e d6f3 23bc dfe0 f63d
00000070: 1a6f 993d b8b1 d63c ec59 0fbd 3d72 bf3d
00000080: bc76 a83d e141 223e 1cc2 3e3e 473c 1f3d
00000090: 092c 0d3c 1e29 ed3d 0eb5 82bd 9c07 983b
000000a0: 98dc 883c 42c5 21bd 8e99 ed3b c930 083e
000000b0: 8206 173d f9cc 193e 0b5a 89bd 4fb8 8bbc
000000c0: 6937 05ba a9ff 1a3e 2115 9fbd 7623 e1bc
000000d0: 88a3 ae3a fda2 50bd d57a c43c fe50 fc3d
000000e0: f826 bfbc 0b75 0c3e 94ba b4bc 95fa 5fbd
000000f0: 886e 563d 8129 3b3c ea94 253e 7d7b 90bd
00000100: 988a 0d3c 9ff7 de3d cad9 f33d ac8c 163e
00000110: 8648 41bc e27d 0dbd afd0 1cbd f9cb 643d
00000120: 0840 0e3e 6a91 f83d 84a1 38bd 599e 023e
00000130: c209 d7bc a26c 9ebd b14f 153e bfef af3c
00000140: 81c0 04bd 575c b33d b075 223e 629c 073e
00000150: f5bf 5fbd 4f1e 313e 1b8e 743d b006 af3d
00000160: 17ae 293d 214a 2dbc e823 013e f4ee c03c
00000170: 2874 15bc 96b5 a6bd 2448 663d 6f9b 003e
00000180: 318c 163e ca76 aabd 401a 30bd 08b0 dfbb
00000190: 83fe 033e bb53 13bd 606c 0d3e 3df9 db3d
000001a0: 13a5 5ebd 3076 98bd adec 72bd 78b7 a93d
000001b0: 35e7 bebd ca50 a3bd 45cf 043e 32ba a1bc
000001c0: 5a00 543d 2c43 973d 5e5c e93d a82d debd
000001d0: 7855 f53c 2cc1 9b3d ce18 d63d 3a6f 0f3e
000001e0: 936d 063e d023 933d 198f fd3c e8db e2bd
000001f0: b7ac 1b3e ce85 033c 142c 1d3e ab3f a5bd
00000200: 609a eb3b 1dbe 493d d827 4e3d 6762 553d
00000210: 6f1b 8cbd f4b0 8cbd cc48 f93d 98fd e1bd
00000220: 7453 8f3d 353b 5f3d 301f 5f3d 9edc 883d
00000230: 9edf 863d 5bb0 b83d 0ca9 12be d02a 0a3d
00000240: 5e0b f0bd 66e2 cf3c d30b 12bd e0e8 d53c
00000250: 5485 7a3d b9ae af3d 17f0 dfbc ff31 ecbc
00000260: b5dc 0bbe 228d d23c a6be a339 a33b 69bc
00000270: 7ab2 343d 2b47 a8bd 27bd 4fbd 1f5b 6bbd
00000280: c7cf 8d3d 62b5 dfbc a3ed 82bd 25ad b83b
00000290: f9ef 543d 10b5 ba3d 6415 ec3c c660 4e3d
000002a0: 4b3c 633d 881e 9e3d 1676 fcbc 2336 6d3d
000002b0: 30d9 b5bd ba81 c2bd ab9b 8fbd 375c 0e3d
000002c0: 828e f03b d815 b9bd bbca 7f3d 824e d63c
000002d0: 055b 57bd ec0b b1bd c947 01bc 604a 34bd
000002e0: eb7b 1b3e d839 4dbd c7a8 b5bd 4abd 043c
000002f0: bdea acbd f4e0 8dbd d686 6fbd 815c 1dbd
00000300: 0d27 6cbd 2fc0 92bd 71dd 44bc 87c1 62bc
00000310: 15a3 083e 6a97 533c aace f03c bec5 903c
00000320: 9472 d83d 0173 8cbd 9ab1 493d e18d d4bc
00000330: 4e5d fabc 0074 c03b 3f4f 8abd e331 f5bd
00000340: 5116 963d ca5e 53bc 75f8 8dbd b2bf dd3c
00000350: 1d0b 9cbd 83ba 06bc 1377 373d b7a2 9dbd
00000360: e32b 0b3d c015 353d d6e0 bebd 1ea5 1b3d
00000370: e513 233d 46d4 bbba b830 833d 9b2e 5ebd
00000380: eb61 80bd 2e03 c43d 533d 30bd 38ca 9ebd
00000390: dfc8 0cbe 6ee8 8cbd 8dd8 02be 46e2 9bbd
000003a0: 2271 c63d 9211 52bd 79b4 7e3d de3f 303d
000003b0: 2384 c23d 2a04 a63d d9e8 91bd 2b40 68bd
000003c0: 8c45 423d 79ef c23d 1710 b23d 767d f53a
000003d0: 7f5e 9dbc 49a1 953b 4557 cabd 8c84 92bd
000003e0: 70bc 93bb ccd1 e83d d1f8 323b b76c 863d
000003f0: 0def b2bc e0fa 6fbd 0aee f8bc f22b 683d

layer3.bias f4 [15]
0.09083333 0.07467974 0.033104688 0.06974941 0.08431559 0.015917925 0.019415686 -0.037286524
0.008849158 -0.041417856 0.066887185 -0.11064749 0.039379835 -0.06063207 -0.07522165
00000000: d306 ba3d b1f1 983d c898 073d c7d8 8e3d
00000010: a7ad ac3d 4f66 823c a50d 9f3c c1b9 18bd
00000020: 0ffc 103c c5a5 29bd 26fc 883d 279b e2bd
00000030: c04c 213d 5559 78bd cf0d 9abd
